thesis/may/week 9/models/pruned_siren_mean_135n.pth (torch, 893523 bytes, 27 tensors)

net_layers.0.linear.weight f4 [135, 3]
0	0xbe95628a	-0.29176742
1	0xbe9c0eff	-0.3048019
2	0x3d2345d4	0.039861515
3	0x3c4d11e9	0.012516477
4	0x3ea1746a	0.3153413
5	0xbe2540a6	-0.16137943
6	0xbe88b2c2	-0.2669888
7	0x3c914ac6	0.01773585
8	0xbea3b0e7	-0.31970903
9	0xbd952abb	-0.07283541
10	0x3e051e90	0.1299994
11	0xbe90f16d	-0.28309193
12	0x3e88c378	0.2671163
13	0xba34eb14	-0.00069014844
14	0x3e1e1284	0.1543675
15	0x3d561158	0.052262634
16	0x3e6c3fa5	0.23071153
17	0x3cca8fd6	0.02472679
18	0xbe22a8b3	-0.15884666
19	0xbe4d37c0	-0.20040798
20	0xbe925f5c	-0.28588378
21	0x3bb0a3ad	0.0053906054
22	0x3d82c04a	0.063843325
23	0xbe2fd51c	-0.17171139
24	0x3d27ff1a	0.04101477
25	0xbcc075b4	-0.023493625
26	0xbe3401ba	-0.17578784
27	0x3e28becf	0.16479038
28	0x3d092d6a	0.033490576
29	0xbc7a9751	-0.015294866
30	0x3e9e4300	0.30910492
31	0x3e01e2ff	0.12684248
32	0xbe01b70f	-0.12667488
33	0x3e13196a	0.14365163
34	0xbd6acc9e	-0.057324044
35	0x3ddd831c	0.10816023
36	0x3e97990a	0.29608947
37	0x3d344961	0.044015292
38	0x3ca648e2	0.020298425
39	0x3e692eac	0.2277171
40	0x3e7f2476	0.24916252
41	0xbe673658	-0.22579324
42	0x3e5640e6	0.20923194
43	0xbc347029	-0.011013069
44	0xbe831d6a	-0.2560838
45	0x3e9b1aab	0.30293784
46	0x3e2325d6	0.15932402
47	0x3e409861	0.18808128
48	0x3e19fa73	0.15036945
49	0xbe6e2504	-0.23256308
50	0x3e709df8	0.2349776
51	0x3e909386	0.2823755
52	0x3e31eafa	0.17374793
53	0xbdf937ed	-0.1216887
54	0xbe33f1d4	-0.17572719
55	0x3e4f780e	0.20260641
56	0x3e81ed57	0.25376388
57	0x3e685e01	0.2269211
58	0x3e0bae5e	0.13640735
59	0xbe1222eb	-0.14271133
60	0xbcb616bd	-0.02222764
61	0xbda60e0b	-0.08108147
62	0xbe33fdcf	-0.17577289
63	0x3e1cc509	0.15309538
64	0xbbe88040	-0.0070953667
65	0x3e876520	0.2644434
66	0x3e19629e	0.14979026
67	0xbe9d3cdb	-0.30710492
68	0xbdfd33ca	-0.123633936
69	0xbdb9fe71	-0.09081734
70	0x3e9f2c1c	0.3108834
71	0x3cb51e71	0.022109242
72	0xbdc2c127	-0.09509497
73	0x3ceb01f0	0.028687447
74	0xbe8d20d9	-0.27564123
75	0xbe8dc587	-0.27689764
76	0xbda172eb	-0.07883247
77	0x3e5a2f96	0.21307215
78	0xbea2919a	-0.3175171
79	0xbd2e7f50	-0.042601883
80	0x3dd8379e	0.10557483
81	0xbea38e35	-0.31944433
82	0xbe8c0e3d	-0.27354613
83	0xbddc0f87	-0.10745149
84	0x3e35955f	0.17732762
85	0xbe857bc3	-0.26070985
86	0x3d82f1cb	0.063937746
87	0x392fdc86	0.00016771452
88	0x3dec0fcb	0.1152645
89	0xbe14df44	-0.14538294
90	0xbe8b9f5e	-0.27270025
91	0xbc26c130	-0.010177895
92	0x3a466973	0.0007568814
93	0xbea15ab7	-0.31514522
94	0xbdb8bc47	-0.09020286
95	0xbd8c0c78	-0.06838316
96	0x3e35bcd0	0.17747808
97	0xbabb3296	-0.0014282044
98	0x3e2f330c	0.17109317
99	0x3c1d7e97	0.009612701
100	0x3d25cf67	0.040480997
101	0xbe84bc21	-0.2592478
102	0x3e838ebc	0.25694835
103	0xbdf85f06	-0.12127499
104	0x3e835e7a	0.25658017
105	0x3d5f0d23	0.054455888
106	0x3ea465cd	0.32108918
107	0x3e2f1041	0.17096044
108	0xbd754409	-0.059879337
109	0xbdbc4cae	-0.09194313
110	0xbe66e2fe	-0.22547528
111	0xbe21ec5b	-0.15812819
112	0xbdf22e54	-0.11825243
113	0xbdc6db01	-0.097097404
114	0x3e7c0688	0.24611866
115	0x3e08c1e8	0.1335522
116	0x3e7a9919	0.24472465
117	0x3e9de402	0.3083802
118	0xbdc4dd2a	-0.09612496
119	0x3e8a42c4	0.27004063
120	0x3e9c2d25	0.30503193
121	0xbdbd2ffa	-0.092376664
122	0x3e28314e	0.16425058
123	0xbca385a9	-0.019961195
124	0x3d48ba82	0.049005993
125	0xbea0ce92	-0.314076
126	0x3e944c14	0.28964293
127	0x3e6f07a1	0.23342754
128	0xbe991bda	-0.29904062
129	0xbde2a309	-0.11066253
130	0xbdb4d0fa	-0.088289216
131	0x3e8a8d7f	0.27061078
132	0x3e09944c	0.13435477
133	0xbd6dca2f	-0.058054145
134	0x3e2dedeb	0.1698529
135	0xbc7c979f	-0.015417009
136	0xbd6f2d7b	-0.058392983
137	0x3d1fd511	0.039021555
138	0x3e8b2ce3	0.27182683
139	0xbe80b430	-0.25137472
140	0x3da80b3e	0.08205269
141	0x3e8a2c46	0.26986903
142	0x3e894e54	0.26817572
143	0x3db30280	0.08740711
144	0xbe8ecbaf	-0.27889773
145	0x3c69ef3a	0.014278227
146	0xbd91b3e9	-0.07114393
147	0xbc350550	-0.01104863
148	0x3e1c474f	0.15261577
149	0xbe48109c	-0.19537586
150	0x3e870406	0.26370257
151	0x3e9d56ef	0.30730388
152	0x3e58126d	0.21100779
153	0x3e2999a4	0.16562515
154	0x3e09f17d	0.13471027
155	0x3e132e17	0.1437305
156	0xbdc5bf16	-0.096555874
157	0xbe431679	-0.19051541
158	0xbe32fe00	-0.17479706
159	0xbb308db7	-0.0026939937
160	0xbe218af0	-0.15775657
161	0xbb81d956	-0.003962676
162	0x3de85486	0.113442466
163	0xbdb51e4c	-0.08843669
164	0x3df6e8ba	0.12056108
165	0x3e0d18d8	0.13779008
166	0x3e505348	0.2034427
167	0xbe1d5b93	-0.15366964
168	0xbe589993	-0.21152334
169	0xbe66f3f4	-0.22553998
170	0x3e45ea4e	0.19327661
171	0xbe9ea42c	-0.30984628
172	0x3e731918	0.23740041
173	0xbe13cc16	-0.14433321
174	0xbdc684fc	-0.096933335
175	0x3e909f31	0.28246453
176	0xbd9e2f5e	-0.07723878
177	0x3cf18a1b	0.0294848
178	0x3ea6082a	0.32428104
179	0x3e7b3c25	0.24534662
180	0xbdf6fce4	-0.12059954
181	0x3de0f101	0.10983468
182	0x3e827a2f	0.25483844
183	0xbd8f615e	-0.07000993
184	0xbe956c23	-0.29184064
185	0x3ca7c649	0.020480292
186	0xbe81713f	-0.25281712
187	0x3e2013fc	0.15632623
188	0xbe74d7de	-0.23910472
189	0xbdb46a32	-0.08809318
190	0x3da60be4	0.08107737
191	0x3e0e4286	0.13892564
192	0xbc860652	-0.016360436
193	0x3e09c953	0.13455705
194	0x3e978e41	0.2960072
195	0xbe1f8cf6	-0.15581116
196	0x3bc3310a	0.0059567736
197	0xbe643f8f	-0.2228987
198	0x3e7b653f	0.24550341
199	0xbe84f760	-0.25969982
200	0x3e8e5265	0.27797237
201	0x3e38923a	0.18024531
202	0x3dfc8c89	0.123314925
203	0xbddc305e	-0.10751413
204	0x3e3e121e	0.18561599
205	0xbd4387a6	-0.047736786
206	0x3c660394	0.014038939
207	0xbe7c2533	-0.24623565
208	0x3e72b397	0.2370132
209	0x3d6cd075	0.057815988
210	0xbda329c4	-0.079669505
211	0x3dc74d8a	0.09731586
212	0xbe4f578d	-0.20248242
213	0xbd830bd2	-0.06398739
214	0xbe1e0257	-0.1543058
215	0x3e88c9e8	0.26716542
216	0xbea53959	-0.32270315
217	0xbe932085	-0.28735748
218	0x3d99c283	0.07507803
219	0xbe7146f0	-0.23562217
220	0xbe329698	-0.1744026
221	0x3deb3741	0.11485148
222	0x3cc1721c	0.023613982
223	0x3e3e486d	0.18582316
224	0x3d9d2569	0.07673151
225	0xbe79a0ec	-0.24377793
226	0xbe340501	-0.17580034
227	0x3e1dd356	0.1541265
228	0xbde2bc85	-0.110711135
229	0xbe93e3e8	-0.28884816
230	0x3e3fd19d	0.18732305
231	0xbe342455	-0.17591985
232	0xbe47524d	-0.19464989
233	0x3dcbedfc	0.09957501
234	0xbd990cea	-0.07473166
235	0x3e2f1f3c	0.17101759
236	0x3e140850	0.14456296
237	0x3ddf90d2	0.10916294
238	0xbea474c5	-0.32120338
239	0xbd3d60e6	-0.046234988
240	0x3e92ee19	0.2869728
241	0x3a19fbe6	0.00058740226
242	0x3dc56231	0.09637869
243	0x3e4a324b	0.19745748
244	0x3e0e6d8a	0.13908973
245	0xbdd8b100	-0.10580635
246	0x3ea2634d	0.31716385
247	0x3e98787c	0.29779422
248	0x3dc3ffd6	0.09570281
249	0x3d372bbd	0.044719446
250	0x3e359cf9	0.17735662
251	0x3e01713a	0.12640849
252	0x3e4850a5	0.19562013
253	0xbe84829e	-0.25880903
254	0xbd60cd03	-0.054883014
255	0xbe0266c1	-0.1273451

net_layers.0.linear.bias f4 [135]
0	0x3ec66ae3	0.38753423
1	0x3aaa549c	0.0012995186
2	0x3e27a9da	0.16373387
3	0x3bf359cf	0.0074264775
4	0x3e4a6fa7	0.19769154
5	0x3f08ec7c	0.53485847
6	0xbe34e267	-0.1766449
7	0xbc814fea	-0.015785176
8	0x3e91b05c	0.28454864
9	0xbec0e025	-0.3767101
10	0xbed7c11b	-0.42139515
11	0x3e7faddb	0.24968664
12	0xbeb589c8	-0.3545668
13	0xbe8dfdf7	-0.27732822
14	0xbec1023b	-0.37697014
15	0xbf06a89f	-0.52601045
16	0xbea44ff0	-0.32092237
17	0x3e2cc55f	0.16872166
18	0xbe385481	-0.18000986
19	0x3c83d2c5	0.016091714
20	0x3e4c64d4	0.19960338
21	0xbef127fc	-0.47100818
22	0x3e5214e2	0.20515779
23	0x3eafeb32	0.34359127
24	0xbe42aae1	-0.19010498
25	0xbec9bb4d	-0.39400712
26	0xbec04a2a	-0.37556583
27	0xbec30ac9	-0.38094166
28	0xbd97b703	-0.074079536
29	0x3ed458a3	0.41473874
30	0x3e596ca0	0.21232843
31	0xbd1d8588	-0.038457423
32	0x3d1e836a	0.038699545
33	0xbf04daa4	-0.5189612
34	0xbef880d9	-0.48535803
35	0xbe9bc361	-0.304225
36	0x3e27d16b	0.1638848
37	0xbe120557	-0.1425985
38	0x3c300aa8	0.010744728
39	0xbe9d7316	-0.30751866
40	0xbf0f11ec	-0.5588672
41	0x3e3f6fec	0.18695039
42	0xbee2ba94	-0.44282973
43	0x3e9aab42	0.30208784
44	0x3ef4893f	0.4776096
45	0x3d2b6c20	0.041851163
46	0xbee5e3da	-0.449004
47	0x3e846217	0.25856087
48	0xbba5a55a	-0.005055112
49	0x3ea15ec0	0.315176
50	0x3f008592	0.5020381
51	0xbec3509f	-0.38147447
52	0x3e69788b	0.2279989
53	0xbf106d23	-0.5641653
54	0x3f0f1944	0.5589793
55	0xbe38b53e	-0.18037888
56	0x3f0ff2c3	0.562298
57	0xbe0047bc	-0.12527364
58	0x3e1a3c16	0.15061983
59	0xbef29a03	-0.47383127
60	0x3ebdc522	0.37064463
61	0x3e71dd9d	0.23619695
62	0x3ea89da0	0.32932758
63	0xbe95d5e4	-0.29264748
64	0x3f016bb4	0.50554967
65	0xbeabde9f	-0.33568284
66	0x3f05f628	0.5232873
67	0x3f05389e	0.52039516
68	0xbe9b0c73	-0.30282936
69	0x3e83bbee	0.25729316
70	0x3e812054	0.25219977
71	0xbdf5860e	-0.119884595
72	0xbf07b470	-0.530097
73	0x3baa81b6	0.005203451
74	0xbe0e50e8	-0.13898051
75	0xbeae2f9e	-0.34020704
76	0xbdb7deda	-0.089780524
77	0x3dd4fd78	0.10399908
78	0x3ed8ca9e	0.42342085
79	0xbeb09d71	-0.34495118
80	0xbf11eb06	-0.5699924
81	0xbec90eb9	-0.39269045
82	0x3f06b094	0.52613187
83	0x3ea0658e	0.3132748
84	0x3ee4d024	0.4469005
85	0x3da14688	0.07874781
86	0xbebc1cbe	-0.3674068
87	0xbf07faf0	-0.53117275
88	0xbda27f94	-0.0793449
89	0x3e8b74e8	0.2723763
90	0x3ed2c59f	0.41166398
91	0xbe0397c3	-0.12850861
92	0x3e3fef18	0.18743551
93	0x3ed679a2	0.41889673
94	0xbdd3868c	-0.10328397
95	0xbe9ebff1	-0.31005815
96	0xbe97b21b	-0.2962807
97	0x3f0cacea	0.54951346
98	0x3ef90584	0.4863702
99	0xbec17abf	-0.3778896
100	0x3ec33d5c	0.3813275
101	0x3f003e1d	0.5009478
102	0xbe9e5f6b	-0.30932173
103	0xbecc76b1	-0.39934304
104	0x3ecfd6b7	0.40593502
105	0xbef9e994	-0.48811018
106	0x3ec10b95	0.3770415
107	0xbf0602f2	-0.52348244
108	0x3e8bf268	0.2733338
109	0xbe5345bf	-0.20632075
110	0x3d646dc6	0.05576875
111	0xbefcc8be	-0.49371904
112	0x3e3ba168	0.1832329
113	0x3b1232ec	0.0022308184
114	0xbe7a4dea	-0.24443784
115	0x3ebb6469	0.36600044
116	0xbeb2648e	-0.34842342
117	0xbe6c15cf	-0.23055194
118	0xbef0511c	-0.46936882
119	0x3e4b5068	0.19854891
120	0x3ef447e7	0.47711107
121	0xbe13ef42	-0.14446738
122	0xbd2078c4	-0.03917767
123	0xbf0787d0	-0.5294161
124	0x3efdbc7f	0.49557874
125	0x39d092f6	0.00039782346
126	0xbf0f5d7e	-0.5600203
127	0x3e9c7d35	0.30564275
128	0xbe9df011	-0.3084722
129	0xbeb18567	-0.3467209
130	0xbee92988	-0.45539498
131	0xbeb7f667	-0.35930178
132	0x3ef6460b	0.48100314
133	0x3eb3694c	0.35041273
134	0xbedd1aa6	-0.43184394

net_layers.1.linear_1.weight f4 [135, 135]
0	0xbb8e99a0	-0.0043518096
1	0x3b992900	0.004674077
2	0x3b9ca49c	0.004780365
3	0xba616793	-0.00085985026
4	0x3a074f0c	0.000516162
5	0x3b3577bc	0.0027689775
6	0x3b62f866	0.003463292
7	0x3b4349f1	0.0029798711
8	0xbc0275fe	-0.007962702
9	0x37d4ce9e	2.5368583e-05
10	0xbad7bd29	-0.0016459572
11	0xbb043207	-0.002017142
12	0x3b939f38	0.0045050643
13	0xbba5a81d	-0.005055441
14	0xbb855f7b	-0.00407022
15	0xb9d79f38	-0.00041126623
16	0xbbb60d84	-0.0055558104
17	0x3b1817d6	0.0023207567
18	0xbafac990	-0.0019133557
19	0xbb192862	-0.0023370017
20	0xbbaf51b8	-0.005350318
21	0x3b330a05	0.0027319205
22	0x3b90edda	0.0044228854
23	0xbabc228e	-0.001435356
24	0x3b1dfd3f	0.0024107245
25	0xba085ed0	-0.00052021164
26	0x3947fd9a	0.00019072593
27	0xbb83923e	-0.004015236
28	0x3ac1a468	0.0014773728
29	0xbb213569	-0.0024598485
30	0xbb67052a	-0.003525088
31	0x3b745f8d	0.0037288398
32	0x3acbd3d3	0.00155508
33	0xbb8423b4	-0.0040325765
34	0x3b53fed3	0.0032347932
35	0x3b118f21	0.0022210556
36	0x3c013b72	0.007887708
37	0x3be844a4	0.0070882607
38	0xbac74470	-0.0015202891
39	0xba44b564	-0.0007503836
40	0x3b8e92c7	0.0043509933
41	0x3992de43	0.00028012888
42	0xbac25a5a	-0.0014827952
43	0x3a50542d	0.00079471135
44	0xb98fc3af	-0.0002742088
45	0x3b454868	0.0030102972
46	0x3b2cd952	0.002637465
47	0x3add27fb	0.0016872877
48	0xbb5567e2	-0.003256314
49	0xbb404ae9	-0.0029341525
50	0xbb1cfa01	-0.0023952725
51	0xbb1214fd	-0.0022290342
52	0x3ba7dc55	0.005122701
53	0xbba67773	-0.0050801574
54	0x3b26df5d	0.0025462725
55	0x3afa1669	0.0019080165
56	0x3b5fa0f6	0.003412304
57	0xbba1dfec	-0.0049400236
58	0xbb8ddc13	-0.0043292134
59	0xb9d31831	-0.0004026308
60	0xbba476e1	-0.0050190543
61	0xbbcf52f1	-0.006327026
62	0xb9f4550e	-0.00046602677
63	0x3b939d88	0.004504863
64	0x37721338	1.4428799e-05
65	0x3b27d93f	0.0025611666
66	0xbb54dbd7	-0.0032479668
67	0xbc09d33b	-0.008412178
68	0x3b127b2a	0.0022351244
69	0x3ba8b8c4	0.005148979
70	0x3bf02587	0.0073286924
71	0x3b81fb6f	0.003966741
72	0x3978ccd0	0.00023727422
73	0xbb93d83f	-0.0045118625
74	0xbbbdbb71	-0.005790167
75	0x3b0a80fe	0.0021134014
76	0x3a40111c	0.0007326768
77	0x3b910c20	0.0044264942
78	0x3b6d6c29	0.0036227799
79	0xbaf1218f	-0.0018396842
80	0x3b470bfb	0.003037213
81	0xba6f1698	-0.0009120493
82	0x3aadaceb	0.0013250386
83	0x3b3b14fb	0.002854644
84	0xbbd43809	-0.0064764065
85	0x3b669bcf	0.0035188084
86	0xbbb0968c	-0.0053890403
87	0x3b04b641	0.0020250233
88	0xbb805e84	-0.003917517
89	0xbb60e203	-0.00343144
90	0xbb071b73	-0.0020615726
91	0x3b06a2bc	0.0020543775
92	0x3b4d0c5e	0.003128789
93	0x3b83de98	0.004024338
94	0x3b23a3cb	0.0024969454
95	0xbb6a2e41	-0.0035733136
96	0x3b9dacb1	0.004811846
97	0x3abd1345	0.0014425298
98	0x3a91fded	0.0011138298
99	0x394a4333	0.00019289255
100	0x3a7bd8c4	0.0009607191
101	0xba387db8	-0.00070377765
102	0xbbb87a61	-0.005629823
103	0xbba1fab7	-0.0049432176
104	0xbb15c2eb	-0.0022851776
105	0x3bdbfa77	0.0067132073
106	0xbbdaedc1	-0.0066811745
107	0x3a5fbee9	0.0008535223
108	0x3aa3483f	0.0012457444
109	0xbb904fcd	-0.0044040442
110	0xbbf60154	-0.0075074825
111	0xb9368776	-0.00017407336
112	0xbb795799	-0.0038046597
113	0xbb324785	-0.0027203273
114	0xbb38dab3	-0.0028206527
115	0x3a5a8082	0.0008335189
116	0xbbf74df5	-0.007547135
117	0x3b6698f7	0.003518639
118	0x3a5156ed	0.000798567
119	0x396c4c28	0.00022535084
120	0xba9eaf12	-0.0012106618
121	0x3bdd6001	0.0067558293
122	0xbb8686da	-0.004105431
123	0x3a5d1dae	0.00084349036
124	0x3ab70b69	0.0013965192
125	0x3ba3e8c4	0.005002113
126	0x3a334b4f	0.000683953
127	0x3bcf135d	0.006319447
128	0x3994d6a0	0.00028388668
129	0x3b3780f7	0.0028000453
130	0x3b56e950	0.0032792874
131	0xba4994f6	-0.00076897384
132	0xbac027cf	-0.0014660301
133	0x3a99bcf0	0.0011729281
134	0xba8aba5f	-0.0010584107
135	0xbb83960b	-0.0040156893
136	0x3a8e8f1e	0.0010876392
137	0xbbb61e9f	-0.0055578495
138	0x3adf3ffa	0.0017032616
139	0xb79fdb9c	-1.905654e-05
140	0xbb9c4765	-0.004769253
141	0x39e4e7f3	0.00043660364
142	0xbaa6d7d1	-0.0012729113
143	0xbb806211	-0.0039179404
144	0xbb05373a	-0.0020327107
145	0xbbd27fca	-0.006423925
146	0x3ba3cef3	0.0049990355
147	0xbb3efccf	-0.0029142385
148	0xba7bd1a9	-0.0009606132
149	0xba037a13	-0.0005015444
150	0x3b057e60	0.0020369515
151	0xbb76c434	-0.0037653567
152	0x392ddc14	0.00016580551
153	0x3aeb679d	0.0017959956
154	0xbb20a345	-0.0024511379
155	0x3ae203e0	0.0017243586
156	0x3b0b7e07	0.0021284835
157	0x3b7d46a4	0.0038646841
158	0x3b75d740	0.0037512332
159	0x3bbbc256	0.0057299538
160	0xba98f7bc	-0.001167051
161	0xbb922cd3	-0.00446091
162	0xbb13d42a	-0.002255688
163	0x3b0e5005	0.0021715176
164	0x3b43e13b	0.0029888886
165	0x3b60556a	0.0034230598
166	0x3a8b5a98	0.0010631857
167	0xbb802485	-0.0039106035
168	0xbb7b89de	-0.0038381736
169	0x3a5da309	0.0008454775
170	0xbb668c41	-0.0035178813
171	0x3946ec15	0.00018970699
172	0x3b2863df	0.0025694293
173	0x3abf1032	0.001457697
174	0xbb8a6fb2	-0.004224741
175	0xba35e012	-0.0006937991
176	0xb9ddf915	-0.00042337985
177	0xbae7262d	-0.0017635279
178	0xbb2a21ac	-0.0025960011
179	0x3a8b677e	0.0010635701
180	0xb989c892	-0.00026280113
181	0xbb07bb19	-0.0020710884
182	0x3b80d613	0.0039317696
183	0xbbde6986	-0.0067874817
184	0xba9172f5	-0.0011096882
185	0x3ad50544	0.001625218
186	0x3b74837f	0.0037309823
187	0xbb04a4f3	-0.002023992
188	0x3be0822b	0.0068514547
189	0xbb96e690	-0.004605122
190	0xbac6ddeb	-0.0015172338
191	0xbb8b962b	-0.004259845
192	0xbb0b7c82	-0.002128393
193	0xbb8d046e	-0.0043035066
194	0xbb959f8b	-0.004566138
195	0xba2350c6	-0.0006229993
196	0x3b917d04	0.004439952
197	0x3aa6200c	0.0012674346
198	0x3aa931e7	0.0012908549
199	0xb8e42163	-0.00010878106
200	0xbaeaa47d	-0.0017901805
201	0xbb6893f4	-0.0035488578
202	0x3ae648a6	0.0017569258
203	0xbb8e2258	-0.00433759
204	0x3b8290b6	0.003984536
205	0x3ab1ee47	0.001357504
206	0xbb867cea	-0.0041042464
207	0xbb17468e	-0.0023082825
208	0x3ac3763f	0.001491256
209	0xbb905ec2	-0.0044058273
210	0xbb0be5ac	-0.0021346612
211	0xbbabc7d9	-0.0052423296
212	0x3b2e21e9	0.0026570505
213	0xbbab46e1	-0.0052269553
214	0xbadcc383	-0.0016842935
215	0xbb822401	-0.003971577
216	0xbba93629	-0.005163927
217	0x3b6c4d42	0.0036056791
218	0x3ac75f36	0.001521087
219	0xbb002f62	-0.0019559492
220	0xba738150	-0.00092889834
221	0x3b4d43c4	0.003132091
222	0xb8a80aad	-8.012853e-05
223	0xbb3a0496	-0.002838408
224	0x3ba57b53	0.005050102
225	0xbb3e5373	-0.0029041439
226	0x3b8f26d3	0.004368642
227	0x3be06bf4	0.0068488065
228	0xbb14993a	-0.0022674338
229	0xbb666e7e	-0.0035161073
230	0xbb37707d	-0.0027990632
231	0xbbe02550	-0.0068403855
232	0xbb54db8e	-0.0032479498
233	0xb93cf8e1	-0.00018021792
234	0xbb08daa6	-0.0020882278
235	0xb71a9c3a	-9.21549e-06
236	0x3bd76174	0.0065728966
237	0xbb4dee4b	-0.0031422551
238	0x3b91f39b	0.004454089
239	0xb9f6bfd0	-0.00047063688
240	0xbb6f9fd7	-0.0036563778
241	0x3ae95cac	0.0017804108
242	0xbaae1fae	-0.0013284588
243	0x3bfcacf7	0.0077110487
244	0x3bb93e6c	0.005653193
245	0x3b64e65f	0.003492735
246	0x39e99cc8	0.00044558034
247	0x3901e062	0.00012385988
248	0x3ade398d	0.0016954407
249	0x3ac8c878	0.0015318533
250	0x3b840b0c	0.004029637
251	0xbafc7715	-0.0019261563
252	0x3b50a6aa	0.003183762
253	0xbc10bf3a	-0.008834654
254	0x3bd44114	0.0064774845
255	0xbb6a8eec	-0.0035790754

net_layers.1.linear_1.bias f4 [135]
0	0xbd228052	-0.039673157
1	0xbd918b4f	-0.07106649
2	0xbcbc06b0	-0.022952408
3	0x3d33dbae	0.043910675
4	0xbd94b0ff	-0.07260322
5	0x3cc562d3	0.024094975
6	0xbd918fef	-0.07107531
7	0x3d74d887	0.05977681
8	0xbd3c13e3	-0.045917403
9	0x3d7c1ba7	0.06154981
10	0x3d204ffc	0.03913878
11	0x3d9af99e	0.07567142
12	0x3b0118aa	0.0019698539
13	0x3c0960a8	0.008384861
14	0xbc1965a2	-0.00936261
15	0xbd954fbd	-0.072905995
16	0x3d5bf4ab	0.05370013
17	0x3b5a3c24	0.0033300007
18	0xbd3f25aa	-0.04666678
19	0xbd44311c	-0.047898397
20	0x3d5ebfcb	0.054382127
21	0x3d33531d	0.043780435
22	0x3d95ecc8	0.07320553
23	0x3c8ec33e	0.017427083
24	0xbd6e9c2b	-0.058254402
25	0x3d7d0048	0.061767846
26	0xbd1a8d56	-0.037732445
27	0xbda15069	-0.07876665
28	0x3cf69d97	0.030104442
29	0xbcc9cd95	-0.024634162
30	0x3c79722d	0.0152249755
31	0xbd9cf4bc	-0.07663867
32	0xbb750222	-0.0037385304
33	0xbbb0b75b	-0.0053929514
34	0x3c7ec8e2	0.015550824
35	0xba569edf	-0.0008187126
36	0xbb9e2d89	-0.0048272056
37	0x3d6b948a	0.057514705
38	0x3d916b1d	0.07100508
39	0x3da26b08	0.07930571
40	0x3d0d2640	0.034460306
41	0x3c7f87e2	0.015596362
42	0xbda544d9	-0.08069772
43	0x3c272e75	0.010203947
44	0x3d70adcf	0.058759507
45	0x3d46a3a4	0.048495904
46	0xbcefaf0d	-0.029258275
47	0xbd79ac1e	-0.06095516
48	0xbd32fdf0	-0.043699205
49	0xbc662b35	-0.014048387
50	0xbca51414	-0.020151176
51	0x3a6ecc0e	0.0009109386
52	0x3d7b1454	0.061298683
53	0x3cca4576	0.024691325
54	0x3b82d8e0	0.0039931387
55	0x3d7ea327	0.062167313
56	0xbc723300	-0.014782667
57	0x3cc46c02	0.023977283
58	0xbd840983	-0.06447127
59	0x3d8b87a3	0.0681298
60	0xbd8f28cc	-0.06990203
61	0x3c87768d	0.016536022
62	0xbd97b882	-0.07408239
63	0xbc5ffc0f	-0.013670935
64	0x3d9d1d9c	0.07671663
65	0xbd2f5f6a	-0.042815603
66	0x3cd054dd	0.025431091
67	0x3bdd559f	0.0067545916
68	0xbda4ab75	-0.08040515
69	0x3c24cce1	0.010058613
70	0x3d8a112f	0.06741559
71	0x3d3fccbc	0.04682611
72	0xbd566cab	-0.052349728
73	0xbd053ce7	-0.032528784
74	0xbce9838b	-0.028505107
75	0x3da6bad6	0.08141105
76	0xbc9bbd32	-0.019011114
77	0x3d9c2737	0.07624667
78	0xbd65ae89	-0.056074653
79	0x3d9473a1	0.07248617
80	0xbb830db1	-0.003999435
81	0x3da2ed76	0.07955448
82	0xbd79ac00	-0.060955048
83	0xbb3db8e8	-0.0028949324
84	0xbcafd217	-0.021462483
85	0xbd4bcb9d	-0.049754728
86	0x3d22c2b6	0.039736472
87	0x3d28a4f1	0.041172925
88	0xbd9a5662	-0.075360075
89	0xbd1289c7	-0.035775926
90	0xbd0690d5	-0.032852966
91	0x3d030355	0.0319856
92	0x3cd89406	0.02643777
93	0xbd7992b7	-0.060930934
94	0xbd8360c5	-0.06414942
95	0x3d9c39ae	0.07628189
96	0xbd518f31	-0.05116195
97	0xbbaa1254	-0.005190173
98	0x3d997f72	0.074950114
99	0xbc6d676a	-0.014489988
100	0xbd818b19	-0.06325359
101	0xbb8c043b	-0.0042729652
102	0x3caf83d0	0.021425158
103	0xbd99bac7	-0.07506328
104	0xbd7ffc39	-0.062496398
105	0xbd1cbcdb	-0.038266044
106	0x3d019d05	0.031643886
107	0xbd30390a	-0.043023147
108	0xbd38d2b5	-0.04512282
109	0x3d75a632	0.05997295
110	0x3bfdde5b	0.007747454
111	0xbd43abf2	-0.0477714
112	0xbccae804	-0.024768837
113	0xbc3ba105	-0.011451964
114	0xbd8e788a	-0.06956585
115	0x3c225857	0.009908757
116	0x3d923af5	0.071401514
117	0xbd62b6fe	-0.055350296
118	0x3ce0c58f	0.027437953
119	0xbd09677c	-0.033545956
120	0xbd01c3f6	-0.031681024
121	0xbcbc2d35	-0.022970775
122	0x3c396ba6	0.011317169
123	0xbbe49c06	-0.0069766073
124	0x3cc255ba	0.023722518
125	0x3c8eebac	0.017446361
126	0x3ba8bb42	0.005149276
127	0xbd9d278f	-0.07673561
128	0x3c80a679	0.01570438
129	0x3cab6745	0.020923266
130	0xbd10bc49	-0.035335813
131	0xbd879a28	-0.066212
132	0xbc8f3e97	-0.0174859
133	0xb9de7747	-0.00042432008
134	0x3d817da3	0.063227914

net_layers.1.linear_2.weight f4 [135, 135]
0	0x3b4d592c	0.0031333668
1	0x395cc2db	0.00021053424
2	0x3a9f8ed7	0.0012173307
3	0x39fb2197	0.00047899477
4	0xba5cafc6	-0.0008418526
5	0x3b3fc554	0.0029261904
6	0x3b1683df	0.0022966785
7	0xb9a47484	-0.00031367328
8	0x3be14b1f	0.00687541
9	0xbb234acc	-0.0024916409
10	0xbb8716ac	-0.0041225757
11	0x3b999e19	0.004688036
12	0x3ad3dc06	0.0016163595
13	0x3bd5d23e	0.006525307
14	0x3bba992e	0.00569453
15	0x3b9ce240	0.0047877133
16	0xbb54acea	-0.0032451698
17	0x3b5e9099	0.0033960699
18	0xbb951ef7	-0.0045508104
19	0x3b78b461	0.003794931
20	0x3ba41b6b	0.0050081513
21	0x3ab63e0e	0.0013903992
22	0xbbc89d60	-0.006122276
23	0x3be920a8	0.0071144886
24	0x3bc25b29	0.0059312773
25	0x3a3c955e	0.00071938883
26	0x3b20465f	0.0024456007
27	0x3b2e833d	0.0026628517
28	0x3b89056b	0.004181554
29	0xbb74a087	-0.0037327127
30	0x3b0fc31e	0.0021936367
31	0x3b319a1b	0.002709991
32	0xb9a6a898	-0.000317876
33	0xbab2f394	-0.0013652914
34	0x3b68068b	0.003540429
35	0xbbc6cd96	-0.006066988
36	0xbb638093	-0.0034714087
37	0xba9857e6	-0.0011622875
38	0xbbdd3d24	-0.0067516733
39	0x3af1abf0	0.0018438082
40	0x3b47e6a2	0.0030502458
41	0xbac9be2b	-0.0015391757
42	0x3b2876c8	0.0025705565
43	0x3b82e52a	0.0039946036
44	0x3bd005a2	0.0063483277
45	0x3b181f06	0.002321185
46	0xbb977b94	-0.004622886
47	0xbaf9572c	-0.0019023172
48	0x3baf9ecb	0.005359506
49	0x3a2a9137	0.0006506624
50	0xb94f73b5	-0.00019784163
51	0xbafae5b6	-0.0019141946
52	0x3a5c1fef	0.00083970925
53	0xbbad65f3	-0.0052916943
54	0x3bbea290	0.005817719
55	0xbbbdb437	-0.0057893055
56	0xbb814530	-0.0039450154
57	0xbad4480f	-0.0016195792
58	0x39a6d7bf	0.0003182273
59	0x39fad790	0.00047844322
60	0xbb942bcf	-0.004521824
61	0x3a6748c2	0.00088227924
62	0xba87bb7d	-0.0010355558
63	0xba1ba2ad	-0.00059370213
64	0x3baa4d7f	0.0051972265
65	0x3b4ccadb	0.003124884
66	0xbc0bc006	-0.008529669
67	0xbb14192d	-0.0022598014
68	0xba8bb6dd	-0.0010659356
69	0x3baa3ab1	0.005194985
70	0x3bf0f7a7	0.007353741
71	0x3adc962c	0.0016829423
72	0xbbc0c067	-0.005882311
73	0x3bb5fcd2	0.00555382
74	0x3af42539	0.0018626816
75	0xbade3ec5	-0.0016955963
76	0xbba551bc	-0.005045144
77	0xbaca6b1f	-0.0015443302
78	0xbb9251fd	-0.00446534
79	0x3b2fa187	0.0026799159
80	0xbba5aa77	-0.0050557214
81	0x3a8a2fea	0.0010542844
82	0xbb831a1b	-0.0040009147
83	0xba3ca784	-0.00071965926
84	0xb8365acf	-4.3476753e-05
85	0xbb6af297	-0.0035850161
86	0x3b809a8f	0.003924675
87	0x3ba8143d	0.0051293657
88	0x3b57a684	0.0032905648
89	0x3a9e9471	0.0012098682
90	0x3b7f93ab	0.003899793
91	0x3bb6f6a7	0.0055836025
92	0x3bae5e7c	0.005321322
93	0x3ba827d4	0.005131701
94	0x3baba0d4	0.005237678
95	0xba8d9d58	-0.0010804338
96	0x3aa785c9	0.001278096
97	0x3a7adf77	0.0009570042
98	0x3a0fcf0f	0.0005485871
99	0xbbc3f0c5	-0.0059796297
100	0x3b34c339	0.0027582182
101	0xbac98bf8	-0.0015376797
102	0x3b24172f	0.0025038233
103	0xbbc0e01e	-0.005886092
104	0x3b3d6bd2	0.0028903377
105	0x3bbfa9fa	0.00584912
106	0xbb3323db	-0.0027334604
107	0x3babbb44	0.0052408297
108	0xbb27a5fc	-0.0025581112
109	0x3b1a3616	0.0023530773
110	0xbbb59060	-0.0055408925
111	0x3929ae4e	0.0001618203
112	0xbbcd7ee4	-0.00627123
113	0xba0c38bc	-0.000534903
114	0x3bcd795c	0.0062705707
115	0x3b0bf800	0.0021357536
116	0xbb6c33b8	-0.003604157
117	0x3b828f6f	0.003984384
118	0xbaec00f9	-0.0018005661
119	0xbb6fd2c2	-0.0036594127
120	0xba2b5d60	-0.0006537046
121	0xbba5b083	-0.005056442
122	0xbaf9056b	-0.0018998807
123	0x3bc97a63	0.006148623
124	0xbb6bf653	-0.0036004975
125	0xbbb0eab0	-0.0053990707
126	0x3aed3532	0.0018097518
127	0x3a9e3669	0.0012070659
128	0x3b8f24e3	0.004368411
129	0xba9760d3	-0.0011549242
130	0xbbd3a74d	-0.006459153
131	0xba575214	-0.000821383
132	0x3b44da85	0.0030037474
133	0xbb84e466	-0.0040555475
134	0xbb74f9d8	-0.0037380364
135	0xba9ac103	-0.001180679
136	0xbaaca823	-0.0013172667
137	0xba0ddc1b	-0.00054115214
138	0xbba6bf09	-0.005088691
139	0x3a0169be	0.0004936716
140	0xbb9dc1c6	-0.0048143594
141	0x3ba5c91f	0.005059376
142	0xba6f48e2	-0.0009127987
143	0xbaf887d0	-0.0018961374
144	0x3b4c76a9	0.0031198657
145	0xbb1fefd7	-0.002440443
146	0xbbab34bf	-0.0052247937
147	0x34c5df63	3.6856645e-07
148	0x3b9807b9	0.0046395925
149	0x3aafd2df	0.0013414285
150	0x3a7b48a1	0.00095857127
151	0x3a8d05dd	0.0010759194
152	0x3bb49a3d	0.0055115507
153	0xba8b9049	-0.0010647859
154	0xbb4cde11	-0.0031260292
155	0xbbb57a6c	-0.0055382755
156	0xbbb7d577	-0.005610164
157	0x3b622d1c	0.003451175
158	0x3bd21b38	0.006411936
159	0xba228dd0	-0.0006200941
160	0xbb6c5c98	-0.0036065932
161	0xbb5aca15	-0.003338461
162	0x3aaa320f	0.0012984889
163	0x3bc60e6e	0.0060442006
164	0xbb75a287	-0.0037480907
165	0xbbb2f556	-0.005461375
166	0x3b2f1bcf	0.0026719456
167	0xba680742	-0.0008851179
168	0x3b5250ff	0.0032091734
169	0x3b55d0ab	0.0032625597
170	0xbba3c28e	-0.004997558
171	0x38f1b23f	0.000115249764
172	0xbbc04ec7	-0.005868766
173	0x3b85632f	0.0040706615
174	0x3ba549a3	0.0050441786
175	0x3ad312ca	0.0016103622
176	0xbb89b6ea	-0.0042027133
177	0xbb8a5267	-0.004221249
178	0xba01ea73	-0.0004955895
179	0xbaa39961	-0.0012481624
180	0x3b11f128	0.0022268984
181	0xbb297330	-0.002585601
182	0x3b02d6e6	0.0019964515
183	0xba7a0f49	-0.0009539021
184	0xbb86d1d3	-0.0041143685
185	0x3b2f96a2	0.0026792665
186	0x3ac21ed6	0.0014810215
187	0x3b96f7eb	0.004607191
188	0x3a9db656	0.001203249
189	0x3bea2b57	0.00714628
190	0x39706f2f	0.00022929603
191	0xbbb5f97b	-0.005553422
192	0x3ac0557c	0.0014673914
193	0x3b0c4e24	0.002140888
194	0xbb629ad5	-0.003457715
195	0x3b85cdbd	0.004083364
196	0xbb9d2c05	-0.0047965073
197	0x3b5e49bb	0.0033918459
198	0x3b48074a	0.0030521923
199	0x3ae12786	0.0017177917
200	0xbb6dd1c5	-0.0036288362
201	0x3ae4bbe1	0.0017451012
202	0x3aa89abd	0.0012863498
203	0xbb2a4dd1	-0.0025986324
204	0xba3f26c0	-0.0007291846
205	0x3ba8551f	0.0051371004
206	0xbaba40c8	-0.001420998
207	0xba0cd9b2	-0.00053730153
208	0xbaf28ddf	-0.0018505416
209	0xbb9658d5	-0.0045882263
210	0x3b7c2fa2	0.003848054
211	0xbb861e4c	-0.004092967
212	0x3b05ab3b	0.002039625
213	0x3bd7f987	0.0065910253
214	0xba77d579	-0.0009454112
215	0x3ab1f920	0.0013578273
216	0xba79b556	-0.00095256174
217	0x3b75555d	0.0037434914
218	0xbb7f8d4e	-0.0038994136
219	0x3ba61a58	0.0050690584
220	0xbb5e3de7	-0.0033911408
221	0x3b95cccd	0.0045715333
222	0x3b6f8513	0.0036547824
223	0x3b8b9657	0.0042598653
224	0x3b024993	0.001988028
225	0xb676c992	-3.6774186e-06
226	0x3bc142f7	0.0058978754
227	0xbb651089	-0.0034952483
228	0xbb8b8ecf	-0.0042589675
229	0xbb114334	-0.00221653
230	0x3ba91b3e	0.005160718
231	0xbaa87829	-0.0012853193
232	0x3b9d0c20	0.004792705
233	0x399af5a3	0.00029556183
234	0xbac0893f	-0.001468934
235	0xba7d04b2	-0.0009651884
236	0x3bf65f5b	0.0075186915
237	0xbaf1285f	-0.0018398872
238	0xbbe18b26	-0.006883043
239	0xbb59d522	-0.003323861
240	0x3a8fee35	0.0010981025
241	0xbbc1de54	-0.005916396
242	0xbb007940	-0.001960352
243	0xbbc21e9a	-0.005924058
244	0x3b0a2240	0.0021077543
245	0x3adac871	0.0016691816
246	0x3bb95c0c	0.005656725
247	0x3afb1474	0.0019155876
248	0x3afa6bed	0.0019105651
249	0x3b730aa2	0.0037085195
250	0x3b27311a	0.0025511445
251	0x3b2ee2ee	0.0026685554
252	0xbabeb4b7	-0.0014549707
253	0x3b45f88c	0.003020796
254	0xbb972c1b	-0.004613412
255	0xbb179cdc	-0.0023134267

net_layers.1.linear_2.bias f4 [135]
0	0xbceb6e2d	-0.02873906
1	0x3d9e3476	0.0772485
2	0xbd8ac8a0	-0.067765474
3	0xbd7ef2fa	-0.06224344
4	0xbcc9f81f	-0.024654446
5	0xbd128a4a	-0.035776414
6	0xbd79bf6c	-0.06097357
7	0xba9373a5	-0.0011249675
8	0xbd9d80ea	-0.07690604
9	0xbd17c3e4	-0.03705205
10	0x3da64e43	0.08120396
11	0x3d90fdb5	0.07079641
12	0xbd8a52f0	-0.067541
13	0xbd92c797	-0.07166975
14	0xbccc9a5e	-0.024975952
15	0x3d985113	0.07437339
16	0x3ab3aaf1	0.0013707561
17	0xbd81a159	-0.06329603
18	0xbd8d1382	-0.068884864
19	0xbd8e92d1	-0.06961597
20	0xbd985b2e	-0.07439266
21	0x3d8e3b04	0.0694485
22	0xbc9f9f15	-0.019485036
23	0xbd8e2e45	-0.06942419
24	0xb9070da6	-0.00012879688
25	0x3c150f24	0.009097848
26	0xbc656c68	-0.014002897
27	0xbce430f2	-0.02785537
28	0xbd3d53b8	-0.04622242
29	0x3bf7fb4c	0.0075677987
30	0x3d9ccee4	0.07656649
31	0x3c98a4f8	0.01863335
32	0x3d51e838	0.05124685
33	0x3d803c2e	0.06261478
34	0x3cc359a6	0.023846459
35	0xbd418cc5	-0.04725339
36	0x3ce5fb73	0.028074002
37	0xbd9c62bc	-0.076360196
38	0x3afa8d5b	0.0019115614
39	0xbcb6015c	-0.022217445
40	0x3d8d7cfb	0.06908604
41	0x3c837345	0.016046176
42	0xbd851e21	-0.06499887
43	0xbd59cdd6	-0.053174816
44	0x3d2a38f0	0.041558206
45	0x3d992711	0.074781545
46	0x3c961aec	0.018323384
47	0x3d8395f7	0.06425088
48	0x3da504e9	0.08057577
49	0x3d5c12f2	0.053729005
50	0xbcbdb027	-0.023155285
51	0x3c3c58b2	0.011495756
52	0x3ba5756b	0.0050493977
53	0x3c0c7b56	0.008574327
54	0xbd05acf8	-0.03263566
55	0x3d011e13	0.03152282
56	0x3d021a01	0.03176308
57	0xbd3b70e9	-0.045761976
58	0x3d63ff30	0.055663288
59	0x3d80ad01	0.06282998
60	0x3d39849c	0.04529248
61	0xbd58f13a	-0.052964427
62	0xbda430e6	-0.08017139
63	0x3d27679f	0.040870305
64	0x3d8cd9c8	0.06877476
65	0xbc915fa5	-0.017745802
66	0xbd84c904	-0.06483653
67	0xbd9611ed	-0.07327638
68	0xbc875235	-0.016518692
69	0x3d82fa02	0.063953415
70	0xbced3554	-0.028956093
71	0x3d64694f	0.055764493
72	0xbd37569c	-0.04476033
73	0xbd57a758	-0.052649826
74	0x3ca9c447	0.020723475
75	0xbc251ac1	-0.010077179
76	0xbd750205	-0.05981638
77	0xbcd392e1	-0.025826873
78	0xba9056d6	-0.0011012207
79	0x3d4553f1	0.048175756
80	0x3ce92d65	0.028464029
81	0x3cc38c8d	0.02387073
82	0xbd8a1b26	-0.067434594
83	0xbd2c342c	-0.042041942
84	0x3da6ca52	0.08144058
85	0xbd9a9c61	-0.07549358
86	0xbd3ee2fe	-0.046603195
87	0x3d89e807	0.06733709
88	0xbb89a04f	-0.0042000185
89	0xbd92441e	-0.071418986
90	0x3d855146	0.06509642
91	0xbd869049	-0.06570489
92	0x3c9fd83d	0.01951229
93	0x3d9598a3	0.07304504
94	0x3be52dc6	0.006993982
95	0x3c8d0ca3	0.01721794
96	0xbd44439e	-0.047916047
97	0xbd45e1e9	-0.048311148
98	0xbcd94446	-0.026521813
99	0xbd489d3d	-0.04897808
100	0xbd93dd93	-0.07219996
101	0xbd9ead20	-0.07747865
102	0x3a02e885	0.00049937546
103	0xbd777a40	-0.06041932
104	0xbd352f59	-0.044234607
105	0x3cb464cc	0.02202072
106	0xbce2c5a1	-0.027682127
107	0x3d5769fe	0.052591316
108	0xbd27c4ab	-0.04095904
109	0x3c361844	0.011114184
110	0xbcb8237d	-0.02247786
111	0x3d874259	0.06604452
112	0x3ce03eb9	0.027373658
113	0xbd48ffab	-0.04907195
114	0xbcb72971	-0.022358628
115	0x3cbf1fc3	0.023330575
116	0x3ca98ce9	0.020697074
117	0xbd721a5f	-0.05910718
118	0xbd3b2115	-0.045685846
119	0xbd6d2f08	-0.05790618
120	0xbd308121	-0.043091897
121	0x3bbcbf47	0.0057601067
122	0x3d2a493f	0.04157376
123	0xbd8dcc1f	-0.06923699
124	0xbd0c1e37	-0.034208503
125	0xbc5e4202	-0.013565542
126	0xbcc2905c	-0.023750477
127	0x3d387ac0	0.04503894
128	0xbd4dfbbe	-0.05028891
129	0x3cd7ac95	0.02632741
130	0xbd0f7ad4	-0.035029247
131	0xbbe2a5ef	-0.0069167535
132	0x3cf4175b	0.029796293
133	0x3cac4a60	0.021031559
134	0xbd1402a8	-0.036135346

net_layers.2.linear_1.weight f4 [135, 135]
0	0xbb0e647a	-0.002172737
1	0x3b8c9a75	0.0042908737
2	0x3b5ed70f	0.0034002697
3	0xbb6d2b76	-0.0036189235
4	0xbb5b8eb0	-0.0033501796
5	0xb9e19ca3	-0.00043032048
6	0x3b8f6b7f	0.004376828
7	0x3b104a03	0.002201677
8	0xbbdeedc9	-0.0068032485
9	0xbbdcbeb8	-0.0067366026
10	0xbb13b076	-0.00225356
11	0xbb11ddbe	-0.0022257413
12	0x3b7b9d2c	0.0038393242
13	0xbbceafca	-0.006307577
14	0x3b4eb565	0.0031541225
15	0x3b9bb32f	0.004751585
16	0x3bbf3ea7	0.005836326
17	0xbaeba062	-0.0017976875
18	0x3b494bc1	0.003071532
19	0x3a0aff2b	0.0005302305
20	0xba4fef59	-0.0007932089
21	0xbb3533a1	-0.0027649181
22	0x3aa109c8	0.001228624
23	0xbb89f97f	-0.0042106505
24	0xbb84664b	-0.0040405146
25	0xbb390150	-0.0028229542
26	0x3b9d65b8	0.0048033856
27	0x3b0df9c3	0.0021663762
28	0xbba08b7d	-0.004899441
29	0xbb0c00fe	-0.0021362896
30	0x3a179a4f	0.00057831866
31	0xb9b6af60	-0.0003484441
32	0x3b8211ac	0.003969392
33	0xb88379d4	-6.269259e-05
34	0xb9a11253	-0.00030721966
35	0xbadeb165	-0.0016990124
36	0xbb982cbf	-0.004644006
37	0x3a4735b0	0.00075992476
38	0xbbab9733	-0.00523653
39	0x3a95f1f5	0.0011439907
40	0xbab7dcca	-0.0014027592
41	0x3ba64df6	0.0050752116
42	0xbb7767f7	-0.0037751177
43	0xbb66d98c	-0.0035224883
44	0x3bb2c03d	0.0054550455
45	0xbb815b16	-0.003947626
46	0x3bbe2e66	0.005803871
47	0x3af1311d	0.0018401478
48	0x3a68e61b	0.0008884386
49	0xba22b813	-0.0006207239
50	0xbb0a3783	-0.0021090216
51	0xbb44b96b	-0.0030017744
52	0xbb64dcf1	-0.003492173
53	0xbb8e3ff0	-0.004341118
54	0xbb360cf6	-0.0027778721
55	0xbadf7122	-0.0017047266
56	0xbb02baae	-0.0019947696
57	0x3b07033e	0.0020601298
58	0x3ad80474	0.0016480819
59	0x3bcb4d03	0.006204249
60	0xba903c2b	-0.001100426
61	0xb981cbcc	-0.00024756638
62	0xbbfd6892	-0.007733413
63	0x3ac4bb6b	0.0015009468
64	0x3b1847f2	0.0023236242
65	0x3bcb2735	0.006199742
66	0x3b0eb70b	0.0021776583
67	0x3bce8c83	0.0063033714
68	0xbbbe6242	-0.005810053
69	0xbb3e8e51	-0.0029076526
70	0x3a1e6df6	0.0006043607
71	0x3af19912	0.0018432459
72	0x3bb90931	0.0056468477
73	0xbaf1212c	-0.0018396727
74	0x3aa3a06f	0.0012483726
75	0xb9f5a2b6	-0.0004685127
76	0x3b99d79b	0.0046948916
77	0x3bc6971d	0.0060604946
78	0x38f65b70	0.00011747226
79	0xbb5a055f	-0.0033267362
80	0x3aa43874	0.0012529031
81	0x3ad9e775	0.0016624766
82	0xbbadcd04	-0.005303981
83	0xbb162897	-0.0022912377
84	0x3ac32ea4	0.0014891219
85	0xbb6fecb2	-0.0036609587
86	0x3bfd6802	0.007733346
87	0xbb5f490c	-0.003407064
88	0xbb0c1fed	-0.0021381334
89	0x39f1e79f	0.00046139673
90	0x3ae73a7b	0.001764133
91	0xbabba5db	-0.0014316397
92	0xbbaeec84	-0.0053382535
93	0x3b35e702	0.00277561
94	0xbbf2b70e	-0.0074070757
95	0xbb509a28	-0.0031830166
96	0x38b54964	8.6444226e-05
97	0x3b940dc6	0.0045182435
98	0x3b4edaf6	0.0031563616
99	0x3b7e1d3c	0.003877475
100	0xb9961860	-0.0002862839
101	0x3c030b05	0.007998233
102	0x3b67768a	0.0035318458
103	0x3b02bcdf	0.0019949002
104	0xbb31769d	-0.0027078756
105	0x399e4448	0.00030186982
106	0x3b108536	0.0022052056
107	0xbb9424d4	-0.004520992
108	0xbb122a23	-0.0022302947
109	0xbb0f2e9f	-0.0021847857
110	0x3ba14978	0.0049220882
111	0xb9225e1d	-0.00015484584
112	0x3ab973f6	0.0014148939
113	0xbb57a550	-0.003290493
114	0xba2b24d9	-0.0006528623
115	0x3a576215	0.00082162145
116	0x3b976d0a	0.0046211528
117	0xbaa24b9f	-0.0012382156
118	0x3a522a1a	0.0008017138
119	0x3a84607f	0.0010099559
120	0xbb827899	-0.0039816615
121	0x3b215339	0.0024616255
122	0xbb238420	-0.0024950579
123	0x3b1ae0ad	0.0023632452
124	0x39ddf0ab	0.00042331716
125	0xbbac83ec	-0.0052647498
126	0x3b0ddebe	0.0021647657
127	0xbb41e45f	-0.0029585583
128	0xbb502ae9	-0.0031763858
129	0xbb96e553	-0.0046049743
130	0xbb087370	-0.002082076
131	0xbbc5e445	-0.0060391747
132	0xba162f6e	-0.00057291135
133	0xbba533fa	-0.0050415965
134	0xb83a7bf0	-4.446128e-05
135	0x3a44ebad	0.0007511925
136	0xbb8cda2a	-0.004298468
137	0x3bc73870	0.006079726
138	0x3a4e7773	0.00078760757
139	0xbab3f373	-0.001372917
140	0xbb2dc7a1	-0.0026516693
141	0xbb276e9a	-0.0025548101
142	0xbbe9f98d	-0.0071403445
143	0x3bd06dce	0.006360746
144	0xbb8f1126	-0.004366058
145	0xbbb3481c	-0.0054712426
146	0x3bdbcded	0.006707898
147	0xbb48ddb8	-0.0030649733
148	0xbb84f609	-0.00405765
149	0x3befb9da	0.0073158564
150	0xbaa53c86	-0.0012606538
151	0xbb26b961	-0.0025440084
152	0x3aad5f1b	0.0013227196
153	0x3b88bb3c	0.0041727107
154	0x3b82d95f	0.003993198
155	0xbba84033	-0.0051346063
156	0x3bb92972	0.0056506926
157	0xbbaa5a00	-0.005198717
158	0xbbe25799	-0.006907415
159	0xbbca8e50	-0.0061815158
160	0x3b8452b6	0.00403818
161	0xbb87507f	-0.004129469
162	0xbb82b65c	-0.003989024
163	0xba3a96a4	-0.0007117784
164	0x3a89454e	0.0010472925
165	0xba56505b	-0.0008175426
166	0x3bd71625	0.006563919
167	0xbbb7e208	-0.005611662
168	0x3b25e6e1	0.0025314617
169	0x3b02a4fd	0.0019934766
170	0x3b38e1aa	0.0028210678
171	0xbb80bcf4	-0.003928775
172	0xbb8bb0c6	-0.0042630164
173	0xbaf63183	-0.0018783066
174	0xb7c97d4e	-2.4019417e-05
175	0x3835d78f	4.3354517e-05
176	0x3aad406e	0.0013218054
177	0x3b125c5f	0.002233289
178	0xba263e5c	-0.000634169
179	0x3b513758	0.0031923857
180	0xbbf1968d	-0.0073726834
181	0xbbab0efb	-0.0052202917
182	0x3bf6dd45	0.0075337016
183	0xbba9fa00	-0.005187273
184	0xbaca7b37	-0.0015448098
185	0x3bc69c5e	0.006061121
186	0x3be27d12	0.006911882
187	0x3bd06ea2	0.0063608447
188	0xbb0ad5fd	-0.0021184676
189	0x3be303c9	0.0069279415
190	0xbb9fedde	-0.004880651
191	0x3b89778e	0.00419516
192	0x3bcc3f20	0.006233111
193	0xb9aa5a93	-0.0003249241
194	0xbb709198	-0.0036707874
195	0x3b7cfe86	0.0038603856
196	0xbbacd84c	-0.005274808
197	0x3bd60205	0.0065310025
198	0x3bcb2b43	0.0062002256
199	0xba960057	-0.0011444193
200	0x3b47cd60	0.0030487403
201	0xba8b6c35	-0.0010637107
202	0x3bd9c02d	0.0066452236
203	0x3babc264	0.005241679
204	0x3ab334fe	0.0013672409
205	0x3b20c409	0.0024530909
206	0x3ba2639c	0.004955722
207	0xba1b8a24	-0.00059333653
208	0xbb484128	-0.0030556414
209	0xba2076b6	-0.0006121205
210	0xbb7d3f76	-0.0038642562
211	0x3bf23189	0.007391159
212	0x3c0cbf93	0.008590597
213	0x3b6186a8	0.0034412537
214	0x3b87abf7	0.004140373
215	0x3bade395	0.005306671
216	0xbbb4ce6c	-0.0055177715
217	0x3a0b751e	0.0005319881
218	0xbb3bda5b	-0.0028664086
219	0x3b883885	0.0041571283
220	0xbab3afed	-0.0013709046
221	0x3a2417da	0.00062596577
222	0x3ad90e89	0.0016560118
223	0x3b8982b9	0.0041964916
224	0x3b978bb5	0.0046248087
225	0xbc070011	-0.008239762
226	0xbbed6e4b	-0.007245814
227	0x3ba31ec2	0.004978032
228	0x3b89051f	0.0041815187
229	0xbb85620d	-0.0040705265
230	0x3b3a05bf	0.0028384773
231	0xba6fbf34	-0.0009145618
232	0x3b1830ea	0.0023222514
233	0xbb3370a5	-0.0027380374
234	0x38b4d79c	8.623229e-05
235	0x3b9de832	0.0048189396
236	0x3bd6a6ac	0.0065506306
237	0xbba6ed14	-0.00509418
238	0xbb2b5c31	-0.002614748
239	0xbb94b59a	-0.00453825
240	0xbbb43b6f	-0.005500249
241	0xbb999725	-0.0046872073
242	0xbb029b5c	-0.0019929027
243	0xbb6bc7f7	-0.0035977343
244	0x3b0d6c7a	0.002157955
245	0x3ac1fe8f	0.0014800596
246	0x3ba5d35b	0.005060596
247	0xbb9afbde	-0.004729732
248	0x3b51aafe	0.0031992788
249	0xb9c87614	-0.00038234948
250	0x3bb0a5ce	0.005390859
251	0xbaf2c4c9	-0.0018521781
252	0x3b541c1d	0.003236539
253	0x3a5c43bf	0.0008402429
254	0x3c160a3f	0.009157716
255	0xbaa16707	-0.001231403

net_layers.2.linear_1.bias f4 [135]
0	0x3d8b43f1	0.06800068
1	0x3d30d300	0.043169975
2	0xbc3e5033	-0.011615801
3	0x3c77fb37	0.015135578
4	0xbd6059b5	-0.05477305
5	0x3d4e9b0f	0.050440844
6	0x3b655c33	0.0034997582
7	0x3c1c432a	0.009537498
8	0xbd05ca82	-0.03266383
9	0x3d70d7e2	0.058799632
10	0xbd86502c	-0.0655826
11	0x3d549780	0.051902294
12	0x3d93b137	0.072115354
13	0xbc4abecb	-0.01237459
14	0x3d79decd	0.061003495
15	0x3c7dff93	0.015502828
16	0xbcdb6fd4	-0.026786722
17	0x3d846da1	0.064662226
18	0xbc6b04b6	-0.014344385
19	0x3d4dc99e	0.050241105
20	0x3cc0ebdb	0.023549965
21	0x3d2bf48a	0.041981257
22	0xbc475d24	-0.012168203
23	0x3d3c1c65	0.045925517
24	0x3d6c017a	0.057618596
25	0xbd0e042f	-0.03467196
26	0x3a4b0c74	0.0007745691
27	0x3d5820ef	0.052765783
28	0xbd3c9d22	-0.04604829
29	0xbca2b766	-0.019862842
30	0xbd3adee3	-0.045622718
31	0xbb98645d	-0.004650636
32	0x3c077cd1	0.008269505
33	0x3c43f16d	0.011959416
34	0x3d8fbca2	0.07018401
35	0x3d816e11	0.063198216
36	0xbd9fd978	-0.07805151
37	0x3d0c25cb	0.03421573
38	0xbd8cb2fa	-0.068700746
39	0x3d855ef9	0.06512255
40	0x3d1c7624	0.038198605
41	0xbd2ad0b8	-0.041702956
42	0xbcf4790c	-0.029842876
43	0x3cf582de	0.029969629
44	0x3cf8e8eb	0.030384501
45	0xbd091791	-0.03346974
46	0x3cecc86d	0.028904164
47	0xbd982227	-0.07428389
48	0x3d0f91ae	0.03505104
49	0xbd9d64f7	-0.07685273
50	0x3d141f2f	0.03616255
51	0xbccf1494	-0.025278367
52	0x3c9e5c3c	0.01933109
53	0xbd5e6c85	-0.05430271
54	0xbd5a4812	-0.053291388
55	0xbbcf12d2	-0.006319382
56	0x3cf2249e	0.029558476
57	0x3cd2cda2	0.025732819
58	0x3cfd28ac	0.030903183
59	0xb9ec2f62	-0.0004504873
60	0xbd2cd57f	-0.042195793
61	0xbd939089	-0.07205302
62	0xbca9c37c	-0.020723097
63	0xbda0d9e7	-0.078540616
64	0x3c37a4de	0.011208741
65	0xbc1cc613	-0.009568709
66	0xbd44ac97	-0.048016157
67	0xbc109087	-0.0088235205
68	0x3d4523f9	0.04813001
69	0x3d14a8f7	0.03629395
70	0x3d9f00ae	0.077638015
71	0x3d8b888c	0.068131536
72	0x3d6e5bf0	0.058193147
73	0x3d534960	0.051583648
74	0x3c99a478	0.018755183
75	0xbc5308c1	-0.012880505
76	0x3cc0b236	0.023522478
77	0xbd6f90c7	-0.05848768
78	0x3d7352ef	0.059405264
79	0x3cfbfe63	0.03076095
80	0xbcc92193	-0.024552142
81	0xbd4192fd	-0.04725932
82	0x3d49dbbe	0.049281828
83	0xbd57d6c8	-0.052695066
84	0x3d6f0fe5	0.058364768
85	0x3da65d64	0.081232816
86	0xbd9057a0	-0.07047963
87	0x3d204048	0.039123803
88	0x3d2b272e	0.04178541
89	0x3d92eaf0	0.07173717
90	0xbd9af9ea	-0.075671986
91	0x3d6584ce	0.056034856
92	0xbd906a5a	-0.07051535
93	0xbb8df857	-0.004332583
94	0x3d248ba3	0.04017223
95	0x3d34f2b8	0.044176787
96	0xbd707793	-0.058707785
97	0x3cb2370b	0.021754762
98	0xbd8c0532	-0.068369284
99	0xbc8aa39f	-0.016923724
100	0x3d0034e2	0.031300433
101	0xbd505018	-0.050857633
102	0x3cef888b	0.029239913
103	0x3d8c70b8	0.06857437
104	0xbd9f74aa	-0.07785924
105	0xbd9f273c	-0.07771155
106	0xbd91bdc8	-0.07116276
107	0xbd31649c	-0.04330884
108	0x3d4f54c7	0.05061796
109	0xbb3569b9	-0.0027681424
110	0xbd715c4e	-0.05892592
111	0xbd3e512a	-0.046464123
112	0x3ca3883f	0.019962428
113	0x3d6883bb	0.056766253
114	0xbd6eaa18	-0.058267683
115	0xbd1dd54f	-0.038533505
116	0xbcd550c1	-0.026039483
117	0x3ce92d30	0.02846393
118	0x3cf79c2b	0.030225834
119	0xbca0775d	-0.019588167
120	0xbbcba374	-0.0062145535
121	0x3d97aed7	0.07406395
122	0xbda5a24a	-0.08087595
123	0x3b2b8571	0.0026172067
124	0xbda4eb44	-0.08052686
125	0x3da44f79	0.08022971
126	0x3a8e66a6	0.0010864332
127	0xbd46c7aa	-0.04853026
128	0x3cb0b5da	0.021571089
129	0x3cfa90ca	0.030586619
130	0xbd025608	-0.031820327
131	0xbd541463	-0.051777255
132	0xbbaa5350	-0.00519792
133	0xbd58da74	-0.052942708
134	0xbc3520bf	-0.011055171

net_layers.2.linear_2.weight f4 [135, 135]
0	0x38ba41ff	8.881464e-05
1	0x3b1da5b3	0.0024055063
2	0xbb9e181f	-0.004824653
3	0xbbca776d	-0.0061787874
4	0x3b8e48f9	0.004342195
5	0xba12732a	-0.0005586619
6	0x38eb1f1a	0.00011211466
7	0x3b1f8e26	0.0024346202
8	0xbb99e88b	-0.0046969107
9	0x3b7058d0	0.003667403
10	0x3abaa8ed	0.0014241018
11	0xbbc648e2	-0.006051169
12	0xbac778cf	-0.0015218499
13	0x3ad03bfa	0.0015887015
14	0x3ac3dd86	0.0014943338
15	0x3a885e56	0.0010404091
16	0x3b364cb6	0.002781672
17	0xbb3b5cf3	-0.0028589338
18	0x3b9a7d95	0.0047146776
19	0x3ab39706	0.0013701625
20	0x3b9a1c82	0.0047031054
21	0xbb86738b	-0.0041031293
22	0x3b59afca	0.003321635
23	0xbb94a334	-0.004536057
24	0x3b3e9726	0.002908179
25	0xb9ed59ab	-0.0004527097
26	0xbba5fa3e	-0.0050652316
27	0xbb0d1b4f	-0.002153117
28	0x3bc0e3b4	0.0058865193
29	0x3bb9d946	0.005671653
30	0x3b840107	0.004028443
31	0xbb44fd38	-0.0030058157
32	0x38ebb5ef	0.00011239561
33	0xb9c8a167	-0.00038267227
34	0x39b698c9	0.0003482758
35	0x3ba641fe	0.005073785
36	0xbae5e313	-0.0017538987
37	0xbacea56a	-0.001576585
38	0x3b344a40	0.0027510077
39	0xbaa0dfc5	-0.001227372
40	0x3b64fe67	0.0034941675
41	0x3b67e8ec	0.0035386635
42	0x3ae78c1e	0.001766566
43	0xbb2fa327	-0.0026800127
44	0x3b3cec5b	0.0028827402
45	0x3b66b268	0.0035201553
46	0x3b84b3c9	0.0040497524
47	0x3bc16f72	0.005903178
48	0xbb9fcda3	-0.0048768087
49	0xbb8fed0e	-0.004392273
50	0x3b87281c	0.0041246545
51	0x3ac042f8	0.0014668396
52	0xbba6cd1a	-0.005090368
53	0x3bdc3204	0.0067198295
54	0xbbb06552	-0.005383172
55	0xbb99353c	-0.0046755355
56	0x3aab0512	0.0013047776
57	0x3bb4f1bf	0.0055219824
58	0xbbb241c6	-0.0054399697
59	0x3b741c2f	0.0037248244
60	0x3bc07622	0.0058734575
61	0xbbb42e7a	-0.0054987045
62	0x3b9d3734	0.0047978405
63	0x39df19b6	0.0004255303
64	0xbacbcb23	-0.001554821
65	0x3bccda98	0.0062516443
66	0x3ba9f117	0.005186211
67	0x3b24ade7	0.0025128068
68	0xba9edf60	-0.0012121014
69	0x3b759255	0.0037471254
70	0x3aa46e2e	0.0012545043
71	0xbbd055be	-0.0063578775
72	0xbb9b4f25	-0.0047396594
73	0x3bab1af9	0.0052217213
74	0x3b9233b3	0.0044617294
75	0x3bb86943	0.0056277825
76	0xbb1a9348	-0.0023586322
77	0xbb746b0f	-0.0037295257
78	0x3ac07a07	0.0014684804
79	0xbbbaff15	-0.0057066777
80	0x3aba4a3e	0.00142128
81	0xbb930a2b	-0.004487296
82	0xbbd0b58b	-0.006369298
83	0x3bba79ad	0.0056907744
84	0xbbc82ee3	-0.006109105
85	0xbb623a75	-0.0034519706
86	0x3b558adf	0.0032583994
87	0xbb8de8d8	-0.0043307357
88	0x3bc35e2d	0.0059621544
89	0x3acc1d83	0.001557276
90	0xba7f4d44	-0.00097389915
91	0xbaa69e21	-0.0012711921
92	0x3bad4807	0.0052881273
93	0xbbbe46fe	-0.005806803
94	0xbbafcd3b	-0.0053650416
95	0x3b016009	0.001974108
96	0x3b80bbbd	0.00392863
97	0xbb835a50	-0.004008569
98	0x3a17693d	0.00057758746
99	0x3aa49ac0	0.0012558326
100	0x3bc6b866	0.0060644625
101	0x3b98a2a6	0.004658061
102	0xbad02556	-0.0015880268
103	0x3b04b34b	0.0020248468
104	0x3b896151	0.004192509
105	0xb94ad0c3	-0.00019341991
106	0xbb22d842	-0.0024848138
107	0xbb8f2a6c	-0.0043690708
108	0x3b71e665	0.0036911007
109	0xbb7aa8a5	-0.0038247493
110	0xb7d4ebac	-2.5382113e-05
111	0x3af7643c	0.0018874477
112	0x3bd0bc0a	0.0063700723
113	0x3b96d6db	0.0046032495
114	0x3ba185aa	0.004929264
115	0x3b007a6a	0.0019604214
116	0x3bc5bbd4	0.0060343537
117	0xbba54fc9	-0.0050449115
118	0xbba20d61	-0.0049454425
119	0x3b4b2d41	0.0031002315
120	0x3b44aeb6	0.0030011362
121	0xbbdeb8b6	-0.0067969216
122	0xbbedc172	-0.0072557265
123	0xbbe9b607	-0.007132295
124	0x3aea1312	0.0017858467
125	0xbb87dc2a	-0.0041461186
126	0xbad34b6c	-0.00161205
127	0xbb28e280	-0.002576977
128	0xbab2f44c	-0.0013653128
129	0xbaa2fa97	-0.0012434301
130	0xbbaf739e	-0.005354359
131	0xba34dea3	-0.00068996305
132	0x37e0475c	2.673611e-05
133	0x3a9f9d30	0.0012177583
134	0xba1c6175	-0.000596545
135	0xbab678bd	-0.0013921481
136	0xbb4e3df6	-0.0031470037
137	0x3b8145f1	0.0039451052
138	0xbbcd3159	-0.006261986
139	0xbb40814a	-0.0029373937
140	0x3b3890e4	0.0028162533
141	0xbbaac5ca	-0.0052115666
142	0x3bca1e99	0.0061681983
143	0xba12923e	-0.000559125
144	0xbb154ca7	-0.0022781284
145	0x3bb55689	0.0055339974
146	0x3b81ff89	0.0039672297
147	0x3b4469b7	0.0029970238
148	0xbb868a34	-0.0041058306
149	0xbbb5bec1	-0.0055464213
150	0xba053d99	-0.0005082726
151	0xbba2f91e	-0.0049735447
152	0x3a96bb2f	0.0011499877
153	0x3a7ee91c	0.0009724067
154	0xbbbc83f4	-0.0057530347
155	0x3af5b103	0.001874477
156	0x3a9bebd7	0.0011895847
157	0xbb878ce4	-0.0041366685
158	0x3b8872ca	0.0041640745
159	0xb9b47a31	-0.00034423315
160	0xbb7c01ef	-0.00384533
161	0x3b0c44fd	0.0021403425
162	0xbb69c67f	-0.0035671291
163	0xbb9b20dd	-0.004734142
164	0xbab83bc8	-0.0014055902
165	0x3bb7a659	0.005604547
166	0x3b6a8292	0.0035783392
167	0xb8069967	-3.2090957e-05
168	0xbb9c7e3a	-0.0047757896
169	0xb9a274e7	-0.00030986147
170	0xbb23d336	-0.0024997718
171	0x3b03fa93	0.0020138368
172	0x3b8a47f7	0.0042200047
173	0x3b67db77	0.0035378614
174	0xbbba647f	-0.0056882496
175	0xbb22d1df	-0.0024844331
176	0x3a669363	0.0008795766
177	0xbba23199	-0.00494976
178	0x3b3cb7bc	0.0028796038
179	0xbb50aecd	-0.003184247
180	0x3a8eacdb	0.0010885255
181	0x3bb4e6cc	0.005520677
182	0x3b685e66	0.0035456656
183	0x3b3bfe68	0.0028685573
184	0x3b1cd01d	0.0023927756
185	0xba760a23	-0.0009385666
186	0xbbbe0b6d	-0.005799702
187	0xbb0d9ac4	-0.002160714
188	0xb987eaf6	-0.00025924266
189	0x3a3ecc5a	0.00072783756
190	0xbad904ab	-0.0016557177
191	0xbb878eb9	-0.004136887
192	0xbbcf691d	-0.006329669
193	0xbac92e76	-0.001534893
194	0xbb8d0f2c	-0.004304787
195	0xbb211dc8	-0.0024584401
196	0xba7233b1	-0.000923927
197	0xbbc2990f	-0.005938656
198	0xbb9d4ce6	-0.004800427
199	0xbb85f55d	-0.0040880875
200	0xbb7d753a	-0.0038674609
201	0xba990e56	-0.0011677246
202	0xbb027c9b	-0.0019910696
203	0xbb48a8be	-0.0030618156
204	0x3be82a10	0.0070850924
205	0xbbb7b188	-0.00560588
206	0xb9ba83ce	-0.00035574887
207	0xbbafbe17	-0.0053632366
208	0xbbadefe8	-0.00530814
209	0xbb10448e	-0.0022013518
210	0xbaad99f3	-0.0013244733
211	0xb9d194c7	-0.00039974434
212	0x3b9b8dd6	0.004747133
213	0x3b0cbbe9	0.0021474308
214	0x3a63a0c8	0.0008683321
215	0x3946d688	0.0001896267
216	0xbbaae14d	-0.005214846
217	0x3b4d7ec4	0.0031356076
218	0xbb817dae	-0.0039517498
219	0x3bd8ac90	0.006612368
220	0xba9a4978	-0.0011771163
221	0x3bdd08a3	0.0067454143
222	0xbafde10b	-0.0019369436
223	0x3ae3d922	0.0017383436
224	0x390918f9	0.00013074641
225	0xba085179	-0.00052001287
226	0x3be23957	0.006903808
227	0xbb812139	-0.003940728
228	0x3baff7c6	0.005370113
229	0x3b05221b	0.0020314518
230	0xbab34887	-0.0013678231
231	0xbb1dc1ef	-0.0024071892
232	0xbbafea01	-0.0053684716
233	0x3b9e341d	0.0048279897
234	0x3bc0734b	0.005873119
235	0x3a9decc2	0.0012048709
236	0x389d9351	7.513783e-05
237	0x3bb5f166	0.0055524586
238	0xba25042c	-0.0006294872
239	0x3b34b199	0.0027571677
240	0x3bc958ac	0.0061446037
241	0xbb9fc823	-0.004876153
242	0xbb1c5f93	-0.0023860678
243	0xbba75903	-0.0051070466
244	0xbb9a4b50	-0.004708685
245	0x3b234636	0.0024913675
246	0xbb8fd468	-0.0043893345
247	0x39e850d8	0.00044310722
248	0xbb0a48fb	-0.0021100629
249	0x3ad061f5	0.0015898334
250	0xbaab45cb	-0.0013067065
251	0xbb198d22	-0.002343007
252	0xbb4408d1	-0.0029912482
253	0xbb6b1156	-0.0035868487
254	0x3bdf5d03	0.006816508
255	0x3b92d784	0.004481258
