thesis/may/week 9/models/pruned_siren_std_105n.pth (torch, 545653 bytes, 27 tensors)

net_layers.0.linear.weight f4 [105, 3]
000000 c5 9e 04 bd c7 c8 d0 bd 7d f0 d3 bd 8f bc 9e bc
       -0.032377977 -0.10194545 -0.10348604 -0.019377021
000010 a7 06 db 3d be 02 76 bd f2 1c db bc d1 34 97 be
       0.10694628 -0.06006121 -0.0267472 -0.29532483
000020 9b dc 7b be fa 90 5b be 9b bb 95 3e d9 79 07 3e
       -0.24595873 -0.21442023 0.29244694 0.13230075
000030 54 fc 31 be 30 c9 86 bb 3b ff 92 be 3b 3c bb 3c
       -0.17381412 -0.004113339 -0.2871035 0.022855869
000040 93 41 61 be 0e 09 31 3d 2a 5d a9 bd fc c1 07 be
       -0.21997671 0.043221526 -0.08269723 -0.13257593
000050 5c ed a3 be db 63 99 3e f4 4e a5 be 63 db a7 3c
       -0.32017028 0.29958996 -0.322868 0.020490354
000060 32 70 20 be 4e f1 7f 3e 46 67 6a be d3 c4 14 be
       -0.15667799 0.24994394 -0.22890958 -0.14528207
000070 08 38 21 3e 3d 64 98 be 08 3c 90 be ad b2 65 bd
       0.1574403 -0.29763976 -0.281708 -0.0560786
000080 01 10 13 bd 00 ab 6e 3e 7c e3 66 3e 0e 95 04 be
       -0.035903934 0.23307419 0.22547716 -0.12947485
000090 95 16 17 3e b0 01 08 3e 04 46 42 3e a9 11 e9 3d
       0.14754708 0.13281894 0.18972021 0.113803215
0000a0 c1 8d 64 bd 94 97 f6 bd 0d 3a 48 3d 57 e6 b3 3c
       -0.05579925 -0.1204063 0.048883487 0.02196042
0000b0 a2 6d df bd ec db 4c be 1a 0a d9 3d e6 db bb bc
       -0.10909583 -0.20005769 0.1059763 -0.022932004
0000c0 b6 28 82 bc ab 91 07 3e bf ba 82 bd f4 24 be bd
       -0.015888553 0.13239162 -0.06383275 -0.09284392
0000d0 36 e5 38 be b5 0b 97 be a6 59 9e be b2 2d 57 be
       -0.18056187 -0.2950112 -0.3092777 -0.21013525
0000e0 41 96 93 3e a4 cc 0e 3e 47 b3 ab 3c 1e 71 77 be
       0.28825572 0.13945252 0.02095951 -0.24164245
0000f0 90 84 7d be 11 d5 64 be c4 70 6e 3d 29 60 6b be
       -0.247576 -0.22346903 0.05821301 -0.22985901
000100 00 50 85 be 6e 88 22 be 8b 0f a7 3e f7 f9 06 3e
       -0.26037598 -0.15872356 0.32629046 0.13181292
000110 bd ec 97 bd ca 9b 72 3e f2 8c 67 3e 12 fa 19 3e
       -0.07418201 0.23692241 0.2261236 0.150368
000120 43 d3 59 3e 37 9e dd bb e5 7f 9c bd f8 bd 85 be
       0.21271996 -0.0067632454 -0.076415814 -0.26121497
000130 a2 80 66 be 29 8c 26 be 9e 6f 6b 3e 2f 70 52 3e
       -0.22510007 -0.16264404 0.22991797 0.20550607
000140 31 a7 20 bd f9 0b c5 bd 2a 27 81 be c3 33 96 be
       -0.039221946 -0.09621424 -0.25225192 -0.29336366
000150 39 ef 9b be a5 1c 20 be 09 67 cc bd b1 5f 1b be
       -0.3045595 -0.15635927 -0.0998059 -0.15173222
000160 10 8a 98 be 17 dc 86 3e f9 0b 02 bd 8a 93 0c 3e
       -0.29792833 0.2633979 -0.0317497 0.13728157
000170 1c fd 6a 3e c5 41 67 bd 2f 5a 48 be 19 30 6b 3e
       0.22948116 -0.056459207 -0.19565652 0.22967567
000180 e5 58 0b 3e 5b fd b3 3d 5a 6a 48 3e 35 60 6e be
       0.1360813 0.08788558 0.1957182 -0.23278888
000190 fe df a4 be 9a f9 cf 3d 70 53 a6 be 8c 15 8b be
       -0.32202142 0.101550296 -0.32485533 -0.27164876
0001a0 9f 61 b6 bd 92 54 19 3e 80 5d c2 bd 37 09 6a be
       -0.089053385 0.14973667 -0.0949049 -0.22855078
0001b0 2a 66 17 3e 88 8d 9a 3d e7 2f 5d 3e 92 5e 1c 3e
       0.14785066 0.07546526 0.21600305 0.1527045
0001c0 bd f3 7a be da f6 25 be 1f 1b e5 39 d7 e6 28 be
       -0.24507041 -0.16207448 0.0004369849 -0.16494308
0001d0 1a ab 98 be 90 a4 61 be 39 63 9d 3c 06 57 f9 bd
       -0.2981804 -0.22035432 0.019212352 -0.121748015
0001e0 28 a8 34 be 9b 81 9b be 97 6d 6b be 89 1e 53 be
       -0.17642272 -0.3037232 -0.22991024 -0.20617117
0001f0 5d 35 be 3d 85 ca 9a bb cf ca 27 3d 66 e4 25 bd
       0.09287522 -0.0047238492 0.040964898 -0.04050102
000200 e7 cb 14 be bb 4a 09 be 02 e2 eb bd b2 96 94 be
       -0.14530908 -0.13407414 -0.11517717 -0.2902122
000210 6c 2a 66 be 2e b4 cc 3d 9c 76 13 3e f3 94 83 be
       -0.2247712 0.09995304 0.14400715 -0.25699577
000220 94 c3 16 3e ef 6e a8 bd 5b f6 a5 3e 21 fd 82 be
       0.14723045 -0.08224284 0.32414517 -0.25583747
000230 bd 81 a5 be b2 43 f3 3d 96 3e dc bd 20 82 83 3d
       -0.32325545 0.11878146 -0.10754125 0.06421304
000240 d0 81 98 be 51 69 ac bd b7 c2 22 3e 69 f9 40 be
       -0.2978654 -0.08418525 0.1589459 -0.18845142
000250 b9 60 5d 3e e8 e0 51 be f5 19 2b be 42 73 57 3c
       0.21618928 -0.20495951 -0.1670912 0.013150038
000260 0f c7 67 be 81 3e 94 3e 03 ef 13 3e 7e cc 17 be
       -0.22634529 0.28953937 0.14446644 -0.14824101
000270 8a 8b 04 be cf 66 34 be 5f 20 a3 bd 93 0a a2 be
       -0.12943855 -0.17617343 -0.07965159 -0.31648692
000280 bd 1e 08 3e c4 8e d6 3d c9 81 66 bb 8c 9a 20 be
       0.13292976 0.10476449 -0.0035172573 -0.15683955
000290 cf 62 45 3e cc 3f 22 3e b2 94 a3 bd 0a 9b ea 3d
       0.19275974 0.15844649 -0.07987346 0.114553526
0002a0 a8 61 94 be f2 f4 93 be 19 07 96 3e 00 0a 1b be
       -0.28980756 -0.28897816 0.2930229 -0.15140533
0002b0 d0 19 7f be 94 5d 81 3e e9 75 85 3d 42 35 91 be
       -0.2491219 0.25266707 0.0651663 -0.28360945
0002c0 c0 0c 5a 3e a8 3e 72 3e 73 1c 4d be 23 3a 87 3e
       0.21293926 0.23656714 -0.20030384 0.26411542
0002d0 b8 a9 a9 bd 4d 23 9b 3e 5c d9 9a be e7 52 44 3e
       -0.082843244 0.3030037 -0.30243957 0.1917225
0002e0 07 9d 9b 3e 1b ad 99 be f2 f2 4f 3e cf c5 33 be
       0.3039324 -0.30014881 0.2030752 -0.17555927
0002f0 19 8f db 3d 95 1f 8e bd c8 67 5b be 67 07 87 3d
       0.10720653 -0.069396175 -0.21426308 0.06593209
000300 fc 0d 66 3d 55 b4 e1 3d 12 a7 60 be 80 70 05 3e
       0.05616568 0.11020724 -0.21938732 0.13031197
000310 6c 77 b5 3d 19 2e 40 be 9d 9d 3b 3e 85 6d 01 3d
       0.088606685 -0.18767585 0.18321843 0.031598587
000320 31 25 a0 be 97 3a 42 3e 1c f0 83 3e 62 77 2a 3e
       -0.31278375 0.18967663 0.25769126 0.16647103
000330 c2 62 88 3e 78 8c 52 be 17 e1 1b be 73 82 a3 be
       0.26637846 -0.20561397 -0.15222584 -0.31935462
000340 d8 6e 26 3e b6 6a a3 3e 9e 20 2e 3d e2 3a d2 bd
       0.16253221 0.3191735 0.042511575 -0.10265137
000350 ae 86 a3 3e a2 7f 95 bc 45 00 8e be a6 4b a7 bd
       0.3193869 -0.018249337 -0.2773458 -0.08168726
000360 d1 3f 90 be 1a 70 ed bd 5f 21 85 3e fc f4 88 be
       -0.28173688 -0.11593647 0.26002023 -0.26749408
000370 7d dd 98 bd e2 59 04 be 02 14 62 bd 1e 68 6d 3e
       -0.074641205 -0.12924913 -0.055194862 0.23184249
000380 d4 23 a3 bc 0c e8 8c be e6 e1 d6 3d bf 79 40 3e
       -0.019914545 -0.27520788 0.104923055 0.18796442
000390 79 a2 37 be 4a 0d 98 3e ef ed 7b be 35 d1 56 3e
       -0.17933072 0.2969764 -0.24602483 0.20978244
0003a0 46 20 99 bd 77 00 9f be ec fc 01 3e d1 3d 34 bd
       -0.07476859 -0.31055042 0.12694138 -0.044004265
0003b0 0b cf 10 be 69 50 c8 bc 50 31 c9 3d 44 18 9a be
       -0.1414148 -0.024452405 0.09823859 -0.30096638
0003c0 e8 f7 90 3e 29 99 85 bd 73 2f 3a be a3 89 f6 bd
       0.28314137 -0.065233536 -0.18182163 -0.12037971
0003d0 18 26 48 3e 17 62 a4 3e b7 22 06 3e 1b 22 8a be
       0.19545782 0.32106087 0.1309918 -0.26979145
0003e0 2c 15 4c be fb 95 1b be a8 bc 96 bd 5e 67 1e be
       -0.19929951 -0.15193932 -0.07360202 -0.15469119
0003f0 30 d5 50 be c8 50 4e be 6a 25 8f 3e 3e b5 8b be
       -0.20393825 -0.20148003 0.27958232 -0.27286714

net_layers.0.linear.bias f4 [105]
000000 8c 4a f4 3e 0c f3 6c be c7 ef 87 ba ec cd 0f bc
       0.47713125 -0.2313959 -0.0010371142 -0.008777123
000010 2f 60 76 be 70 0b 03 be 41 47 63 be b5 10 47 3e
       -0.24060129 -0.12797332 -0.2219515 0.19439967
000020 92 3e 05 3f 5e a1 e0 3e 92 4b f2 3e f7 61 32 3e
       0.520486 0.43873113 0.4732328 0.17420183
000030 5a 3b d8 be 48 bb 5d bd c1 25 b9 be 40 ea f9 3e
       -0.42232782 -0.054133683 -0.36161616 0.4881153
000040 16 ed 47 3e df c2 b4 3d ca 2d 2f be b1 18 0a 3f
       0.19524035 0.08826231 -0.17107311 0.53943926
000050 12 f1 e3 3e c3 0b d9 be 13 45 91 3e 84 a3 2a be
       0.4451986 -0.42391786 0.28373012 -0.16663939
000060 16 b1 8e be 90 5d 94 be 6a e7 51 3e 72 ec 0f bf
       -0.2786948 -0.28977633 0.20498434 -0.5622016
000070 a5 13 15 be d9 c3 aa 3d 84 0c cd 3e 39 09 a9 be
       -0.14558275 0.08338136 0.4004861 -0.3301485
000080 98 39 29 3e 8f 21 0c 3e 2a c0 66 be 80 b1 fe 3e
       0.16525877 0.13684677 -0.22534242 0.49744797
000090 71 16 cd bd 2e 29 54 be bf fc 06 3e b0 34 89 3e
       -0.10014046 -0.20718834 0.13182352 0.2679801
0000a0 cc 1b 02 3f cf 81 a0 be d6 e5 9b be ab 2d 8e 3e
       0.50823665 -0.31349036 -0.30448788 0.27769217
0000b0 29 ab 3a 3e 96 4a 84 3d 39 2e 03 be 61 19 03 bf
       0.18229355 0.06459539 -0.12810601 -0.512106
0000c0 bb b7 88 3e c2 d1 a8 3d cc 5e 84 3d 45 c4 af 3d
       0.26702675 0.08243133 0.064633936 0.08582357
0000d0 e6 4d b6 bc 92 fa 01 3f 96 2e 0c 3f c7 55 53 3e
       -0.022253942 0.50772965 0.54758584 0.2063819
0000e0 ef 5d b3 be 96 32 fc 3e cb 06 5c 3e 78 bb 55 be
       -0.35032603 0.49257344 0.21486966 -0.20872295
0000f0 22 cc 0f 3f 6e 0c b1 3e 5f b1 0b bf c2 ae e8 3d
       0.56170857 0.34579796 -0.5456752 0.113614574
000100 6f dd 99 3e 1b bc 09 bf 52 13 f0 be 9a bf 80 be
       0.30051753 -0.5380265 -0.4688974 -0.2514618
000110 aa 09 90 3e a2 58 0f 3f 54 0d 06 3e 23 ab 24 3e
       0.28132373 0.5599462 0.13091022 0.16080908
000120 79 67 08 be ae 2c bd 3e 0a ef f0 be fd 27 ff bd
       -0.13320722 0.3694815 -0.47057372 -0.12458799
000130 91 b2 ce 3e 18 a3 e1 3d c1 74 7d 3e 5c 9b 85 bd
       0.4037061 0.11017436 0.2475157 -0.06523773
000140 6d 39 97 3e 29 4e 4a 3e b1 f0 f1 be 6f 7b af be
       0.29536 0.19756378 -0.47253945 -0.3427386
000150 65 b2 4d 3e 61 72 e4 bd 92 42 b6 3d ab 6d 43 be
       0.20087583 -0.111546285 0.08899416 -0.19084804
000160 56 b8 15 be 50 cf 20 be 88 e9 94 3e ea f4 31 3e
       -0.146211 -0.15704083 0.2908442 0.17378584
000170 84 1e 4e 3e 60 9e 0e 3f 13 30 da bc de 11 20 3e
       0.20128828 0.5571041 -0.026634252 0.15631816
000180 e6 a8 ac 3e d4 56 28 3e 9c db 88 3e d6 cb fa 3e
       0.3372261 0.16439372 0.2673005 0.4898364
000190 94 05 a0 3e 2b b1 d2 bd d1 80 53 3c 05 c7 9f be
       0.31254256 -0.10287698 0.01290913 -0.31206527
0001a0 90 ca f7 be
       -0.4839673

net_layers.1.linear_1.weight f4 [105, 105]
000000 db 0c c9 3a 61 12 81 3b 70 00 cb bb 8f 1a be 3b
       0.0015338914 0.0039389585 -0.0061951205 0.005801506
000010 af 57 ec 39 63 6f 99 3b 41 32 41 bc 44 19 2c ba
       0.00045078757 0.004682468 -0.011791767 -0.0006565044
000020 85 c9 ca bb 93 63 47 3b 3d a0 70 3b 96 a7 a3 3b
       -0.006188574 0.003042434 0.0036716603 0.004994343
000030 7e e9 a0 3b d6 f4 79 bb 0b 98 46 3a b7 f2 af ba
       0.004910647 -0.0038140318 0.0007575757 -0.0013423775
000040 da da 09 3b e2 3a ba 3b a3 5a c4 bb 9c cd 2d 3c
       0.0021034987 0.005683289 -0.00599225 0.010608103
000050 0d fa 0e 3c 8d b3 12 3c dd d7 11 3b b4 4d c3 bb
       0.008726609 0.008953941 0.0022253909 -0.0059601907
000060 82 a7 48 3c b7 6a a8 bb ff e5 78 bb 2a 61 d9 bb
       0.012246968 -0.0051396745 -0.0037978885 -0.0066338973
000070 3d 26 f6 ba b9 a5 5a bb 0e b2 0e ba 56 8f b9 bb
       -0.0018779706 -0.0033362939 -0.00054434023 -0.005662839
000080 29 6d b7 bb 21 83 35 3b c6 65 6a 3a b3 53 9f 3b
       -0.0055977297 0.0027696567 0.0008941557 0.0048622726
000090 43 dc 04 3c 2c 1e 33 bc 4d 69 91 bb 96 f7 00 bc
       0.008109155 -0.0109324865 -0.0044376017 -0.007871529
0000a0 a8 0f b0 3b 99 a3 57 ba 2e 51 fb bb a6 7a c3 3b
       0.00537296 -0.0008225977 -0.0076695895 0.0059655486
0000b0 cd 7b 93 3a 69 fe 19 3c fd 90 15 3c 62 09 0f 3c
       0.0011252105 0.009399035 0.009128806 0.008730264
0000c0 ef c9 6e 3a 98 bb dd bb b4 c4 d6 3a 9f 43 1f 3c
       0.000910907 -0.0067667477 0.0016385526 0.009720712
0000d0 b7 63 10 bc 11 1d 71 bb ab e0 da 3b 30 d3 06 ba
       -0.008812836 -0.0036791007 0.0066796145 -0.0005143164
0000e0 f9 ca 9a 3b be 41 41 b9 28 ac 14 bb 27 eb 01 3c
       0.0047239033 -0.00018430405 -0.002268562 0.0079296
0000f0 36 35 36 bb 14 3f f5 bb f7 a0 a8 3b 2a 4b f5 bb
       -0.0027802712 -0.007484326 0.0051461416 -0.007485767
000100 43 e2 e1 3b 0f 67 f9 bb 92 4c 0c bc 00 e9 06 3c
       0.0068934276 -0.0076111625 -0.008563178 0.0082342625
000110 49 7f 0c bb 5f 14 d6 bb 9c 43 ac 3b fc 21 06 3c
       -0.0021438173 -0.00653319 0.005257083 0.008186813
000120 82 6f 8c 3b f2 7c d2 3b 51 7f 61 bb 5a a3 bf 3a
       0.0042857537 0.006423586 -0.0034408162 0.0014620826
000130 9f 52 a1 bb e7 22 2f bb 5d 40 42 3c 8b af b2 3b
       -0.0049231793 -0.0026723684 0.011856166 0.0054530553
000140 e0 65 7f bb 53 2c e8 39 d7 31 4d ba 65 3f 4d 3a
       -0.0038970634 0.00044283512 -0.0007827556 0.0007829576
000150 cd d5 e1 3a 48 cb 6b bb f2 05 e5 3b ab 34 3c 3a
       0.0017229855 -0.003597932 0.006989234 0.0007179479
000160 35 57 7e 3b 39 5a df bb 60 f3 06 bc b0 d3 26 3c
       0.0038809304 -0.0068161753 -0.008236736 0.010182306
000170 64 80 03 bc c0 2e 27 bc 79 b0 f5 b9 66 d7 2f 3c
       -0.008026216 -0.010204017 -0.00046861524 0.010732507
000180 a2 48 ad 3b 54 e8 2b 3c fa ad 8f 3b 91 32 3f 3c
       0.0052881995 0.010492403 0.0043847533 0.011669771
000190 c9 5c 14 bc 00 e0 29 3a 0a 83 c0 bb 4a 20 96 bb
       -0.009055325 0.0006480217 -0.005874996 -0.004581486
0001a0 03 41 80 3b 3f 1f 68 3a 1f 12 ef ba a4 34 19 3c
       0.003914 0.00088547537 -0.0018239653 0.009350929
0001b0 6e 6a 0d 3c e6 fd 89 3b 9c 49 e8 3a 4c 39 6f bb
       0.008631332 0.0042111753 0.0017722133 -0.0036502657
0001c0 14 8a 43 bb 3c 0f e6 b9 03 83 0f 3b 1c 78 3a bb
       -0.002983694 -0.0004388037 0.0021898157 -0.0028452938
0001d0 d4 f8 0d bc 5c 0d e4 ba a4 b7 1c bb e1 46 b2 bb
       -0.008665282 -0.0017399001 -0.002391317 -0.0054405783
0001e0 18 b0 14 3b 5d c6 b6 39 e1 a3 59 3b ec 38 d6 3b
       0.0022687968 0.00034861537 0.0033209252 0.0065375473
0001f0 00 72 90 3a 73 62 5e ba 5a 74 1c 3a 1c de 1b 3c
       0.0011020303 -0.0008483298 0.00059682655 0.009513404
000200 e6 84 f6 38 72 63 52 bb 3d 97 77 bb f6 e2 00 3c
       0.00011754948 -0.003210273 -0.0037779354 0.007866612
000210 09 8a 86 bb e1 ab 73 b7 57 cb 5d 3a c7 8e c3 3b
       -0.0041058105 -1.4523947e-05 0.0008460781 0.005967948
000220 c1 df c8 3b 46 b8 14 bb 95 37 b7 39 08 d4 30 3b
       0.006130189 -0.0022692843 0.00034945892 0.002698185
000230 ba c9 65 b8 5c 7a a1 bb f1 62 f5 bb 37 ac 14 3c
       -5.4785727e-05 -0.0049279165 -0.0074886014 0.009074262
000240 b1 32 1a 3b 61 ba 74 bb 09 0b 30 bc 91 86 14 bc
       0.002352875 -0.0037342536 -0.0107448185 -0.009065286
000250 b1 5a fa 3b 95 73 a3 3b 28 d5 03 3c a8 30 18 3b
       0.007640206 0.0049881437 0.008046426 0.002322236
000260 09 1f 49 bb 44 44 12 3c c5 59 9b 3b 10 91 66 3b
       -0.0030688664 0.008927409 0.004740926 0.0035181679
000270 52 12 5a bb a6 a7 08 bc 1c a6 f8 ba 3a 31 30 3b
       -0.003327508 -0.008340752 -0.0018970403 0.002688481
000280 ac 01 c8 bb af 12 c6 bb 67 d5 a6 bb 86 11 b1 3a
       -0.006103715 -0.0060447077 -0.0050913575 0.0013509251
000290 6c 78 01 ba e1 7a 33 bc 39 4f 45 3b 1a 6a 30 bb
       -0.0004938904 -0.01095459 0.0030107035 -0.002691871
0002a0 05 7a 22 bc 5c 1c c3 3a c8 70 68 ba 63 34 a0 3a
       -0.009916787 0.0014885771 -0.00088669034 0.0012222644
0002b0 74 a5 01 bb e6 17 a5 3b 55 8b a0 bb d4 64 ff 3a
       -0.0019782456 0.0050382493 -0.004899422 0.0019485005
0002c0 8f 54 bd 39 07 49 1f ba 6d 28 ad bb cd 25 41 3b
       0.0003611189 -0.00060762506 -0.00528436 0.0029471994
0002d0 4d 59 a7 3b e2 6d 5b 39 b4 2e 20 3a e8 01 b2 3a
       0.005107081 0.00020926402 0.0006110475 0.001358089
0002e0 38 43 a8 3a f4 1a 85 bb 28 9f 9b 3b 47 79 87 3a
       0.0012837416 -0.004062051 0.0047491975 0.0010335826
0002f0 06 74 9b 3b 5f 00 f6 bb 6c de 60 3b fd 54 33 3a
       0.0047440557 -0.0075073685 0.0034312261 0.00068409723
000300 a8 ca 2c 3c b5 90 92 bb 89 44 fc 3b 13 59 57 3b
       0.010546364 -0.004472817 0.0076985997 0.003285949
000310 0a cf 09 ba 1a ec 92 3b ee 8d a5 3b bb 99 95 ba
       -0.00052569865 0.004483712 0.0050523197 -0.0011413613
000320 08 74 1b bc 95 91 28 bb fb 30 e7 ba 84 bd 3d bb
       -0.009488113 -0.002572154 -0.0017638499 -0.0028952071
000330 6a 2e b3 bb 10 d5 f2 bb e5 72 a2 3b 1c 64 99 39
       -0.0054681795 -0.007410653 0.004957544 0.0002925702
000340 56 8d bd 3b 51 fb c3 3b d0 f6 94 39 a9 98 3c 3b
       0.005784671 0.005980887 0.0002841265 0.0028777516
000350 e7 3c 2f bb 2c 11 09 3c 44 e2 08 bc 17 ca 02 3c
       -0.0026739181 0.0083659105 -0.008354727 0.007982752
000360 6a a1 8d 3b 65 66 c4 3b 45 8c 91 ba ff eb 90 bb
       0.0043222206 0.0059936517 -0.0011104426 -0.004422664
000370 f9 0b 21 bc c2 42 97 3b 57 34 54 bb 55 84 c0 bb
       -0.009829515 0.0046161124 -0.003237983 -0.00587515
000380 2f 6b 90 3a cd b2 c8 3a 54 86 39 3c 61 70 25 ba
       0.0011018271 0.0015312076 0.01132353 -0.0006310996
000390 0f de 3b 3b f6 9d ca bb ad 23 21 3b 18 b0 0e bc
       0.0028666293 -0.006183381 0.0024587915 -0.008708976
0003a0 b7 96 54 3b ba 0a 74 3a 7f 48 77 bb 68 8a 8c bb
       0.0032438466 0.000930946 -0.003773242 -0.0042889602
0003b0 34 9b 33 3a f8 cb c1 bb a9 a1 f2 bb 9c 34 a1 3a
       0.0006851435 -0.0059142075 -0.0074045253 0.0012299004
0003c0 98 fa 89 3b 6d 6c 3f 3b d6 96 1a bc ab 02 9a 3b
       0.0042107813 0.0029208914 -0.009435376 0.004700025
0003d0 8f 35 f0 3a 4a 8b 59 bc 02 8f d6 3b 66 ba ef 3b
       0.0018326509 -0.013277838 0.0065478096 0.0073159216
0003e0 06 61 9d 3b 41 8e ab 3b 9b 66 40 3c 7e e9 f0 3a
       0.004802826 0.005235464 0.011743213 0.0018380133
0003f0 30 6d 22 bb de 1b 9c 3a 86 db d6 ba 58 64 88 3b
       -0.002478432 0.001191016 -0.0016392327 0.0041623525

net_layers.1.linear_1.bias f4 [105]
000000 7b 66 9b bc a9 d2 c2 bc 11 c5 3d 3c 6d 40 69 3d
       -0.018969765 -0.023782091 0.011582629 0.056946207
000010 17 14 77 bd 3b 32 8d 3d 68 56 da bb 11 f4 c0 3c
       -0.060321894 0.06894346 -0.0066631325 0.02355388
000020 69 ed 99 bc 11 f3 ca 3c 53 c3 3b bd 78 0a 90 3d
       -0.018789964 0.024774106 -0.045840573 0.07033247
000030 55 60 3b bd 5e 38 03 3d 41 8f 7a 3b 43 2e 84 3d
       -0.045746166 0.032036178 0.0038232359 0.06454136
000040 46 7d dc bc eb 34 cf bc 17 8d 18 bd 5a 3f 16 3d
       -0.026915204 -0.025293788 -0.03724393 0.03668151
000050 72 5c ab bc a7 69 8d bd c1 26 90 3d 9c fd d8 3c
       -0.020918105 -0.06904917 0.07038642 0.026488118
000060 a2 a8 e4 3c 52 7d 59 3c 8a c1 6e 3c 44 89 61 3c
       0.027912442 0.013274508 0.0145725105 0.013765637
000070 d7 47 89 bd 83 e2 99 3d f5 54 00 3d 0d 60 96 3d
       -0.067031555 0.07513907 0.03133102 0.07342539
000080 7f 04 97 3d 44 ae b7 bc 20 01 53 3c e0 29 47 bd
       0.073739044 -0.022421964 0.012878686 -0.04862392
000090 f9 45 01 3d 70 18 7c bd 58 03 83 bc b9 ec a8 3a
       0.03156087 -0.061546743 -0.015992805 0.0012887932
0000a0 2d ab 2f 3d 17 8d 4c bd d2 a9 d8 bc a3 87 7c 3d
       0.042887855 -0.04993924 -0.026448164 0.06165279
0000b0 55 d7 7b bd 05 3c 85 3c 3f b1 74 bd 02 1f 15 3d
       -0.061484654 0.016263971 -0.059739348 0.036406524
0000c0 9e e6 34 3d b2 c8 7d 3d 69 fc 57 bd 84 e1 94 bd
       0.044165246 0.061958976 -0.05273095 -0.07269576
0000d0 83 e5 97 3d be 1e 90 3d 62 46 e5 bc 99 9f 97 3c
       0.07416823 0.070371136 -0.027987663 0.01850872
0000e0 13 8c 9a bc d9 23 b9 3d b4 25 62 bd 77 19 8a 3d
       -0.01886562 0.090400405 -0.055211738 0.06743138
0000f0 91 19 9d 3c f6 51 37 3c f4 58 98 bd 78 e1 5c bd
       0.01917723 0.011188975 -0.074388415 -0.05392596
000100 92 1c c1 3c 99 fe c6 bc e2 d3 1e bd 30 c9 90 bd
       0.023573194 -0.024291323 -0.038776286 -0.070696235
000110 51 ce 70 3b 5f ac 20 3d 67 18 a1 3d 46 07 a3 3d
       0.0036744068 0.039226886 0.078659825 0.07960372
000120 75 e3 a4 3d 3d a6 c8 3c c5 9e fb 3c 32 54 2f bd
       0.080511965 0.024493331 0.030715356 -0.042804904
000130 cd 4a 92 3c d7 6d 7a bd 90 eb ad bd 10 29 8f bd
       0.017857933 -0.061139908 -0.084921956 -0.06990254
000140 18 9c 36 bd e3 18 46 bd 33 7f 5b 3d bd 60 67 3c
       -0.044582456 -0.048363578 0.053588104 0.014122185
000150 a5 21 6b 3c c4 16 be bc 19 98 48 3d a6 2a c9 bc
       0.014351283 -0.023204215 0.048973177 -0.02455647
000160 30 ec 71 bd f9 d5 1b bb 83 dc 4a 3b df ce 75 bd
       -0.059063137 -0.002377866 0.003095419 -0.06001174
000170 cc 09 97 3d a6 b6 a5 3d 43 80 36 bd 8e 86 9c bc
       0.073749155 0.08091478 -0.044555914 -0.01910713
000180 ac 23 88 3c 73 4d 86 bd 47 6f 0c 3d 5e c2 b1 3b
       0.016618572 -0.06557741 0.03428581 0.0054247817
000190 76 ce 25 3d 0f 23 69 3b 2f c3 2a bd 77 23 29 bc
       0.0404801 0.0035573875 -0.041690048 -0.010323397
0001a0 ee 71 24 bd
       -0.040147714

net_layers.1.linear_2.weight f4 [105, 105]
000000 34 85 a7 ba ee 63 ae ba 39 3c a8 bb b2 f3 d9 3a
       -0.0012780786 -0.0013304928 -0.005134132 0.0016628413
000010 65 83 e9 ba 4a 81 49 3b a5 25 9b 3b fc 23 72 3b
       -0.0017815648 0.0030747228 0.004734712 0.0036947718
000020 41 9e e3 3b 7d f5 a2 3b 88 44 88 3b 9b 1a 05 3c
       0.0069463556 0.004973112 0.00415856 0.008124019
000030 10 c4 14 bb 6e 42 f1 bb e8 9a d3 ba 1c 83 61 ba
       -0.002269987 -0.0073626554 -0.0016144188 -0.00086026057
000040 ce 4e 4c bb bd 7b c3 bb d8 50 8d bb ca 5f 08 bc
       -0.00311749 -0.0059656785 -0.004312616 -0.008323619
000050 bf e7 29 3a 04 1c d0 3b 31 14 20 3b 87 4e b9 3b
       0.0006481371 0.006350996 0.0024426098 0.005655113
000060 d3 60 90 bb c4 89 13 bc 92 38 d2 ba ab c5 5c 3c
       -0.0044060736 -0.009005014 -0.0016038588 0.013474862
000070 83 e9 b8 3a b8 cc 52 bb f9 b8 65 bb 67 ab 93 3b
       0.0014107678 -0.003216548 -0.003505288 0.0045065167
000080 0c 20 96 3b bb 92 e5 3a da a2 14 3b 59 d3 f4 3a
       0.004581457 0.0017515043 0.0022680075 0.0018678709
000090 4e 5c 16 bb fe 07 0c 3b 74 91 5f 3b 89 9c e1 3a
       -0.0022943201 0.0021367068 0.0034113796 0.0017212789
0000a0 7c 60 18 bc 97 f6 51 bb 5a b0 8b 3b d4 1e 20 bb
       -0.009300347 -0.0032037848 0.004262966 -0.0024432437
0000b0 3b 97 81 3b ed a3 c8 3b 23 42 b8 ba 04 c2 64 ba
       0.0039547957 0.006123057 -0.0014057796 -0.00087264203
0000c0 1c c9 33 3b 2e e4 1b b9 8b 92 bb 3b 11 6f a3 bb
       0.0027433103 -0.00014866955 0.0057242564 -0.0049876054
0000d0 fa b4 a0 3b 94 98 10 bc 17 85 ae bb 07 06 ea bb
       0.0049043866 -0.00882544 -0.005325924 -0.007141832
0000e0 ea 41 26 39 18 c8 e6 3b fa 18 8b 3a 8b 85 a1 bb
       0.00015855549 0.007042896 0.0010612302 -0.0049292496
0000f0 d8 74 40 3b 9c b7 25 bc 73 0b 09 bc a4 0b 16 3b
       0.002936652 -0.010114577 -0.008364546 0.0022895122
000100 f3 d1 c4 bb cb 60 7c 3b 75 2a 07 3b a7 70 b6 3b
       -0.006006473 0.0038509842 0.0020624672 0.0055676284
000110 be 28 62 3b 9d 5e d6 3b 78 fc 1f bc 8b a1 62 bb
       0.0034509148 0.0065420405 -0.009764783 -0.003458115
000120 0e 4d 38 3a 46 a5 85 3b 72 35 a0 bb f3 f0 59 bb
       0.0007030525 0.00407854 -0.0048891837 -0.003325519
000130 dc 9b 71 bb d2 21 7b bb 46 8a db 39 10 c1 b0 3b
       -0.003686658 -0.003831972 0.00041873957 0.0053941086
000140 4a 9d a1 3a 04 78 03 bc 22 6d cd bb 65 56 9f 3b
       0.0012330201 -0.008024219 -0.006269113 0.004862594
000150 95 3f db bb ca 02 95 3b 1b b4 82 bb 11 8b 03 3b
       -0.006690929 0.0045474516 -0.0039887554 0.0020071904
000160 8d dd 85 3b 03 ca 35 bc e3 bf da ba c4 59 93 3b
       0.004085249 -0.011095527 -0.0016689267 0.004496785
000170 f1 b9 07 3b 6a c4 ef 3a 97 9f 83 ba a4 dc 35 bb
       0.0020710195 0.0018292789 -0.0010042068 -0.002774992
000180 e3 b9 2d bb 88 7f 3e 3c e1 c5 dc bb de dd 09 bc
       -0.0026508502 0.0116270855 -0.006737456 -0.008414714
000190 d7 5b 35 3b 82 f6 2c bc e7 98 83 ba 17 c0 d8 3a
       0.002767315 -0.010556819 -0.0010040075 0.001653674
0001a0 a3 5f 2b bc 42 6d 0f ba d9 c5 d1 bb 1f 1b fd ba
       -0.010459813 -0.0005471298 -0.006401759 -0.0019310451
0001b0 e7 de bf 3b 0a d7 7e 3b 9c 55 b5 bb 84 0c 85 bb
       0.0058554295 0.0038885497 -0.005533887 -0.00406033
0001c0 ad 22 1f 3b ec c0 5a bc c6 c9 5f 39 38 b4 1c bc
       0.0024282143 -0.01335166 0.00021342104 -0.009564452
0001d0 57 30 ea 3b 41 06 8f bb 01 37 93 3b 1e b4 02 3c
       0.007146876 -0.004364759 0.004492641 0.007977514
0001e0 32 d2 6b bb b1 4f e8 bb f9 42 ca 39 96 b3 b4 bb
       -0.003598344 -0.007089578 0.0003857834 -0.0055145724
0001f0 f4 84 0a 3b a6 72 cb bb c0 25 0a bb 52 ae e2 3a
       0.0021136375 -0.0062087355 -0.002107963 0.0017294383
000200 94 c3 1c bb eb 6b e5 b9 e1 53 02 3c 75 dc ad 3a
       -0.0023920285 -0.0004375869 0.007954569 0.0013264554
000210 48 28 9f 3b 07 be a3 37 b4 67 9f 3b 6d 30 d1 bb
       0.004857097 1.9519603e-05 0.0048646573 -0.0063839466
000220 20 f8 a1 3b ae 06 b0 ba 20 3e 1b bb 5e 16 d7 3b
       0.004942909 -0.0013429725 -0.0023688152 0.0065639457
000230 ea 37 d7 3a 05 a5 58 3a 6b cb 8b b9 f2 39 30 bc
       0.0016419862 0.0008264336 -0.00026663704 -0.010756003
000240 69 8f cf 3b 3f bc af 3a cc ac dd bb b7 a4 2c 3b
       0.0063342345 0.0013407542 -0.0067649838 0.0026343295
000250 82 f5 04 bc b2 b9 21 3b a3 c9 51 3b a3 c0 a3 3b
       -0.008115174 0.0024677333 0.0032011054 0.0049973293
000260 bd 58 97 3b fc df d4 3b 8b 14 e8 3a 72 84 18 3b
       0.0046187327 0.0064964276 0.0017706318 0.0023272303
000270 85 fb bb 36 39 d5 2a 3c 73 c1 df 3b 55 36 14 3b
       5.602315e-06 0.010426813 0.006828481 0.0022615392
000280 39 6b 05 bc 8d 2f 25 bb 39 33 24 3a 17 63 4c ba
       -0.00814324 -0.0025205344 0.0006263736 -0.0007796748
000290 6b 0c 51 3b f7 dc 2c 3c e5 16 97 3b cf bc 0d ba
       0.003189827 0.010550729 0.0046108835 -0.0005406858
0002a0 88 d4 2f bc 79 a9 9a ba c3 4b d3 b8 63 10 8e 3b
       -0.010731824 -0.0011799774 -0.00010075376 0.0043354495
0002b0 1c ec 45 3b 4a c7 82 bb 6f ae de 3b a0 fb 4b 3b
       0.0030200547 -0.0039910423 0.0067956964 0.0031125322
0002c0 59 4c 0e bb 92 03 17 bb 73 09 bb 3b 47 d7 92 3a
       -0.0021712987 -0.00230429 0.0057079135 0.0011203074
0002d0 e0 73 f2 b8 48 35 0c bb b3 b5 3f ba c9 cb c9 ba
       -0.000115610426 -0.0021394063 -0.0007313147 -0.0015395816
0002e0 75 66 1c bb 2a ca f4 bb e9 6f 5b bb 1a 76 1f ba
       -0.002386478 -0.007470389 -0.0033483452 -0.0006082967
0002f0 32 c2 16 3c 81 5f 65 3c 74 7d bd bb d0 9d 1c 3c
       0.009201573 0.013999821 -0.0057827774 0.00955911
000300 c6 57 89 b8 37 a3 44 3a 6a 89 c2 3b 85 96 0c bb
       -6.549018e-05 0.00075011275 0.005936791 -0.0021452021
000310 36 9c f7 3a ae cd 1f b9 7f 81 45 3b db 1f 4f bc
       0.0018891159 -0.00015240043 0.0030137 -0.012641872
000320 ec 17 d5 ba 02 21 a3 bb b8 f7 76 3a 23 e1 84 3a
       -0.001625774 -0.0049783 0.0009421068 0.0010137897
000330 36 45 1e 3c e4 e5 4c 3b 56 1d 5b bc 7e 51 1a ba
       0.009660056 0.0031264955 -0.013373693 -0.0005886777
000340 8a 57 a5 3b 4c ff 06 bc 74 fb 33 3c a0 cb 1f 3b
       0.005045836 -0.008239578 0.010985244 0.0024382845
000350 0e 07 71 bc 43 63 00 3b 09 25 93 3a d5 9e 51 3b
       -0.014711155 0.0019590415 0.0011226247 0.003198554
000360 74 e8 59 3c 62 a4 b8 3a ff 0a 2c 3c 4d 9b 3c 3a
       0.01330005 0.0014087076 0.010500669 0.00071947725
000370 92 f6 20 3b d3 e1 24 b9 3d 83 07 3c 8d 81 92 ba
       0.002456103 -0.00015724385 0.008271036 -0.0011177525
000380 33 04 c7 ba 1c 10 8b 3b f9 c9 6f 39 3e 94 e0 3b
       -0.0015183747 0.0042438637 0.00022868057 0.0068536093
000390 7a b3 9e bb 55 8a 00 bc 70 02 10 3a 71 46 ca bb
       -0.0048431726 -0.007845481 0.0005493527 -0.006172948
0003a0 a2 bd 8e 3b 6f 30 cd b9 26 b0 99 bb 5b fa fa bb
       0.004356102 -0.00039136733 -0.004690188 -0.007659239
0003b0 93 6c 04 bb 6d 73 45 bc d8 50 6f bb dc 79 cc bb
       -0.0020206317 -0.012051445 -0.0036516692 -0.0062401127
0003c0 e3 37 3c bc fd 9d 9b ba 46 1d 40 bc e2 3d ad 3a
       -0.011487934 -0.0011872646 -0.011725729 0.0013217295
0003d0 73 ec 29 bc b0 7c 16 3c fe ae 3e ba 1b 69 4b bb
       -0.010371315 0.009185001 -0.00072740007 -0.003103799
0003e0 66 44 ad bb 80 c1 ab 3b 54 c9 d1 3b 16 2e 29 3c
       -0.0052876947 0.005241573 0.006402174 0.010325929
0003f0 f9 ce c5 bb 90 03 c3 bb df d2 b6 b9 bb 27 9a 3b
       -0.006036636 -0.0059513524 -0.00034870856 0.0047044433

net_layers.1.linear_2.bias f4 [105]
000000 88 ea 48 3c 39 dc d5 bc 13 e8 67 bd 46 76 55 3d
       0.012262948 -0.026105987 -0.056617808 0.052114747
000010 f9 fc 73 3c f0 6b 57 3d fb f9 e9 3b 6e f2 18 3d
       0.014891856 0.05259317 0.0071403957 0.037340574
000020 5c 24 89 bd f4 6f 99 bd 79 d9 87 bd 80 b7 19 3d
       -0.06696388 -0.074920565 -0.066332765 0.037528515
000030 fc 1c 4c 3d 3c 5c d5 bc 59 6b c0 ba 6c 30 a9 3d
       0.04983233 -0.026044957 -0.001468043 0.08261189
000040 80 8d 79 3b 15 fe b5 3b ac 1c 39 bb ba 34 d7 3c
       0.0038078725 0.0055539706 -0.002824585 0.02627026
000050 a9 a3 99 3d 49 11 71 3d 81 32 1e bd 11 1b 2d 3d
       0.07501919 0.058854375 -0.038622383 0.04226214
000060 37 e1 0d 3b 29 03 5a bd 83 35 54 3d 85 32 03 bd
       0.002164913 -0.05322567 0.051808845 -0.0320306
000070 0f 15 6f bd b3 8f 7e bd 29 5e aa bd ca 33 45 bd
       -0.058369692 -0.06214876 -0.08318741 -0.048145093
000080 13 39 18 bc 55 e9 b9 bc 00 f9 d1 bc f1 8d 0a 39
       -0.009290951 -0.02269427 -0.025631428 0.00013213583
000090 46 13 c4 bc c3 a5 06 3d 6f 32 ac 3b c5 d1 71 bc
       -0.023934972 0.032872926 0.0052550356 -0.014759486
0000a0 b8 ab 87 3d 66 68 80 bd b1 fa 0a 3d 77 29 2d bd
       0.066245496 -0.062699124 0.033930484 -0.042275872
0000b0 ac 3d 5c bc cc 4d 31 3d d2 f5 d4 bc ad 02 a9 3c
       -0.013442438 0.043287084 -0.025996123 0.020631159
0000c0 e4 42 69 bc 79 8e 71 3d 3c 17 56 3d 69 ab 12 bd
       -0.014237139 0.058973763 0.05226825 -0.035808
0000d0 45 24 ae 3d 3d 39 2b 3d 8d 74 88 3d c7 7f 6f bd
       0.085030116 0.041802634 0.06662855 -0.058471467
0000e0 f8 c3 63 bd 11 c2 88 3d b9 42 cd bc 63 f3 9c 3d
       -0.055606812 0.0667764 -0.02505623 0.0766361
0000f0 32 5a 94 bd c3 d6 88 bd 91 6c 6b bd 67 81 cd bc
       -0.07243766 -0.066815875 -0.057476584 -0.025086118
000100 5b 1e 5a bd fd 61 2a 3d 4a 67 be bc dc 55 99 3b
       -0.053251605 0.041597355 -0.023242611 0.0046794247
000110 be d7 13 bd 6c 16 93 bd c6 19 09 3d 9c fb 4b 3d
       -0.03609442 -0.07182011 0.033471845 0.0498005
000120 6c 41 1a bd a5 8d 8e bd f4 b1 06 3d 8a 16 03 bc
       -0.037660047 -0.0696061 0.032884553 -0.008000979
000130 97 57 57 bd 3d b0 74 3c 97 9c ae 3b 34 ee 18 bd
       -0.052573767 0.014934597 0.0053287256 -0.037336543
000140 87 1b 0f bd 3b ad 89 3c c2 bf b1 3c c6 07 aa bd
       -0.03493836 0.016806236 0.021697883 -0.08302264
000150 70 22 89 3b b3 b3 ba bc 44 7d 8d 3d c0 b0 a4 bc
       0.0041850135 -0.022790765 0.06908658 -0.020103812
000160 6b 2b 4b bd c9 c4 ea bc d8 2c 33 3d 19 c7 2b bd
       -0.049601953 -0.028658288 0.04374394 -0.04193792
000170 19 2e 84 3c 6e ed 3f 3d 75 fb 90 bd da 27 5f bd
       0.016135262 0.04685729 -0.070792116 -0.054481365
000180 e2 64 46 bd 18 ee 31 bd f0 9b 13 3c 86 03 30 bd
       -0.048436053 -0.043439955 0.009009346 -0.04297211
000190 0b 77 41 3b 72 d9 39 bd 86 c2 6e 3d 96 97 2b 3d
       0.0029520418 -0.045373388 0.05829098 0.04189261
0001a0 bc 0d aa bc
       -0.020758502

net_layers.2.linear_1.weight f4 [105, 105]
000000 1f e6 67 bb 09 3e ed 3a e2 d2 12 bc 7c 29 34 3c
       -0.0035384966 0.0018100153 -0.008961411 0.010996219
000010 37 0c 5b ba d4 e9 23 bc c3 81 5d bb b6 1c 20 bb
       -0.0008356007 -0.010004479 -0.0033799268 -0.0024431176
000020 2e 6b 74 bb ec 0d 48 bb bd 80 2f 3c 3b 6a e6 3b
       -0.003729533 -0.0030525876 0.010711846 0.0070317066
000030 50 02 d3 bb 37 65 a0 3b 25 4e 53 ba de fc 6b 3b
       -0.0064394847 0.0048948782 -0.00080606557 0.0036008875
000040 91 1d d5 3b 62 32 1a bc b0 80 ba 37 af d8 40 bc
       0.0065037687 -0.009411426 2.2232853e-05 -0.011770411
000050 15 23 cd 3b c3 c7 3c 3c 39 99 9b bb 13 97 9d 3b
       0.0062602856 0.011522236 -0.00474849 0.004809269
000060 90 9c 71 3b 91 7e 94 ba 8d e9 19 ba 2a 92 9e bb
       0.0036867 -0.0011329224 -0.00058712886 -0.0048392015
000070 cc a2 68 bb 10 ec 6a bc 0f 1b 3e bc 6f 88 67 bb
       -0.0035497425 -0.014338508 -0.011603131 -0.0035329123
000080 c7 b4 15 3b cd a3 d4 3a ec 27 51 3c 3d 80 9c bb
       0.0022843347 0.0016223133 0.012765866 -0.0047760294
000090 70 78 91 3c a6 ac 0c bc bb 28 4f bb 79 2e e3 bb
       0.017757624 -0.0085860845 -0.003160997 -0.00693303
0000a0 72 e9 01 bb 95 8d 24 bc 19 31 77 3a a7 7e 06 3c
       -0.0019822982 -0.010043521 0.00094296184 0.008208907
0000b0 a6 8f bc 3b 5b e3 ab bb 48 02 33 3b 18 bb fb 3a
       0.005754429 -0.0052456087 0.0027314592 0.0019205539
0000c0 05 d9 36 3c c1 57 ff bb bf 0a 17 3c 4b f7 5d 3c
       0.01116014 -0.0077924435 0.009218871 0.013547729
0000d0 1b fe 07 bc 4c 1e a8 3b 7e f8 3b 3a 1b cf d4 3b
       -0.00830033 0.005130565 0.0007170512 0.0064944155
0000e0 cc 93 13 39 d5 d4 2c bc ab 06 1f bb 31 72 91 3b
       0.00014074071 -0.01054879 -0.002426545 0.0044386615
0000f0 4d bc 8e bb 16 9e 0f 3b 7c a8 09 ba d2 3c d1 3b
       -0.0043559433 0.0021914295 -0.00052512414 0.006385424
000100 e2 6a 6b bb 1e 1c 15 bb e9 70 b6 39 d9 08 c6 3a
       -0.0035921861 -0.0022752355 0.0003479787 0.0015108838
000110 23 13 3f bc 35 29 03 3c 3d e5 51 ba ed a0 23 3b
       -0.011662277 0.00800543 -0.00080068765 0.0024967745
000120 84 4f 09 3c e1 24 a4 3c 45 08 63 3c 77 c0 69 3a
       0.008380774 0.020037116 0.013856952 0.0008916924
000130 e4 2b 6d 3b 4e 5d 05 bc f7 ee f1 3b 1f 59 dd 3b
       0.003618949 -0.008139921 0.007383223 0.006755009
000140 a2 ab 41 bb b5 b4 8e ba cb 4b 40 3c 53 70 97 3b
       -0.0029551764 -0.0010887595 0.01173682 0.0046215444
000150 ae fb 85 3b ef a1 df 3a cd 4c 0c bc cc f9 32 3b
       0.0040888404 0.001706181 -0.008563233 0.0027309535
000160 d0 42 98 bb 08 42 ea 3a b4 7f e6 bb 07 04 2f 3c
       -0.0046466365 0.0017872462 -0.0070342664 0.010682113
000170 2a 03 9a bb 8a b5 a0 bb 56 d1 0b bc f9 4d 3d 3b
       -0.004700084 -0.0049044536 -0.008533796 0.0028885587
000180 34 4a ca 3a 89 80 08 3b 88 0c e6 bb e5 b0 a9 3b
       0.0015433491 0.0020828566 -0.007020537 0.005178558
000190 f2 5c 83 bb 06 34 2a 3c e9 65 39 bc 6f 5f b7 b9
       -0.0040088827 0.01038838 -0.011315801 -0.00034975584
0001a0 7f 42 12 3c c4 1f 12 3b eb b2 81 b9 2d 9e ac bb
       0.008926987 0.0022296766 -0.00024738102 -0.0052678795
0001b0 0c 90 8f 3b 44 f6 6f bb b2 3e 32 bb 3c d1 de bb
       0.0043811854 -0.0036615292 -0.0027198014 -0.006799845
0001c0 5a 52 5b 3a f2 b3 85 3b 05 c4 4d 3a 11 d8 aa bb
       0.00083664584 0.004080289 0.00078493386 -0.0052137454
0001d0 88 37 4e bb aa 5e 8b bb 8e 07 31 bc ca 3a 41 bb
       -0.0031466205 -0.004253228 -0.010805024 -0.0029484504
0001e0 2f 5a 85 bb 6f 7a 09 3b 4f 45 7c bb 07 2b 9b 3a
       -0.0040695886 0.0020977517 -0.003849346 0.0011838385
0001f0 1a 82 eb ba 1f 4d 8e bb 3a e8 3c 3c d2 7f 8a bb
       -0.001796785 -0.0043426896 0.0115299765 -0.004226663
000200 76 27 54 bb 1e 94 f0 b9 3c ba 5a 3b d4 da ef bb
       -0.0032372153 -0.00045886723 0.0033375164 -0.0073197875
000210 43 6d dc ba ad 3d cb 3b 4c 21 dd ba 3f ef 06 bc
       -0.001681723 0.0062024207 -0.0016870885 -0.008235752
000220 17 b3 b9 bb c0 a7 f2 ba 5c e8 f0 bb b3 d3 43 bc
       -0.005667101 -0.0018513128 -0.007351918 -0.0119523285
000230 c5 94 94 3a e0 3a 94 3b a5 d5 bb ba 74 cd 3f 3b
       0.0011335841 0.00452362 -0.0014330639 0.0029266747
000240 ee 0b 39 3b c1 02 70 ba ca 6f 8c b8 b7 6d 4d 3b
       0.002823587 -0.0009155684 -6.6965426e-05 0.0031345913
000250 e0 1c 9a bb 3b 16 66 bb fa 15 f6 3a cf da 82 3b
       -0.004703149 -0.0035108465 0.001877486 0.003993369
000260 16 d0 21 bc 93 a4 2d 3c 2e 95 32 bc 51 f8 b8 3b
       -0.009876272 0.01059832 -0.010899825 0.005644836
000270 cf 8f 04 ba c6 49 16 bb 08 e0 48 b9 ce b5 fa 3b
       -0.00050568295 -0.0022932156 -0.00019156944 0.0076510673
000280 62 e9 83 3b 13 c9 24 ba 7a d5 9c bb d3 01 2d 3c
       0.004025624 -0.0006286066 -0.0047861906 0.010559517
000290 8e 96 6f bb fc f7 b2 3b 1e 87 cd bb e9 3d 86 bb
       -0.0036558243 0.005461691 -0.0062722107 -0.0040967357
0002a0 4b a6 ff b9 9a 7d c2 bb f6 ff c7 bb 72 14 e6 3b
       -0.00048761288 -0.005935383 -0.006103511 0.0070214802
0002b0 62 ef 46 bb f0 d6 e5 3b 9b 4a e1 bb 40 b9 97 bb
       -0.0030355086 0.007014148 -0.0068753487 -0.004630238
0002c0 18 27 52 b8 fe 4e 1f bc b1 d8 9b bb 9c 25 54 3c
       -5.010431e-05 -0.009723423 -0.0047560562 0.01294842
0002d0 53 61 dc 3b 67 9d 80 b7 26 1e 68 bb 63 d7 d4 3b
       0.006725469 -1.5332085e-05 -0.003541836 0.0064954027
0002e0 58 fe bb bb e0 8c 93 ba 15 5d 03 bc 57 74 10 bb
       -0.0057371072 -0.0011257194 -0.008017798 -0.0022042
0002f0 93 62 97 bb 61 b6 b5 3a 46 ee 6f 3a 2e 43 02 bb
       -0.0046199053 0.0013863557 0.0009152632 -0.0019876468
000300 f1 fa 81 3b 42 e4 8c 39 8e dd 09 3a e3 8c 7e 3a
       0.003966682 0.00026872946 0.00052591495 0.0009710325
000310 45 33 f3 bb 5d 36 de 3b 58 c6 03 ba 2e 72 14 bc
       -0.0074218833 0.006781383 -0.0005026809 -0.009060426
000320 29 89 07 3c 9a 30 00 3c dd 3e 95 bb 15 2a a2 bb
       0.008272448 0.0078240875 -0.004554613 -0.004948864
000330 6f 35 d6 3a c8 60 05 3c 56 09 00 3b 78 bf 02 3b
       0.0016342829 0.00814075 0.0019536815 0.001995055
000340 b8 37 1a ba 00 e6 95 3b e9 27 5a bb 17 d5 14 bc
       -0.00058829365 0.0045745373 -0.0033287948 -0.009084008
000350 12 fd 3c bb 2c d8 82 ba 06 8a aa 3b 1a 17 69 3b
       -0.0028837365 -0.0009982637 0.005204442 0.0035566748
000360 0a a5 9f 3b 98 11 54 bb 87 36 23 3c d5 0b d2 3b
       0.004871969 -0.003235912 0.009961731 0.006410102
000370 34 58 14 bb 89 13 e5 bb f1 b1 2f 3c 4b bb a1 3b
       -0.002263558 -0.006990854 0.010723577 0.004935657
000380 3d cc 4a 3c c9 cc 0b bc 0c c7 19 bc a1 56 34 ba
       0.012377796 -0.008532711 -0.009385835 -0.0006879364
000390 58 77 b2 bb 53 8e 88 ba 95 dc cb ba af cd 17 3c
       -0.005446356 -0.0010418392 -0.001555341 0.009265347
0003a0 e4 ff 52 bb f1 95 53 bb 87 42 35 ba 04 0b ce ba
       -0.003219598 -0.0032285417 -0.00069145154 -0.0015719836
0003b0 6f 75 a1 bb c8 c3 0a 3c f5 e6 06 bc ab 68 30 3a
       -0.0049273293 0.008469529 -0.008233775 0.0006729464
0003c0 c0 76 58 3c 5b 17 32 3c 04 cb db 3b da 2d 48 3c
       0.013211906 0.010869826 0.006707551 0.012217963
0003d0 51 50 1a bb c5 84 31 3b 69 42 9f bc c4 9a 80 3b
       -0.0023546407 0.0027087193 -0.019440847 0.0039246995
0003e0 5b 79 2f bb f2 50 8b bc 7f 48 2d bc 32 77 de 3b
       -0.0026775214 -0.017006371 -0.010576366 0.0067891115
0003f0 51 6e 01 bc ee fc 2b 3c 3e 92 d6 3a 8b 26 5b bb
       -0.007899837 0.010497315 0.0016370488 -0.0033439721

net_layers.2.linear_1.bias f4 [105]
000000 5c 1d 97 3d d9 97 86 bd 00 fa ca 3c b4 38 ac bb
       0.07378647 -0.065719314 0.024777412 -0.005255783
000010 ae d6 9c bd 38 40 f1 bc fe b4 8a bc e8 3c 77 bd
       -0.076581344 -0.029449567 -0.016932007 -0.06036082
000020 33 bb bb ba 22 92 1f bc 57 7b ef 3c e8 54 84 3c
       -0.0014322757 -0.009739431 0.029233618 0.016153768
000030 c4 10 a1 3d bf 47 a0 3c 69 fc 3a bd 29 c5 2e bb
       0.07864526 0.019565461 -0.045650873 -0.002666781
000040 55 8f a7 3c 6d 40 1e bd 11 38 a9 3d 96 e6 61 bd
       0.020454088 -0.03863566 0.08262647 -0.055151545
000050 d9 25 4f bd 08 4f 9e bc 9c 61 28 bd e8 22 50 bd
       -0.050573204 -0.019324794 -0.041108713 -0.05081454
000060 35 dc 3e 3d ae 6c 57 3d b6 6e eb 3b 9e ba 31 bc
       0.046596725 0.05259388 0.0071848286 -0.010847716
000070 5c 8c 05 bd 57 95 27 bd dd 5e a0 bd 44 d4 98 3d
       -0.03260456 -0.040913906 -0.07830594 0.074623615
000080 c3 96 3d 3c dd 85 1f bd 7e c7 a2 bc 3f 20 57 bd
       0.011571589 -0.03894602 -0.019870516 -0.052520987
000090 b8 6f 5f 3c 58 0c 59 bd cb 13 56 3d 59 81 5b bd
       0.013637476 -0.052990288 0.05226497 -0.053590152
0000a0 59 df 20 bd 14 1a 5d bd 95 af 35 bd a9 00 28 3a
       -0.0392755 -0.05397995 -0.0443569 0.000640879
0000b0 eb bf 9f bd 69 db b9 3c a1 24 8b bd 07 80 9a 3d
       -0.07800277 0.02268763 -0.06794096 0.075439505
0000c0 b8 ea 7e 3c af 25 97 bd 0a c3 00 bd 6e 6e c4 bc
       0.015558891 -0.073802345 -0.031436004 -0.023978438
0000d0 7d cc 14 bd 40 24 d1 3c 0e cf 19 bd a6 f7 7a 3c
       -0.036327828 0.02552998 -0.03755098 0.015317833
0000e0 dd 2a 2c bb 38 66 8e bd cf 21 32 3c cc 61 49 3d
       -0.0026270666 -0.069530904 0.010872318 0.049165532
0000f0 8b 0c f6 bc 78 34 37 3d 07 ea 64 bd 95 cb 6d 3d
       -0.030035278 0.044727772 -0.05588725 0.05805548
000100 87 24 d7 3c 03 26 b1 3b 10 3b 7f 3d 66 58 31 bd
       0.026262535 0.0054061427 0.062312186 -0.043297194
000110 f1 45 43 3d 9d 56 27 bd 4d 86 1a 3d c3 74 57 3d
       0.047674123 -0.040854085 0.037725735 0.052601587
000120 59 3f 9c bb 54 ea 91 3d 2a 8a ab bd 81 03 82 bd
       -0.004768294 0.07124773 -0.08375962 -0.063483246
000130 0a fd 62 3d dc aa c0 bb a7 aa 5c bd 3c 3b 13 bd
       0.055417098 -0.005879743 -0.053873684 -0.035945162
000140 b5 c7 26 3d 0c ba 9f 3d 30 4c 8f 3d 9f ae 9a 3c
       0.0407178 0.077991575 0.069969535 0.018882094
000150 d9 04 2d bd 42 fa 99 bd a2 63 57 3d c1 96 a9 3c
       -0.04224095 -0.07518436 0.05258525 0.020701768
000160 af 25 a5 3d 03 bd 87 3c 48 71 82 3c 2a da 70 3c
       0.08063828 0.01656962 0.015923157 0.014700452
000170 57 7b 9f bd 72 41 65 3d 0d 0d 8d 3d dd e3 b8 3c
       -0.07787197 0.055970617 0.06887255 0.022569591
000180 5b 61 4f bd 91 cf b1 3b d4 e2 76 bd 94 ff 15 3d
       -0.050629955 0.005426355 -0.060274914 0.03662069
000190 b9 59 82 3d 57 ba eb bc c9 62 0c bd 04 b4 05 3c
       0.063647695 -0.028775377 -0.034273896 0.008160595
0001a0 a8 5e 76 3d
       0.060148865

net_layers.2.linear_2.weight f4 [105, 105]
000000 45 73 55 bb 2e 5e 32 3b 4b 25 c9 bb d8 90 be bb
       -0.0032569927 0.002721678 -0.006138479 -0.0058156066
000010 50 a6 16 bb 6a a3 40 3b 19 e1 8e ba b4 1b 46 3c
       -0.0022987314 0.0029394277 -0.0010900825 0.012091566
000020 b1 a6 eb 3b b2 25 3b 3c 0e 43 d2 3a ae a0 d9 ba
       0.007191502 0.0114225615 0.0016041712 -0.0016603672
000030 80 60 c8 3b ed 91 4a bb 12 f3 69 3b 5a 97 c6 bb
       0.0061150193 -0.0030909732 0.003569786 -0.006060523
000040 3b 91 d1 3b 0b 19 87 3b ff ad c9 bb 54 42 f4 3b
       0.0063954866 0.0041228584 -0.006154775 0.007454196
000050 fb e8 e4 3b 92 2c 62 3b 37 80 60 ba e2 5b 90 bb
       0.0069857812 0.003451143 -0.00085640274 -0.0044054845
000060 28 e3 96 ba 47 e9 25 bc 30 4c 03 ba b2 a0 46 3b
       -0.001151179 -0.010126418 -0.0005008606 0.0030308184
000070 33 5c 59 3b 13 7d fa 3b c9 f6 00 3c 79 dc c8 bb
       0.0033166527 0.0076443045 0.007871338 -0.006129798
000080 8c 79 e4 b8 a4 e5 1c 3c 3d 54 da 3b 86 41 86 3b
       -0.00010894527 0.009576235 0.006662874 0.0040971665
000090 d1 78 9c 3b 7d 79 ef ba 57 ae bc bb a3 b8 32 3c
       0.0047751446 -0.0018270459 -0.0057580876 0.010908279
0000a0 12 78 af 39 16 89 44 ba b2 13 7f 3b 55 d4 4c ba
       0.0003346806 -0.0007497234 0.0038921651 -0.00078136224
0000b0 40 bc e7 39 b3 78 3a 3a 27 84 a6 ba 3a b4 5a bb
       0.0004420001 0.00071133225 -0.0012704179 -0.0033371584
0000c0 ba ba 81 ba ae 51 8b 3b 07 60 75 bb 6b 92 a4 3b
       -0.0009897568 0.0042516803 -0.003744127 0.005022337
0000d0 ca e7 6f 3b bb 1a 14 3a 8e 9e 92 3b 8e a3 2b bb
       0.0036606663 0.0005649735 0.0044744676 -0.0026190015
0000e0 8a c1 ee ba 31 c5 13 3b 53 77 b2 ba 9c 5d ac 3a
       -0.0018215638 0.0022547955 -0.0013615884 0.0013150456
0000f0 81 a4 5f ba 30 7d 94 bb f3 62 01 3c 6c 7f a4 bb
       -0.0008531288 -0.004531525 0.0078971265 -0.0050200727
000100 de 22 6e bb 76 f1 fe 3b ec c1 86 3b cb c7 e2 bb
       -0.00363367 0.007780249 0.0041124728 -0.00692079
000110 d9 7b 9c 3b ac 54 e1 b9 ee 57 28 bc 9a 0e 2c bc
       0.004775506 -0.0004297843 -0.01027487 -0.010501528
000120 85 48 24 b8 63 f2 ab 3a 8d 11 d7 38 f4 d2 9b 3b
       -3.9168186e-05 0.0013118502 0.00010255268 0.004755372
000130 7a b5 6c 3a c2 42 09 3c 1d 92 c6 3b 59 17 b7 3b
       0.00090297277 0.008377733 0.0060598985 0.0055875
000140 27 d5 d0 3b 6c 69 07 bc 7b dc c5 bb bd de 98 3a
       0.006373066 -0.008264881 -0.006038246 0.0011663061
000150 46 b8 0e 3b 3e bd 0e bc d2 94 54 bb 85 74 93 3a
       0.0021777316 -0.008712111 -0.0032437337 0.0011249935
000160 53 03 b7 bb 6e 76 7c 39 dc 61 62 3c 72 1a a7 3b
       -0.005585113 0.00024076711 0.013817277 0.005099588
000170 16 a2 93 bb 03 e2 2e ba 86 7e 02 bc c0 ab a8 3b
       -0.004505406 -0.00066712516 -0.007964736 0.0051474273
000180 ea 9e bb bb 38 da c5 bb a3 61 e8 ba 7d b8 be 3b
       -0.005725731 -0.0060379766 -0.0017729293 0.0058203326
000190 74 b8 e8 bb 3e b5 ae 3b 5f 55 21 3c 0f 58 b8 ba
       -0.0071020667 0.0053316643 0.009847014 -0.001406433
0001a0 30 f0 33 3b 8e 1e eb bb 79 2c b8 3a cd 09 c2 bb
       0.0027456395 -0.0071752733 0.001405134 -0.0059215785
0001b0 31 40 1c b9 68 5f 8f 3b 39 0d 8a 39 9a f6 ee 3b
       -0.00014901232 0.004375387 0.00026331263 0.007292581
0001c0 4b 0c 6f 3b 67 8f d0 bb 2b 26 cd 3a 71 03 11 3c
       0.0036475833 -0.006364751 0.0015651634 0.008850918
0001d0 40 e1 b2 3b ff f3 ee ba 62 98 28 3c 61 ad 26 3b
       0.005458981 -0.0018230675 0.010290237 0.0025432932
0001e0 58 de df ba f0 69 a1 3a 39 c1 0a 3b 8f 18 e6 3b
       -0.0017079813 0.0012314897 0.0021172299 0.0070219706
0001f0 70 41 b3 bb a3 1b 1d 3c 30 f8 a0 bb db 9e 49 bb
       -0.0054704472 0.009589109 -0.0049123988 -0.0030764851
000200 d0 fd 84 3b 40 0a a3 3b 11 20 ef ba 92 4c 1e 3a
       0.004058577 0.004975587 -0.001824381 0.00060386315
000210 67 9a 9d 3b e4 71 d0 bb db 8c cf 3b fd 50 0e 3b
       0.004809666 -0.006361233 0.00633393 0.0021715753
000220 2a 7c 2f 3b 0a e2 07 3b f7 da 50 bb 56 1e 95 3b
       0.0026776888 0.0020734095 -0.0031868794 0.0045507355
000230 ac 76 6f 38 44 66 70 ba e2 f3 72 39 0a 7f 80 3b
       5.7092562e-05 -0.0009170512 0.00023169772 0.0039213942
000240 d9 df c6 bb f5 f9 fb 3b d7 13 d4 bb 4e 71 27 bc
       -0.006069165 0.0076897093 -0.0064720917 -0.010219885
000250 0c 24 a7 bb 66 9f eb bb 0b dd bf ba f8 65 4f 3b
       -0.0051007327 -0.0071906326 -0.001463802 0.0031646471
000260 5d b4 1a 3b 2a e6 ee 3b c6 7d fd 3b 37 c0 06 bc
       0.002360604 0.0072906213 0.0077359406 -0.0082245385
000270 ee b8 b4 3b 70 be 31 bb 14 42 f0 3a f2 82 9b 38
       0.0055152094 -0.0027121566 0.001833024 7.4153664e-05
000280 ee 2d b9 ba d3 9e f9 3a b6 24 23 3b de 5b 1d 3a
       -0.0014128068 0.0019044526 0.0024893708 0.0006002764
000290 2e e0 78 bb f8 df e9 bb 2d cc b8 3b 00 7a e3 ba
       -0.0037975418 -0.007137295 0.005639574 -0.0017355084
0002a0 1e 9c d0 bb 44 67 c5 3a 30 7e 04 3c f6 e2 f7 b9
       -0.006366267 0.0015060683 0.008086726 -0.0004728061
0002b0 b5 a1 72 bb 1f 7c 00 bc 82 73 07 bc 7c bd 8b bb
       -0.0037022654 -0.007842093 -0.008267285 -0.0042645317
0002c0 c4 39 d9 3a 04 54 a8 3a f9 28 81 3b e2 31 83 b8
       0.0016573002 0.0012842421 0.003941652 -6.255858e-05
0002d0 e8 e8 19 3b f5 25 fe bb 95 36 5c 3b 52 30 3a b9
       0.002348477 -0.0077559897 0.003360187 -0.00017756343
0002e0 c4 1f a5 bb b7 53 e1 bb 26 d0 1e bc 9d 81 0d 3b
       -0.005039187 -0.0068764347 -0.009693181 0.0021592148
0002f0 1f 60 1c 3b 3f 15 bb 3b d4 eb 93 bb 46 38 ea 3b
       0.0023861004 0.00570932 -0.004514197 0.0071478216
000300 66 0c 8e ba ff 9e 78 3a b1 ec 53 3b 98 76 f2 39
       -0.0010837435 0.00094841415 0.0032337124 0.00046246196
000310 f8 55 c6 ba 83 95 af 3b 3c cd d9 3b 8c 81 fe 3b
       -0.0015131822 0.0053583994 0.0066467803 0.007766908
000320 1b 9a 9f 3b 3b 55 b2 bb 82 ae 38 3c 27 65 c1 bb
       0.0048706657 -0.005442289 0.011272075 -0.005901951
000330 f6 79 1b 3b 1f 55 13 3c 78 96 6d bb 46 69 62 3a
       0.0023723817 0.008992462 -0.0036253016 0.0008636903
000340 98 91 05 3c f9 a7 95 bb e5 fc 11 3c 1a 4b 36 bb
       0.008152388 -0.004567143 0.008910392 -0.002781576
000350 c8 2c 72 3b 11 e7 82 bb 97 a1 51 bb bf 3a 90 bb
       0.0036952961 -0.0039948304 -0.0031987184 -0.0044015343
000360 17 94 30 3b 8b 31 cb 3a 1f 20 b5 bb f4 ad 4f bb
       0.0026943737 0.0015502436 -0.005527511 -0.0031689378
000370 87 3f fb bb 69 5f 2d 3b c7 66 95 bb 3e fd 95 3b
       -0.007667485 0.0026454574 -0.004559371 0.004577308
000380 b9 8d 4f 3b 31 c1 e5 3b f1 d8 3a 3a 4a 05 1d 3b
       0.0031670167 0.0070115556 0.00071276637 0.0023959451
000390 9f ff ed b9 4d 7f 7f 3a f7 d1 ae 3b f6 19 cb bb
       -0.00045394615 0.00097464473 0.0053350884 -0.006198163
0003a0 83 e4 27 3b 04 a1 ce bb d8 7e b2 3b c8 f4 15 3c
       0.0025618381 -0.0063058157 0.00544725 0.009152599
0003b0 17 32 ed ba 75 ca fb 3a ca e8 34 bc 38 f0 54 bc
       -0.0018096593 0.0019210117 -0.011041829 -0.012996726
0003c0 ad 3e dd ba 04 05 09 ba 15 d1 55 bb 21 3e 25 bc
       -0.0016879641 -0.00052268826 -0.0032625843 -0.0100856135
0003d0 b1 70 48 3b c3 b0 ae bb dd e0 8a 3b 7c 31 1c bc
       0.0030584747 -0.00533113 0.0042382316 -0.009533282
0003e0 7b 67 f7 3b a9 43 03 bc 11 21 16 bb 02 1c ac 3a
       0.0075501776 -0.008011737 -0.0022907893 0.0013130906
0003f0 3c d2 9b bb 28 d8 b3 3b d4 4a 35 bb 9d cf 69 3b
       -0.0047552865 0.0054884143 -0.002766301 0.0035676726
