thesis/may/week 9/models/pruned_siren_mean_113n.pth (torch, 630483 bytes, 27 tensors)

net_layers.0.linear.weight f4 [113, 3]
-0.29294866 -0.30381384 0.03820384 0.011693195 0.31361243 -0.16075619 -0.2666773 0.016969299
-0.31917086 -0.072149515 0.12814255 -0.2820707 0.26588184 -0.00034241797 0.15464582 0.05147733
0.22820534 0.023389298 0.005531759 0.063749954 -0.1717111 0.04031263 -0.023173817 -0.17581622
0.16319416 0.032490145 -0.01413952 0.3083731 0.12682153 -0.12547955 0.14363253 -0.056478057
0.10586844 0.2954143 0.04347873 0.019558527 0.22757141 0.24938379 -0.22479025 0.20785952
-0.010740495 -0.25604692 0.14973429 -0.23065683 0.23423387 0.28121936 0.17342123 -0.119224705
-0.17498066 0.20204227 0.25319698 0.22820432 0.13677661 -0.14214998 -0.021907218 -0.0804603
-0.17500779 0.15365379 -0.007249326 0.26467985 0.15050606 -0.3046459 -0.12227101 -0.08960385
0.31012428 0.02181144 -0.3150002 -0.04449759 0.10528233 -0.32153213 -0.2732895 -0.10714486
0.0003056114 0.114795126 -0.1450824 -0.2710385 -0.009705566 -0.0009564691 -0.31500763 -0.089246884
-0.06735416 0.009115681 0.03994159 -0.2581734 0.25575742 -0.11979898 0.2557229 0.05490446
0.32124737 0.17020832 -0.05946856 -0.08985411 -0.22301124 -0.15842353 -0.11809615 -0.09669615
0.24331063 0.13448542 0.24315837 0.30822548 -0.0961517 0.27023774 0.3042789 -0.092070706
0.16361439 -0.02013965 0.048121326 -0.3125416 0.28974757 0.23227832 -0.29797983 -0.10953099
-0.08801481 0.26882127 0.13444883 -0.05783596 0.17033415 -0.0151839685 -0.058387477 0.03906359
0.2713874 -0.2501352 0.0827442 -0.27788258 0.013579308 -0.071430154 -0.009596034 0.15144189
-0.19584452 0.16487099 0.13524823 0.14378007 -0.0036301552 -0.15721959 -0.0029852837 0.113158055
-0.08740781 0.11984381 0.1382979 0.20252295 -0.15431581 -0.30836132 0.2357011 -0.14443901
-0.09866038 0.28208897 -0.07731284 0.028928258 0.32303867 0.24328838 -0.120923065 0.10954881
0.25474915 -0.06902529 -0.29314682 0.02124071 -0.086771 0.081616476 0.13864814 -0.014639159
0.13454157 0.29487133 -0.15501991 0.0061350637 -0.22092439 0.24470529 -0.2605914 0.27785596
0.18033221 0.12391393 -0.10805964 0.18559478 -0.047364216 0.013988439 -0.24632291 0.23643082
0.0571745 -0.078695886 0.09539561 -0.20261428 -0.063638285 -0.15428625 0.26572365 -0.321528
-0.28576392 0.07517479 -0.23589937 -0.17343093 0.11431091 0.022616275 0.18437675 0.07636287
-0.10965561 -0.28749657 0.18733522 -0.073774934 0.17121851 0.14408527 0.286865 -1.329717e-05
0.0964285 0.19622432 0.13892671 -0.10546573 0.31770065 0.29432845 0.09321944 0.04407689
0.17823048 0.12507127 0.19485392 -0.25865728 -0.05480164 -0.12608775 0.32496464 0.19958152
-0.10993767 -0.23389858 0.03476191 0.24876437 0.16800894 0.2500814 0.1664754 0.24110867
-0.31140918 -0.09570661 0.029277429 -0.11756101 0.29425445 -0.24633966 0.3179278 -0.1039444
-0.18130806 0.16776656 0.044926018 0.30353093 0.047964476 0.054993745 0.06589001 -0.25688463
0.25074065 0.32350415 -0.1820131 -0.003086411 -0.13861716 0.065962926 0.09164285 -0.10711463
-0.09530741 0.15505812 -0.041693576 -0.15382332 -0.07086933 0.2273418 -0.08261731 -0.12492015
00000000: 5efd 95be 7d8d 9bbe a17b 1c3d d194 3f3c
00000010: cf91 a03e 459d 24be ed89 88be 3303 8b3c
00000020: 5d6a a3be 20c3 93bd cd37 033e 926b 90be
00000030: aa21 883e 9086 b3b9 795b 1e3e e5d9 523d
00000040: a9ae 693e ea9a bf3c c243 b53b 568f 823d
00000050: 09d5 2fbe db1e 253d 04d7 bdbc 2b09 34be
00000060: 5f1c 273e 6314 053d 72a9 67bc 14e3 9d3e
00000070: 81dd 013e b67d 00be 6814 133e 8955 67bd
00000080: 8dd1 d83d 8b40 973e c116 323d 3439 a03c
00000090: 7b08 693e 775e 7f3e 6a2f 66be 20d9 543e
000000a0: e7f8 2fbc 9518 83be f253 193e 4e31 6cbe
000000b0: 01db 6f3e fcfb 8f3e 5695 313e 152c f4bd
000000c0: 212e 33be 2be4 4e3e 09a3 813e 65ae 693e
000000d0: 2b0f 0c3e c48f 11be c476 b3bc 5fc8 a4bd
000000e0: 3e35 33be 6b57 1d3e c18b edbb 1e84 873e
000000f0: 431e 1a3e 8cfa 9bbe 3969 fabd 3982 b7bd
00000100: 9cc8 9e3e e8ad b23c b547 a1be 1b43 36bd
00000110: 439e d73d dc9f a4be 9aec 8bbe c46e dbbd
00000120: 783a a039 b519 eb3d 7b90 14be 8fc5 8abe
00000130: 1804 1fbc 8ebb 7aba ae48 a1be 12c7 b6bd
00000140: faf0 89bd f059 153c cb99 233d 4e2f 84be
00000150: a3f2 823e 2b59 f5bd 1dee 823e 80e3 603d
00000160: 897a a43e 174b 2e3e 4e95 73bd 6e05 b8bd
00000170: 0f5d 64be c739 22be 65dc f1bd a208 c6bd
00000180: 6c26 793e 8cb6 093e 82fe 783e bbcf 9d3e
00000190: 2feb c4bd 9a5c 8a3e 72ca 9b3e 918f bcbd
000001a0: 888a 273e e8fb a4bc de1a 453d 7405 a0be
000001b0: cb59 943e 5eda 6d3e d090 98be c951 e0bd
000001c0: 1c41 b4bd f1a2 893e f4ac 093e 66e5 6cbd
000001d0: 136c 2e3e 2ec6 78bc b527 6fbd 2501 203d
000001e0: 4af3 8a3e b911 80be cb75 a93d a046 8ebe
000001f0: bf7b 5e3c f949 92bd af38 1dbc 9513 1b3e
00000200: 778b 48be f1d3 283e 837e 0a3e 153b 133e
00000210: e6e7 6dbb 2cfe 20be c0a4 43bb 69bf e73d
00000220: de02 b3bd ac70 f53d f79d 0d3e 2d62 4f3e
00000230: f704 1ebe 89e1 9dbe a15b 713e d2e7 13be
00000240: 740e cabd f76d 903e 3256 9ebd f4fa ec3c
00000250: 5365 a53e 9720 793e 83a6 f7bd 205b e03d
00000260: 7b6e 823e 225d 8dbd 5717 96be ff00 ae3c
00000270: feb4 b1bd 8a26 a73d c7f9 0d3e 15d9 6fbc
00000280: 44c5 093e 60f9 963e 8abd 1ebe a508 c93b
00000290: 013a 62be 0694 7a3e 3c6c 85be 2343 8e3e
000002a0: 02a9 383e 96c6 fd3d 5f4e ddbd 8f0c 3e3e
000002b0: fb00 42bd c42f 653c 133c 7cbe ec1a 723e
000002c0: cf2f 6a3d 4f2b a1bd c65e c33d 1e7a 4fbe
000002d0: ca54 82bd 37fd 1dbe ee0c 883e 519f a4be
000002e0: a64f 92be 3ef5 993d 9b8f 71be e197 31be
000002f0: d71b ea3d c445 b93c 42cd 3c3e 2364 9c3d
00000300: 1f93 e0bd c032 93be ced4 3f3e 5017 97bd
00000310: e853 2f3e 178b 133e f8df 923e e916 5fb7
00000320: 4e7c c53d 07ef 483e ce42 0e3e 6bfe d7bd
00000330: a9a9 a23e 38b2 963e d5e9 be3d f889 343d
00000340: 0d82 363e af12 003e c987 473e ba6e 84be
00000350: af77 60bd 261d 01be c461 a63e 195f 4c3e
00000360: 0027 e1bd 1c83 6fbe 8162 0e3d 16bc 7e3e
00000370: 890a 2c3e ab0a 803e 8778 2a3e 31e5 763e
00000380: 0671 9fbe d401 c4bd 38d7 ef3c d4c3 f0bd
00000390: 85a8 963e 7740 7cbe 6fc7 a23e cde0 d4bd
000003a0: d2a8 39be ffca 2b3e 5804 383d 6868 9b3e
000003b0: 6676 443d 1f41 613d 57f1 863d 6286 83be
000003c0: 1461 803e 56a2 a53e a461 3abe 6245 4abb
000003d0: a8f1 0dbe 9217 873d 3faf bb3d ea5e dbbd
000003e0: 8830 c3bd 8ec7 1e3e e2c6 2abd dc83 1dbe
000003f0: f023 91bd 4acc 683e 4433 a9bd 23d6 ffbd

net_layers.0.linear.bias f4 [113]
0.38708007 7.9527796e-05 0.16506596 0.0074563543 0.19729881 0.5359725 -0.015514107 0.28487632
-0.37617978 -0.42300826 0.24932033 -0.3553153 -0.27734306 -0.3775808 -0.3204704 0.16879384
-0.17925137 0.015457464 0.20059194 -0.4712184 0.20694341 0.34395945 -0.37649703 -0.382446
0.41490918 0.2125565 -0.038476598 -0.5193167 -0.4856371 -0.30427068 0.16322087 -0.14304236
0.01115045 -0.30527225 -0.5609686 0.18611199 -0.44344747 0.30281994 0.47736067 0.0419478
-0.44903854 -0.0059919157 0.3146887 -0.3813829 -0.56401753 0.55938786 -0.18163198 -0.12624806
0.1515285 -0.47368914 0.37163118 0.23762034 -0.29246488 0.5042981 -0.33542874 0.5233119
0.5196865 -0.30254763 0.25721455 0.25235936 -0.119431354 -0.52963275 0.00642392 -0.1393664
-0.08954204 0.4241148 -0.5702468 -0.39285764 0.52525365 0.3146138 0.44643041 0.07760901
-0.3669842 -0.53024757 -0.07931927 0.27245536 0.41260225 -0.12766246 0.18711361 0.41858
-0.10318817 -0.3092985 0.4866353 0.3800559 -0.3099817 -0.39950657 0.40569326 -0.48738846
0.37613055 -0.5237011 0.27293772 0.05618586 -0.4935269 0.18313637 0.0033034768 -0.24312921
0.365961 -0.34877616 -0.23168582 -0.46880385 0.19857378 0.47659263 -0.14422534 -0.039678954
-0.529968 0.49559975 -0.5588629 0.3046255 -0.34714216 -0.4559539 -0.35948253 0.48027462
-0.42992342
00000000: 5c2f c63e 29c8 a638 0d07 293e 6f54 f43b
00000010: b308 4a3e 7e35 093f e22e 7ebc 4fdb 913e
00000020: a39a c0be 8a94 d8be d44d 7f3e e3eb b5be
00000030: e9ff 8dbe 4552 c1be b214 a4be 4bd8 2c3e
00000040: ac8d 37be 4e41 7d3c f967 4d3e 8a43 f1be
00000050: f9e8 533e 741b b03e 38c4 c0be f6cf c3be
00000060: fa6e d43e 69a8 593e a399 1dbd f0f1 04bf
00000070: 6da5 f8be 5ec9 9bbe 5f23 273e b279 12be
00000080: 61b0 363c a54c 9cbe a39b 0fbf 2494 3e3e
00000090: 8c0b e3be 370b 9b3e 9e68 f43e 75d1 2b3d
000000a0: 61e8 e5be d557 c4bb e11e a13e 9f44 c3be
000000b0: 7463 10bf 0b34 0f3f bcfd 39be 2c47 01be
000000c0: 492a 1b3e 6287 f2be 7146 be3e bf52 733e
000000d0: f5bd 95be ae19 013f 51bd abbe c5f7 053f
000000e0: 2d0a 053f 86e7 9abe a0b1 833e 3f35 813e
000000f0: 6d98 f4bd 0396 07bf bf7f d23b 11b6 0ebe
00000100: d161 b7bd 9325 d93e b2fb 11bf a324 c9be
00000110: 0677 063f 0f15 a13e 8792 e43e 79f1 9e3d
00000120: 5ae5 bbbe 4ebe 07bf 2472 a2bd 457f 8b3e
00000130: 9a40 d33e f3b9 02be b69a 3f3e 1e50 d63e
00000140: 5254 d3bd 5f5c 9ebe 4328 f93e b096 c23e
00000150: ecb5 9ebe 208c ccbe 07b7 cf3e fb8a f9be
00000160: 2f94 c03e 4611 06bf 7ebe 8b3e 2523 663d
00000170: 8faf fcbe 1a88 3b3e 257f 583b ddf6 78be
00000180: 3d5f bb3e ca92 b2be 0c3f 6dbe 0f07 f0be
00000190: ed56 4b3e f303 f43e cfaf 13be 6686 22bd
000001a0: fcab 07bf 40bf fd3e a411 0fbf e0f7 9b3e
000001b0: 9ebc b1be ca72 e9be 180e b8be 8ee6 f53e
000001c0: ec1e dcbe

net_layers.1.linear_1.weight f4 [113, 113]
-0.002359515 0.0035455907 0.0045686783 -0.0005419663 0.00052980013 0.003695118 0.003850493 -0.0066758073
0.00033388968 -0.002227815 -0.0023859509 0.00386548 -0.001801919 -0.005041762 -0.0047303624 0.0008087629
-0.0012471811 -0.0015076945 -0.0036123514 0.0022465705 0.0044862013 -0.0011096465 -0.0004988776 -0.0027853681
-0.0012961339 -0.0040153232 0.004445581 -0.004902116 0.0018686275 0.0031342667 0.009206548 0.009386184
0.00032844016 -0.0007172912 0.005889744 0.0009030062 -0.00064935064 0.001152099 0.0004947351 0.0036696116
0.0018156236 -0.004191906 -0.0035521658 -0.0009529388 -0.005203101 0.002022889 0.0028743127 -0.0030609432
-0.0040417137 -0.00013517775 -0.006083876 -0.0066170106 0.0034598461 -0.00024059895 0.0026377924 -0.0033959989
-0.008142203 0.0015807595 0.004011135 0.00873312 0.002817221 -0.00029424 -0.004541028 -0.006754776
0.001425785 0.0044553215 0.0026084152 -0.0001792732 0.0008363997 0.0018377987 -0.0065891338 0.0034837872
-0.0051213005 0.0022691477 -0.0032847028 -0.0030735794 -0.001959086 0.0030291425 0.0024194964 0.0051475004
0.002066948 -0.0032781933 0.0022278563 0.0019887087 -0.0042250585 -0.0050663636 -0.0016811703 0.0061655957
-0.005579918 0.0003094526 0.0008586654 -0.0073696226 -0.0016755058 -0.0039741197 -0.0032569603 -0.00470724
0.001351004 -0.008172877 0.0041903714 0.0019697493 -6.8850444e-05 -0.0010736907 0.0067664543 -0.005436103
0.0017865734 0.00050380983 0.0010705922 0.006758822 0.0026071446 0.0034268035 -0.0011054052 -0.00060898776
-0.0013321709 -0.0037210423 0.0018263896 -0.0057994714 0.0012417114 -0.00070666656 -0.0056815124 0.000118542215
-0.00325802 -0.0017854123 -0.0059309676 0.0060715824 -0.0037814386 -0.0010053068 -0.00043321945 -0.0028690493
0.00039224097 0.0022906975 -0.0032352405 0.0016221105 0.0016477164 0.0036706412 0.0036690908 -0.005242431
-0.0019092303 0.0026846349 0.0025990277 0.0028818885 -0.003383965 0.0004253525 -0.004306514 -0.000912438
0.0020827423 0.001105947 -0.004970835 0.00037322176 -0.00072652334 -0.00109332 -0.0022322293 0.0012051963
0.0006616259 -0.0017401383 -0.0074154227 -0.0008033331 0.00342001 0.007379066 -0.0044354247 -0.0026446246
-0.001144539 -0.0046123303 -0.00405795 -0.00033887452 0.0042051775 -0.00035389993 0.00055544515 -0.0022113097
-0.004367334 0.0017099038 -0.004603318 0.004793227 5.747661e-05 -0.0040304484 -0.0030831082 0.0026551187
-0.004262921 -0.0062751076 -0.0069925697 -0.004812212 -0.003218867 0.004015427 0.0015838792 -0.0021892097
-0.0003742767 0.0033551906 0.0009217654 -0.003913382 0.0051940507 -0.0030928964 0.004106481 0.0072815227
-0.0020499064 -0.0032985103 -0.0039726784 -0.0007740072 0.0005009539 -0.0021784469 0.0045555397 -0.0027430935
-0.0037156814 0.002438008 -0.0011902554 0.007423195 0.0037569168 -0.0015056574 0.0008719205 0.0005371365
0.0016066222 0.0036857422 -0.0030067144 0.0022522658 -0.008692884 0.007642115 -0.0040655476 0.006435523
-0.0037046631 -0.005068627 0.00031962004 -0.0019150771 0.005747698 0.0021400687 -0.00017316514 0.0031640227
0.0051312125 -0.00045385538 -0.0008434405 -0.004272813 -0.005291315 0.0033455847 4.056173e-06 0.005860535
-0.007832562 -0.00035540698 -0.0015606426 -0.0034596866 0.002997029 -0.0051363646 -0.0042618117 0.0029478215
0.0025954442 0.0040179943 0.0044026435 -0.006035143 0.00017263956 0.005234979 -0.001078003 -0.004395391
0.0029539168 -0.00023457796 0.0010838696 0.0020336332 -0.0045879153 -0.004684662 -0.0028592886 0.0009239001
00000000: 18a2 1abb 245d 683b dab4 953b be12 0eba
00000010: 49e2 0a3a cb29 723b 8e58 7c3b bbc0 dabb
00000020: ea0d af39 8900 12bb 9d5d 1cbb fe53 7d3b
00000030: 5e2e ecba 5d35 a5bb 2801 9bbb 2903 543a
00000040: 7478 a3ba d59d c5ba 33bd 6cbb 333b 133b
00000050: fc00 933b 8f71 91ba 1cc7 02ba b98a 36bb
00000060: 09e3 a9ba f992 83bb 3dac 913b eea1 a0bb
00000070: bcec f43a 4568 4d3b 10d7 163c 82c8 193c
00000080: 7e32 ac39 9908 3cba c1fe c03b b8b7 6c3a
00000090: 2f39 2aba 0702 973a 1cb1 013a de7d 703b
000000a0: 38fa ed3a 425c 89bb 74cb 68bb a4ce 79ba
000000b0: c67e aabb 7292 043b f75e 3c3b 1b9a 48bb
000000c0: 5a70 84bb 80be 0db9 405b c7bb 82d3 d8bb
000000d0: 96be 623b 4a49 7cb9 d0de 2c3b 688f 5ebb
000000e0: e066 05bc 7d31 cf3a d76f 833b 5c15 0f3c
000000f0: 20a1 383b 3944 9ab9 e7cc 94bb 2b57 ddbb
00000100: 68e1 ba3a f2fd 913b f2f1 2a3b 48fb 3bb9
00000110: d541 5b3a 4be2 f03a a9e9 d7bb 4050 643b
00000120: 95d0 a7bb fbb5 143b 2b44 57bb 1b6e 49bb
00000130: 0264 00bb 9484 463b 6a90 1e3b 5dac a83b
00000140: a275 073b f5d6 56bb 3a01 123b ff54 023b
00000150: 5c72 8abb bd03 a6bb b75a dcba c408 ca3b
00000160: bfd7 b6bb 063e a239 0f18 613a e07c f1bb
00000170: a59c dbba 5539 82bb ba72 55bb 313f 9abb
00000180: 2c14 b13a 88e7 05bc 624f 893b e916 013b
00000190: cd63 90b8 15bb 8cba 22b9 dd3b 5621 b2bb
000001a0: 752b ea3a 1b12 043a 1d53 8c3a 1c79 dd3b
000001b0: a1dc 2a3b 3994 603b 3ee3 90ba 7aa4 1fba
000001c0: 3d9c aeba bbdc 73bb 7763 ef3a 7e09 bebb
000001d0: ecc0 a23a 973f 39ba fb2b babb de99 f838
000001e0: 8184 55bb 7f04 eaba 9058 c2bb 20f4 c63b
000001f0: 03d2 77bb 80c4 83ba bb21 e3b9 a906 3cbb
00000200: b1a5 cd39 871f 163b 5406 54bb ff9c d43a
00000210: 30f8 d73a 248f 703b 2175 703b b3c8 abbb
00000220: 233f faba b3f0 2f3b 7354 2a3b 11de 3c3b
00000230: 83c5 5dbb d901 df39 a81d 8dbb ad30 6fba
00000240: 9e7e 083b 6cf5 903a 63e2 a2bb faac c339
00000250: 2874 3eba bb4d 8fba 984a 12bb adf7 9d3a
00000260: f670 2d3a 5a15 e4ba 13fd f2bb c696 52ba
00000270: 3f22 603b 18cc f13b 0a57 91bb 7051 2dbb
00000280: 5b04 96ba 0823 97bb 8df8 84bb f8aa b1b9
00000290: 96cb 893b a58b b9b9 4b9b 113a 9feb 10bb
000002a0: da1b 8fbb da1e e03a 6ed7 96bb 8110 9d3b
000002b0: 0a13 7138 da11 84bb f90d 4abb 8001 2e3b
000002c0: f9af 8bbb 6b9f cdbb ed21 e5bb c3af 9dbb
000002d0: a0f3 52bb d893 833b 2b9a cf3a d878 0fbb
000002e0: 913a c4b9 c2e2 5b3b a1a2 713a d43b 80bb
000002f0: db32 aa3b 31b2 4abb a98f 863b d799 ee3b
00000300: b957 06bb d22b 58bb 3e2d 82bb bee6 4aba
00000310: 7252 033a 46c4 0ebb a346 953b 79c5 33bb
00000320: ca82 73bb fdc6 1f3b 5802 9cba 463e f33b
00000330: 9b36 763b 7b59 c5ba 9891 643a 9fce 0c3a
00000340: 4c95 d23a 7e8c 713b 4c0c 45bb c09a 133b
00000350: 996c 0ebc b56a fa3b 4938 85bb 14e1 d23b
00000360: efc9 72bb ba16 a6bb ad92 a739 5303 fbba
00000370: 2f57 bc3b 6540 0c3b aa93 35b9 7e5b 4f3b
00000380: bb23 a83b 70f3 edb9 551a 5dba f402 8cbb
00000390: c462 adbb 9941 5b3b 431a 8836 bb09 c03b
000003a0: 2554 00bc eb55 bab9 7a8e ccba e9bb 62bb
000003b0: ce69 443b f34e a8bb aba6 8bbb 3d30 413b
000003c0: 5418 2a3b 61a9 833b 0d44 903b 73c2 c5bb
000003d0: 9406 3539 308a ab3b c74b 8dba 3607 90bb
000003e0: 8096 413b 0bf9 75b9 a110 8e3a b446 053b
000003f0: 3956 96bb cb81 99bb e762 3bbb e331 723a

net_layers.1.linear_1.bias f4 [113]
-0.04045065 -0.07071432 -0.022478413 0.042250857 -0.07288236 0.023946762 0.058943756 -0.045178838
0.060839165 0.038823154 0.075559385 0.0021095625 0.008597509 -0.009491138 0.054008108 0.0030837473
-0.046552643 -0.0476258 0.054063067 0.043528408 0.07318799 0.01703443 -0.037619065 -0.07859464
-0.024892885 0.01539283 -0.076663785 -0.0052488777 0.015583625 -0.00091450114 -0.0044443966 0.057720598
0.070941195 0.0791502 0.03427265 0.01566161 -0.080704615 0.010238717 0.05917531 0.049629312
-0.02951046 -0.04337884 -0.0140516255 0.0009750341 0.024719233 0.0038710374 0.06196738 0.02402583
-0.06448029 0.068064965 -0.06981444 0.016831841 -0.013716169 0.07666651 -0.0431113 0.025517767
0.0067529837 -0.081268184 0.009823602 0.06745726 0.047282528 -0.05171963 -0.03232346 -0.02807731
-0.018754384 -0.05621575 -0.003968307 0.07908879 -0.06120904 -0.0028661196 -0.02157469 -0.04983254
0.039905425 0.041335814 -0.075206295 -0.03585191 -0.03232112 0.0317093 0.027419852 -0.061392765
-0.06448066 0.07647536 0.07464418 -0.06405839 0.021079719 -0.07482496 -0.062019784 -0.037991453
0.03192931 -0.04360747 -0.045168467 0.007850036 -0.048061293 -0.025524668 -0.011452867 -0.069182016
0.009829241 0.07121776 -0.055600036 0.027263144 -0.03416213 -0.03151515 -0.023097279 0.011174446
-0.006783705 0.023170983 0.0056448453 -0.07637677 0.020765845 -0.0349197 -0.06540072 -0.017694168
0.06366906
00000000: 95af 25bd abd2 90bd a624 b8bc 3c0f 2d3d
00000010: 5943 95bd 002c c43c 026f 713d 720d 39bd
00000020: 7d32 793d 0705 1f3d e1be 9a3d 9640 0a3b
00000030: 91dc 0c3c b880 1bbc 9b37 5d3d b218 4a3b
00000040: fcad 3ebd 4513 43bd 3c71 5d3d d84a 323d
00000050: 96e3 953d ca8b 8b3c 7316 1abd 3af6 a0bd
00000060: 2aec cbbc 3532 7c3c e701 9dbd c7fe abbb
00000070: 7652 7f3c 22bb 6fba 4da2 91bb 6f6c 6c3d
00000080: 9e49 913d 8019 a23d 7a61 0c3d c74c 803c
00000090: 7648 a5bd 4bc0 273c cf61 723d 1b48 4b3d
000000a0: ecbf f1bc 03ae 31bd ca38 66bc 6e99 7f3a
000000b0: fd7f ca3c 3bb1 7d3b 82d1 7d3d d1d1 c43c
000000c0: 3e0e 84bd a565 8b3d e0fa 8ebd eee2 893c
000000d0: c8b9 60bc 5503 9d3d 7995 30bd a30a d13c
000000e0: 2248 dd3b ef6f a6bd 2cf3 203c 0827 8a3d
000000f0: 53ab 413d f6d7 53bd 9b65 04bd 6302 e6bc
00000100: cba2 99bc 7c42 66bd 9208 82bb 4ef9 a13d
00000110: 55b6 7abd 82d5 3bbb 67bd b0bc 351d 4cbd
00000120: df73 233d be4f 293d c205 9abd 74d9 12bd
00000130: 2763 04bd 9ce1 013d 999f e03c fb76 7bbd
00000140: 700e 84bd 1d9f 9c3d 0cdf 983d 0c31 83bd
00000150: 60af ac3c d43d 99bd 7508 7ebd ed9c 1bbd
00000160: 4fc8 023d bf9d 32bd 9202 39bd 709d 003c
00000170: ebdb 44bd 1c19 d1bc cea4 3bbc 4daf 8dbd
00000180: d30a 213c 9eda 913d ddbc 63bd f556 df3c
00000190: 97ed 0bbd 0816 01bd 8136 bdbc 0615 373c
000001a0: d849 debb 13d1 bd3c 65f8 b83b 6d6b 9cbd
000001b0: 221d aa3c f607 0fbd d0f0 85bd 5cf3 90bc
000001c0: ed64 823d

net_layers.1.linear_2.weight f4 [113, 113]
0.0031738703 0.00016453632 0.0009057864 0.0004921944 -0.0017302205 0.0035773455 -0.0010739615 0.006705839
-0.0019210735 -0.0036094596 0.0045981193 0.0017007294 0.0054635443 0.0055655995 -0.003400129 0.0031748572
-0.0046020993 0.0034903784 0.0050573647 0.0015892884 -0.0053077247 0.0062299124 0.0024286415 0.0046429695
-0.0045191664 0.0029290004 0.0029564993 -0.0008610316 0.0031484966 -0.005410375 -0.0049403384 -0.0015800138
-0.00737598 0.0016935326 0.0027291316 -0.0015542961 0.0019251489 0.0037892042 0.006229427 0.0028794229
-0.0051392666 0.00515345 0.0013631816 -0.003006818 -0.004385861 0.0054685464 -0.0044398657 -0.0019367125
0.0008599778 0.0011358856 -0.004221218 0.0007757618 -0.00015977291 0.005835599 0.0025794338 -0.007933403
-0.0029570637 -0.0013345308 0.005638244 0.006600623 0.0009483109 -0.006260093 0.005743376 0.0015972737
-0.0042148675 -0.0048031285 -0.0042747776 0.0010563331 -0.004034002 -0.0014320541 -0.00060306676 -0.0037338028
0.0039741723 0.0049950997 0.0038776046 -0.00046355004 0.0049668066 0.0048387805 0.0056907646 0.0055294307
0.00447708 -0.0005325163 -0.0005653587 0.0027844345 0.0018363929 -0.00599955 0.0036838914 0.0056137047
-0.0018908214 0.005529349 -0.00236627 -0.004461631 0.00047446034 -0.0047955583 9.234648e-05 0.0068458905
0.0018601513 -0.003661023 0.0047992696 -0.0027729757 -0.0033445312 0.00019822906 -0.005087857 -0.0014982506
0.005921993 -0.0030845283 0.001737776 0.0017925944 -0.0010961489 -0.0059297862 -0.0004780221 0.0025242234
-0.0037593837 -0.0014184373 -0.0010291468 -0.0004582535 -0.005114702 0.0010530008 -0.00499698 -0.0011494466
-0.0018426115 0.0028676179 -0.0025819335 -0.005283222 -0.00041626563 0.0047086114 0.00068400946 0.0006422822
0.0055406652 -0.0009743073 -0.0036268658 -0.005612862 -0.005641907 0.0035382416 0.006549987 -0.002902021
0.001620026 -0.003656055 -0.0060414206 0.0028477532 0.0034298617 0.0034747452 -0.0052144523 7.845619e-06
-0.006011302 0.0040386626 0.005733518 0.0017130869 -0.0045495466 -0.004100568 -0.00038824018 -0.0012498226
0.0024426081 -0.0022552547 -0.001188114 -0.0047361674 0.00094077544 0.00084260537 0.0073257065 -2.374675e-05
0.0023025617 0.0023908452 -0.0038405366 0.0042250156 -0.005128321 0.0032640141 0.0022365337 -0.0030463876
0.0015425717 0.0010326994 -0.0021723027 -0.00046699878 0.0049370187 -0.00161229 -0.0002430954 -0.0015506728
-0.004528104 -0.0039634686 0.006745863 0.0013871716 -0.00089247327 0.0040076897 -0.0035120044 0.0056571946
-0.0033154502 0.004204207 0.0035617435 0.0043963008 0.0019005599 -0.0003164637 0.00590366 -0.0037105225
-0.0043537375 -0.002135903 0.005258097 8.199283e-05 -0.00097481365 -0.0019969414 -0.006474157 -0.0028901116
0.0009188309 -0.0058625895 -0.0018216493 -0.005825815 0.000883902 0.0055988804 0.0021129479 0.0013799038
0.004215332 0.0026162611 0.0026946478 -0.0016933371 0.0026962042 -0.0046739564 -0.002529708 -0.005908308
-0.0008561748 -0.0028615452 0.001640543 0.002526055 -0.0013313281 0.0012555451 0.0016120621 0.00034607
-0.00048530693 0.0022589166 -0.0076043806 0.0033701684 0.0018791478 0.003283351 0.002349838 0.005261414
0.002792401 -0.0020498498 -0.004761668 0.004648559 -0.0005999112 0.00052691915 -0.004024488 0.0008104651
0.00017227435 -0.0018541137 -0.0016054795 -0.002883167 0.005847764 -0.001987039 -0.005003744 0.005138099
-0.002132542 0.0009914356 -0.007792854 -0.0025833321 -0.006037299 -0.0061282706 -0.0031804845 -0.006619262
00000000: b500 503b 6287 2c39 4c72 6d3a 9b06 013a
00000010: 91c8 e2ba e671 6a3b 2bc4 8cba a8bc db3b
00000020: 88cc fbba af8c 6cbb d2ab 963b 02eb de3a
00000030: 8807 b33b a25f b63b b3d4 5ebb 4411 503b
00000040: 35cd 96bb d5be 643b 40b8 a53b ab4f d03a
00000050: 6cec adbb 4b24 cc3b d829 1f3b 0d24 983b
00000060: 8415 94bb 79f4 3f3b d4c1 413b dab6 61ba
00000070: 0257 4e3b 8449 b1bb 90e2 a1bb 7718 cfba
00000080: 34b2 f1bb 86f9 dd3a 3bdb 323b 86b9 cbba
00000090: 4755 fc3a 4c54 783b 3920 cc3b b3b4 3c3b
000000a0: 4b67 a8bb 46de a83b c9ac b23a 090e 45bb
000000b0: 45b7 8fbb 7e31 b33b 4b7c 91bb 4ad9 fdba
000000c0: 2270 613a ffe1 943a 2552 8abb 7e5c 4b3a
000000d0: b788 27b9 8d38 bf3b b80b 293b 1bfb 01bc
000000e0: 4ccb 41bb 6ceb aeba 05c1 b83b 0a4a d83b
000000f0: 1198 783a 7721 cdbb ee32 bc3b 9d5b d13a
00000100: df1c 8abb 9063 9dbb 6f13 8cbb a874 8a3a
00000110: a92f 84bb c3b3 bbba 2017 1eba d1b2 74bb
00000120: c639 823b efad a33b 691f 7e3b a208 f3b9
00000130: 98c0 a23b a28e 9e3b 9879 ba3b 3a30 b53b
00000140: 78b4 923b 9098 0bba 9534 14ba 0f7b 363b
00000150: 1fb3 f03a e097 c4bb 716d 713b 2bf3 b73b
00000160: 70d5 f7ba 8b2f b53b 6c13 1bbb e032 92bb
00000170: fdc0 f839 0f24 9dbb 24aa c138 7e53 e03b
00000180: 52d0 f33a c6ed 6fbb 3143 9d3b d0ba 35bb
00000190: ec2f 5bbb b5db 4f39 0ab8 a6bb f360 c4ba
000001a0: 470d c23b cc25 4abb 16c6 e33a 7df5 ea3a
000001b0: a7ac 8fba a74e c2bb 0a9f fab9 716d 253b
000001c0: fe5f 76bb dcea b9ba 70e4 86ba be41 f0b9
000001d0: 3b99 a7bb d804 8a3a b5bd a3bb 07a9 96ba
000001e0: c883 f1ba a5ee 3b3b a835 29bb e11e adbb
000001f0: 3a3e dab9 b24a 9a3b 194f 333a d45e 283a
00000200: 788e b53b a868 7fba b6b0 6dbb 19ec b7bb
00000210: bfdf b8bb d8e1 673b 46a1 d63b d52f 3ebb
00000220: 0d57 d43a 6d9a 6fbb 1cf7 c5bb 5fa1 3a3b
00000230: 88c7 603b 8db8 633b ffdd aabb ada0 0337
00000240: 75fa c4bb c256 843b 3ce0 bb3b a889 e03a
00000250: 5d14 95bb 0f5e 86bb b78c cbb9 16d1 a3ba
00000260: 2a14 203b e5cc 13bb 7eba 9bba da31 9bbb
00000270: 5f9e 763a 4ae2 5c3a 7b0c f03b c233 c7b7
00000280: 93e6 163b baaf 1c3b 83b1 7bbb 0072 8a3b
00000290: 790b a8bb 12e9 553b cf92 123b e7a5 47bb
000002a0: 1e30 ca3a a45b 873a 315d 0ebb 84d7 f4b9
000002b0: b7c6 a13b 7a53 d3ba 6de7 7eb9 f23f cbba
000002c0: 7d60 94bb fcdf 81bb 660c dd3b c1d1 b53a
000002d0: def4 69ba f052 833b a829 66bb fd5f b93b
000002e0: 0648 59bb 72c3 893b 246c 693b d80e 903b
000002f0: 351c f93a 0aeb a5b9 7d73 c13b 3d2c 73bb
00000300: cca9 8ebb 82fa 0bbb 1d4c ac3b 91f3 ab38
00000310: a38a 7fba 1edf 02bb 2a25 d4bb 0768 3dbb
00000320: b3dd 703a f71a c0bb 68c4 eeba 7ae6 bebb
00000330: a9b5 673a d076 b73b 6279 0a3b e3dd b43a
00000340: c520 8a3b 9475 2b3b b098 303b f7f2 ddba
00000350: cdb2 303b fd27 99bb 75c9 25bb 7b9a c1bb
00000360: eb70 60ba c388 3bbb 7d07 d73a 2c8c 253b
00000370: f57f aeba 1a91 a43a d44b d33a bb70 b539
00000380: cb70 feb9 550a 143b 2b2e f9bb 0bde 5c3b
00000390: bd4d f63a 7d2d 573b bdff 193b f167 ac3b
000003a0: b700 373b c656 06bb c407 9cbb f052 983b
000003b0: 5c43 1dba f220 0a3a dadf 83bb 6475 543a
000003c0: 8ba4 3439 bb05 f3ba f46e d2ba 84f3 3cbb
000003d0: 9a9e bf3b fc38 02bb 72f6 a3bb 805d a83b
000003e0: 1ec2 0bbb 0ff3 813a 335b ffbb 1f4d 29bb
000003f0: 89d4 c5bb a9cf c8bb ad6f 50bb 65e6 d8bb

net_layers.1.linear_2.bias f4 [113]
-0.02883949 0.077114604 -0.067918636 -0.061927766 -0.024696266 -0.036041297 -0.0009851936 -0.076881826
-0.03687155 0.08114237 0.0710221 -0.06766739 -0.07162174 -0.024933757 0.0012584147 -0.063418396
-0.06872147 -0.069769196 -0.07439818 0.0692043 -0.019322224 -0.06941684 -0.01425635 -0.02758761
0.0075928555 0.07637784 0.018386217 0.06265998 0.023742009 -0.047034904 0.027995892 -0.07666196
0.0017028907 -0.02217908 0.06885374 0.016002528 -0.06514205 -0.05331929 0.041776147 0.07477341
0.018489277 0.08047157 0.05373823 0.011584445 0.008592022 -0.03273477 0.03138453 -0.0460286
0.055617962 0.06302185 0.04580062 -0.05286809 0.041196276 0.068825 -0.017767984 -0.06489256
-0.07318679 -0.016467288 0.063982174 -0.028972037 0.055739827 -0.044585314 -0.052792996 0.020564524
-0.05976951 -0.0009424068 0.028361114 0.02367131 -0.06735103 -0.042122457 0.08131375 -0.07517031
-0.04662659 0.06735273 -0.00434028 -0.07134476 0.06488492 -0.065396145 0.019569587 0.07318962
0.006830626 0.017345969 -0.02666594 -0.07230511 0.0005283732 -0.060537588 -0.04422032 0.02210576
-0.02774787 0.052558057 -0.040810507 -0.022487324 0.06588261 0.027275804 -0.049050447 -0.022316538
0.023210729 0.020646086 -0.059405018 -0.04555921 -0.057774894 -0.04329395 0.005637819 0.041956548
-0.0690495 -0.03423659 -0.023649987 0.04493915 0.026073622 -0.03489409 -0.0068854964 0.029870696
-0.035986196
00000000: cb40 ecbc 43ee 9d3d ed18 8bbd f8a7 7dbd
00000010: d34f cabc 0aa0 13bd 9d21 81ba 3874 9dbd
00000020: 9f06 17bd f92d a63d 0974 913d 3395 8abd
00000030: 6bae 92bd e141 ccbc 64f1 a43a 81e1 81bd
00000040: d8bd 8cbd 27e3 8ebd 135e 98bd fcba 8d3d
00000050: a449 9ebc 6b2a 8ebd 7793 69bc 69ff e1bc
00000060: 7dcd f83b fc6b 9c3d b19e 963c e053 803d
00000070: 9a7e c23c aca7 40bd a457 e53c f200 9dbd
00000080: 8833 df3a e7b0 b5bc 3103 8d3d bc17 833c
00000090: 3269 85bd 5465 5abd 771d 2b3d cd22 993d
000000a0: d376 973c 47ce a43d 9e1c 5c3d afcc 3d3c
000000b0: 8dc5 0c3c e514 06bd 118d 003d 7c88 3cbd
000000c0: a9cf 633d 9a11 813d 6e99 3b3d 368c 58bd
000000d0: 6dbd 283d 1ff4 8c3d 2a8e 91bc 64e6 84bd
000000e0: f5e2 95bd 68e6 86bc 1609 833d c456 edbc
000000f0: 724f 643d 179f 36bd 783d 58bd ef76 a83c
00000100: e0d0 74bd da0b 77ba 9155 e83c 56ea c13c
00000110: 56ef 89bd 9988 2cbd d387 a63d e4f2 99bd
00000120: 86fb 3ebd 3af0 893d e838 8ebb 341d 92bd
00000130: 63e2 843d 6aee 85bd 6650 a03c 71e4 953d
00000140: 72d3 df3b 2219 8e3c 8872 dabc b414 94bd
00000150: 8682 0a3a 43f6 77bd 5e20 35bd 2417 b53c
00000160: 804f e3bc 1e47 573d eb28 27bd 5637 b8bc
00000170: 76ed 863d 8271 df3c 1fe9 48bd 2cd1 b6bc
00000180: 6d24 be3c fb21 a93c ad52 73bd 4b9c 3abd
00000190: 5ea5 6cbd ff54 31bd 74bd b83b a1da 2b3d
000001a0: d369 8dbd ab3b 0cbd 9ebd c1bc 1d12 383d
000001b0: 5998 d53c 1bed 0ebd bb9f e1bb 64b3 f43c
000001c0: 4366 13bd

net_layers.2.linear_1.weight f4 [113, 113]
-0.002628831 0.004006464 0.0035779087 -0.003524201 -0.0036785458 0.00018625693 0.0024629838 -0.0068102027
-0.0068247095 -0.002528089 -0.0020711382 0.0041099046 -0.0065863426 0.0037140783 0.0050854054 -0.002351286
0.003757251 0.00063391635 -0.00047208837 -0.0017074628 0.0011036411 -0.0040148315 0.004515668 0.0020307922
-0.0027367896 0.0007070608 -0.0016492832 0.0007362132 -0.000646507 -0.0014963078 -0.0046307268 0.001628583
-0.00615582 0.00020716261 -0.0023173026 0.0055583394 -0.0038708881 -0.0036073788 0.005174838 -0.003872567
0.0056878384 0.0015813016 -0.0006189919 -0.002421287 -0.004535511 -0.0032054244 -0.0021518094 0.0023649489
0.0015729666 0.0069097616 -0.0007864427 0.0005551432 0.001488602 0.0018566278 0.0047907936 0.0024777805
0.0061262343 -0.005849311 -0.0023397189 -0.0003501257 0.0022434646 0.004449768 -0.0028198562 0.0010597527
0.0041499357 0.0013655256 0.0009976017 0.0029027977 -0.006229141 -0.0015732619 0.0016058257 -0.0043729628
0.007809413 -0.0033517024 -0.0015543152 0.00042522367 0.0016995488 -0.0017704421 -0.005235953 0.0032010968
-0.007160103 -0.0036893445 0.003741137 6.385098e-05 0.0031782284 0.0024973657 -0.0027916215 7.330833e-05
0.0030938883 -0.0050475807 -0.0023730963 0.006430822 0.0008327422 0.0017054548 -0.0032564427 9.596046e-05
1.417503e-05 0.004438077 -0.0003602568 0.0005758922 0.0019608755 -0.003907213 0.0027791094 -0.002470529
0.0013221544 0.0012266857 0.0015705933 -0.0027462523 -0.0044457032 -0.0029369034 -0.0065332246 -0.0011681006
-0.00033767062 0.0008242687 -0.0039649913 0.0060555656 0.0010105963 -0.0017811491 -0.0024994244 -0.00728425
0.0063816253 -0.0047011096 -0.00639803 0.0071364176 -0.002470746 -0.0041554198 0.006812793 -0.0022397386
0.001325987 0.0040275473 0.003912494 -0.0052548978 0.005485112 -0.0052328375 -0.0068984856 -0.004477973
-0.0037510882 0.0007808264 -0.0014115493 0.006610903 0.0022735014 0.0017423298 0.0031926448 -0.004524194
-0.0037385914 -0.0023204025 0.00015650157 -0.0005075616 0.0015085763 0.0024133353 -0.0008157167 0.0032285205
-0.007990842 -0.0054718056 -0.004633057 -0.0011659344 0.0074841883 -0.002131282 0.0063386513 -0.0046324427
0.0058096573 -0.00029936916 -0.0034842726 0.0036030444 -0.005178587 0.0061214273 -0.0015627284 0.0024377643
-0.001019573 0.0068104044 0.0043583224 0.00059268606 0.0023369754 0.004847848 -0.0011747015 -0.0027308348
-0.0010569883 0.007479985 0.003097018 0.0051070414 -0.005698091 0.00079289277 -0.0029924577 0.00400335
-0.00075304636 0.00052724103 0.0020170228 0.0040384997 0.005673485 -0.0076903934 -0.0073466753 0.0047768834
0.004137451 -0.0034378977 0.0029078496 -0.0020680106 0.004681669 -0.004712622 -0.0027910378 -0.0048196604
-0.005337697 -0.0054706 -0.0018769804 -0.0038522517 0.00072233926 0.0053242994 -0.00473799 0.0033699695
6.0784332e-05 0.0057893777 -0.0012348735 0.003444147 0.0007650928 0.009784943 -0.0013762504 0.0023456346
-0.004195506 -0.0017487452 0.0004288312 0.0052760295 0.0008874858 -0.0014839745 -0.0060364315 0.003958793
-0.0068056784 0.003228746 -0.0022036491 0.0059073446 0.00074445264 -0.0020004471 0.0017494668 -0.006120293
0.0040950556 -0.0006042726 -0.0075615505 0.004427515 -0.0023293905 -0.0075950124 0.0033518262 -0.0019371966
0.0038227949 -0.0046346625 0.0014794548 -0.0017236625 0.00047095132 0.00663686 -0.0002680933 0.000631367
-0.0002964624 -0.0035335475 -0.0039382954 0.004808853 0.0038004934 -0.0048825215 -0.0035549796 0.0017882249
00000000: 7748 2cbb a848 833b 597b 6a3b 48f6 66bb
00000010: c213 71bb f74d 4339 036a 213b 1f28 dfbb
00000020: d0a1 dfbb 4cae 25bb efbb 07bb 61ac 863b
00000030: 3fd2 d7bb e567 733b 79a3 a63b 0818 1abb
00000040: 363c 763b 682d 263a a182 f7b9 f2cc dfba
00000050: 0da8 903a d98e 83bb 2bf8 933b 0a17 053b
00000060: b65b 33bb 0c5a 393a c32c d8ba 6efe 403a
00000070: 5a7a 29ba c21f c4ba 5abd 97bb 2d76 d53a
00000080: c3b6 c9bb ca39 5939 e3dd 17bb bb22 b63b
00000090: baae 7dbb c669 6cbb b091 a93b e5ca 7dbb
000000a0: 0c61 ba3b ad43 cf3a d843 22ba 74ae 1ebb
000000b0: a09e 94bb 1912 52bb 5f05 0dbb 42fd 1a3b
000000c0: 002c ce3a 486b e23b 4729 4eba 0887 113a
000000d0: 321d c33a 175a f33a 17fc 9c3b 4262 223b
000000e0: 94be c83b 94ab bfbb f855 19bb 1391 b7b9
000000f0: 1707 133b 5ccf 913b 56cd 38bb 66e7 8a3a
00000100: 2ffc 873b 70fb b23a f5c1 823a dd3c 3e3b
00000110: d21d ccbb e935 ceba 927a d23a 124b 8fbb
00000120: 1be6 ff3b 3ca8 5bbb 2aba cbba 8ef0 de39
00000130: 65c3 de3a 2e0e e8ba 5b92 abbb 7ec9 513b
00000140: 4c9f eabb eec8 71bb dd2d 753b bce7 8538
00000150: d349 503b d8aa 233b a3f3 36bb 1cbd 9938
00000160: d5c2 4a3b 2d66 a5bb f385 1bbb a5b9 d23b
00000170: 624c 5a3a 9189 df3a 0b6a 55bb 613e c938
00000180: 4ad1 6d37 4a6d 913b d9e0 bcb9 79f7 163a
00000190: 0882 003b 1408 80bb b821 363b 99e8 21bb
000001a0: 244c ad3a bec8 a03a 5edc cd3a 78fa 33bb
000001b0: 43ad 91bb 1079 40bb a914 d6bb f41a 99ba
000001c0: 6209 b1b9 bc13 583a c2ec 81bb c46d c63b
000001d0: fc75 843a 7275 e9ba 62cd 23bb b8b0 eebb
000001e0: f41c d13b c40b 9abb 91a6 d1bb 9cd8 e93b
000001f0: 3dec 21bb 302a 88bb da3d df3b 94c8 12bb
00000200: becc ad3a 84f9 833b 6134 803b 4731 acbb
00000210: 74bc b33b 3978 abbb b10c e2bb f6bb 92bb
00000220: d1d4 75bb 5fb0 4c3a bc03 b9ba 46a0 d83b
00000230: 06ff 143b e35e e43a b13b 513b b13f 94bb
00000240: 2803 75bb e511 18bb 921a 2439 e20d 05ba
00000250: 6cbb c53a 0c29 1e3b d2d5 55ba 9695 533b
00000260: 05ec 02bc d54c b3bb e6d0 97bb 44d2 98ba
00000270: ec3d f53b faac 0bbb 76b4 cf3b bfcb 97bb
00000280: f05e be3b a6f4 9cb9 6558 64bb 0e21 6c3b
00000290: 23b1 a9bb 4196 c83b 77d4 ccba e6c2 1f3b
000002a0: 31a3 85ba d029 df3b 42d0 8e3b 7d5e 1b3a
000002b0: f127 193b b2da 9e3b 71f8 99ba cef7 32bb
000002c0: a48a 8aba a91a f53b 57f7 4a3b f858 a73b
000002d0: 0db7 babb 22da 4f3a 1c1d 44bb 892e 833b
000002e0: 1668 45ba 8c36 0a3a 0730 043b 6455 843b
000002f0: a4e8 b93b b2ff fbbb 61bc f0bb 6787 9c3b
00000300: 7493 873b 5a4e 61bb 9f91 3e3b 7687 07bb
00000310: b068 993b 576c 9abb d8e9 36bb 3eee 9dbb
00000320: d9e7 aebb b842 b3bb 0305 f6ba 0f76 7cbb
00000330: 5e5b 3d3a 7677 ae3b 2441 9bbb b5da 5c3b
00000340: aef2 7e38 d2b4 bd3b 7bdb a1ba 33b7 613b
00000350: 8290 483a 0751 203c 4d63 b4ba 38b9 193b
00000360: 757a 89bb 2736 e5ba c0d4 e039 8be2 ac3b
00000370: 2aa6 683a ec81 c2ba 42cd c5bb c3b8 813b
00000380: 2b02 dfbb 5e99 533b 196b 10bb 6692 c13b
00000390: 5f27 433a ef19 03bb 5d4e e53a bd8c c8bb
000003a0: d12f 863b 0c68 1eba e2c6 f7bb b014 913b
000003b0: b0a8 18bb 95df f8bb 50aa 5b3b 88e9 fdba
000003c0: db87 7a3b 5ede 97bb 44ea c13a 84ec e1ba
000003d0: 04ea f639 047a d93b e08e 8cb9 5282 253a
000003e0: 826e 9bb9 1793 67bb d10c 81bb 9593 9d3b
000003f0: b311 793b 8ffd 9fbb a9fa 68bb df62 ea3a

net_layers.2.linear_1.bias f4 [113]
0.06812587 0.043137014 -0.011653939 0.014971598 -0.05422586 0.05072725 0.009694101 -0.032786675
0.05868234 -0.06568399 0.05170929 0.07206749 -0.012394761 0.060962703 -0.026461521 0.06494724
-0.014278973 0.050433096 0.023436602 0.04204327 -0.012133913 0.046145294 0.0010103456 0.052928388
-0.019506538 -0.045486625 -0.0046558394 0.012236425 0.07037029 0.06342748 -0.07807425 0.03433035
-0.06863267 0.06524602 0.037755255 -0.04169535 -0.02994544 0.029973932 0.030327665 -0.033306845
0.02895736 0.035191037 -0.07694936 -0.025255203 -0.054415017 -0.052977845 -0.0062239524 0.025836114
0.030965405 -0.0002000891 -0.042618345 -0.07208109 -0.07847644 0.010973017 -0.0097175315 -0.048214715
-0.0090359915 0.048195787 0.03607461 0.077413626 0.06771497 0.05816135 0.051477995 0.018688593
0.02354386 0.06029562 -0.024543326 -0.046888888 0.049165282 -0.052654102 0.058045797 0.08112711
-0.07075622 0.039096367 0.04175645 0.07162233 -0.07584507 0.05654116 -0.070481785 -0.0045682047
0.040235132 0.04441275 -0.06860875 0.031195337 0.029120881 0.06884915 -0.07823933 -0.07780155
-0.07137092 -0.043173112 0.050916623 -0.059197363 -0.046322096 0.019643638 0.056812774 -0.058087926
-0.03836636 -0.025989596 0.0285125 0.030192602 -0.019761974 -0.006241734 0.073479846 -0.08122991
0.0028994577 -0.08054898 0.0011914851 -0.04867825 0.030448457 -0.031659007 -0.051855523 -0.005245199
-0.011197346
00000000: 9385 8b3d 70b0 303d 2af0 3ebc 6f4b 753c
00000010: ef1b 5ebd 60c7 4f3d 02d4 1e3c 524b 06bd
00000020: e55c 703d 5485 86bd 1fcd 533d 1f98 933d
00000030: 6513 4bbc 07b4 793d d5c5 d8bc 0f03 853d
00000040: 5bf2 69bc ef92 4e3d 1efe bf3c 9035 2c3d
00000050: 52cd 46bc d902 3d3d 936d 843a 70cb 583d
00000060: 2dcc 9fbc 2f50 3abd 0390 98bb 497b 483c
00000070: 4c1e 903d 44e6 813d 64e5 9fbd fb9d 0c3d
00000080: 498f 8cbd b59f 853d 41a5 1a3d bec8 2abd
00000090: 2450 f5bc e48b f53c b971 f83c c26c 08bd
000000a0: fc37 ed3c 7a24 103d a097 9dbd 00e4 cebc
000000b0: 48e2 5ebd 4cff 58bd 4cf2 cbbb 42a6 d33c
000000c0: 29ab fd3c 02cf 51b9 9390 2ebd 409f 93bd
000000d0: 41b8 a0bd 2bc8 333c 4836 1fbc cb7c 45bd
000000e0: b20b 14bc f268 453d f8c2 133d 098b 9e3d
000000f0: 25ae 8a3d 993a 6e3d 97da 523d d218 993c
00000100: 0edf c03c 8af8 763d 160f c9bc 900e 40bd
00000110: 8961 493d d4ab 57bd 6ec1 6d3d f825 a63d
00000120: a3e8 90bd 8323 203d d008 2b3d baae 923d
00000130: a954 9bbd b497 673d c158 90bd e1b0 95bb
00000140: 98cd 243d 25ea 353d bf82 8cbd 5d8d ff3c
00000150: ea8e ee3c c800 8d3d f13b a0bd 6b56 9fbd
00000160: eb2a 92bd 4ad6 30bd f38d 503d ef78 72bd
00000170: 3dbc 3dbd b2eb a03c 83b4 683d 9bed 6dbd
00000180: 0b26 1dbd 22e8 d4bc 0c93 e93c 7a56 f73c
00000190: dde3 a1bc 7687 ccbb 9a7c 963d de5b a6bd
000001a0: d404 3e3b ddf6 a4bd 9b2b 9c3a d862 47bd
000001b0: 0b6f f93c e0ac 01bd 7566 54bd ebdf abbb
000001c0: 1375 37bc

net_layers.2.linear_2.weight f4 [113, 113]
-0.0001306003 0.0026752392 -0.0056997053 -0.00783052 0.0044472683 -0.00081174093 0.0032141237 -0.0045218053
0.003046445 0.0011237274 -0.006113537 -0.0019544198 0.00036322823 0.00054466183 0.002541335 -0.0031027687
0.00528622 0.0014295866 0.004636426 -0.0036753053 0.0030246123 -0.004380168 -0.0073188916 -0.0017007948
0.0057084486 0.0045958594 -0.0041475035 -0.0005926705 0.00037298407 0.0051174527 -0.0017346523 -0.0018815574
0.0030772884 -0.001277594 0.0037509268 0.0034274727 0.0016367795 -0.002972867 0.0030220023 0.0035945848
0.004362222 -0.0049980534 -0.004458649 0.0010002326 0.006816503 -0.0054946267 -0.0041028373 0.005194189
-0.005294034 0.003913531 0.005669885 -0.0037273506 0.00026085303 -0.0021025655 0.0065867365 0.0050993515
0.0031500056 -0.0014056453 0.0040780255 0.0021756117 -0.0066624247 -0.004952089 0.005164561 0.0050846846
-0.0017264353 0.0010633339 0.0010728773 -0.0042703813 -0.0058207163 0.005601509 -0.005774929 -0.0031481108
0.0014608706 -0.0045738155 0.0059874807 0.0022782865 -0.0011972452 -0.00133059 0.0061624832 -0.0059044515
-0.0056218854 0.0022170036 0.00065063796 0.0071155755 -0.0009161558 0.0020087296 0.0036698307 -0.00022117943
-0.002633615 -0.004402694 0.0033758692 -1.4364863e-05 0.0019255464 0.0063449964 0.0044045127 0.0048924806
0.001745972 0.0075604985 -0.005261509 -0.0051397197 0.0032075949 0.0037266063 -0.007548299 -0.0071972236
-0.007020938 0.0021980125 -0.0018826165 -0.002729144 -0.00168438 -0.0054878546 -0.0006047951 -4.4546232e-05
-0.00068300415 -0.0015964597 -0.003281033 0.0043698777 -0.0066114697 -0.0028204522 0.0026985775 0.006686208
-0.00052209344 -0.0024704388 0.0056007667 0.003868164 0.0029043052 -0.004615672 -0.0054977466 -0.0051197056
0.000518377 0.0008364201 -0.0059007555 0.0018841932 0.0010650451 -0.0038222303 0.004146532 0.0022310796
-0.0034375717 -0.0016771054 0.005650109 0.003730196 -0.00449523 -0.0003237254 -0.0024146005 0.0020887486
0.0042637517 0.0036913478 -0.0056595523 -0.002585311 0.00079112436 -0.0048473636 0.002851071 -0.0031984705
0.001090364 0.0055987313 0.0030399545 0.0025072852 -0.005697709 -0.0001940114 0.0005783172 -0.002204676
-0.006542113 -0.0016300674 -0.0039041254 -0.0023650061 -0.0012615016 -0.0048387083 -0.003705405 -0.0036193146
-0.0012093394 -0.0018684723 -0.0032248567 0.007309207 -0.005671771 -9.414626e-05 -0.0055173114 -0.005477765
-0.0018900468 -0.00052434363 0.0021452163 0.00062294025 -0.0050180843 0.0029628973 -0.00385936 0.006746956
-0.0010798895 0.0065717762 -0.0020492377 0.0018253002 0.00015422462 -0.00037031696 0.0068445997 -0.004291864
0.005734247 0.0017607706 -0.0013292092 0.0049942154 0.00087181036 0.0058313906 -0.0007496298 0.0026551585
0.0064785522 -0.0051722387 -0.002233993 -0.005135719 0.0025590498 -0.0042421375 0.00024564643 -0.0021993627
0.0016757385 -0.0013737992 -0.0014585801 -0.0031472598 -0.003722069 0.0065935487 0.0044788015 -0.003853566
-0.0047708377 0.003288444 -0.0007686759 0.0025130461 0.0058546504 -0.0028586318 0.0022821063 -0.004972439
0.0002483598 -0.0014640315 -0.0029761186 -0.0020471278 0.0033971698 -0.00797968 0.0028285615 0.0023608555
-0.003961084 0.0029414834 0.0034228214 0.007586972 0.004455491 -0.003958823 0.0038053885 0.0029728832
1.6674083e-05 -0.005805384 0.0023133296 -0.0011837669 -0.00056625775 -0.0025457994 -0.0011596882 0.00033612107
-0.0037338969 -0.00056442793 0.0028409716 0.0019459752 -0.002515577 -0.0055813333 0.001103569 0.0028597144
00000000: c0f1 08b9 1153 2f3b 98c4 babb 954b 00bc
00000010: 64ba 913b 03cb 54ba 0ca4 523b a72b 94bb
00000020: dea6 473b 094a 933a 1154 c8bb b915 00bb
00000030: ab6f be39 a3c7 0e3a 878c 263b d257 4bbb
00000040: 0738 ad3b f760 bb3a 29ed 973b 64dd 70bb
00000050: 9338 463b 8387 8fbb 50d3 efbb 34ed deba
00000060: f00d bb3b dd98 963b c8e7 87bb 725d 1bba
00000070: 138d c339 4eb0 a73b 465d e3ba 979e f6ba
00000080: 55ac 493b f174 a7ba 1cd2 753b 739f 603b
00000090: 3589 d63a 6fd4 42bb c90c 463b 2093 6b3b
000000a0: f8f0 8e3b b6c6 a3bb dc19 92bb 3d1a 833a
000000b0: f95c df3b 450c b4bb 1871 86bb 0434 aa3b
000000c0: 9379 adbb 143d 803b 71ca b93b 9146 74bb
000000d0: 1ac3 8839 32cb 09bb 8dd5 d73b 7618 a73b
000000e0: 5370 4e3b a13d b8ba f5a0 853b b594 0e3b
000000f0: 7850 dabb 2245 a2bb 7a3b a93b 6d9d a63b
00000100: 8e49 e2ba 915f 8b3a ca9f 8c3a 8eee 8bbb
00000110: b5bb bebb dd8c b73b 9e3b bdbb 8950 4ebb
00000120: af7a bf3a f2df 95bb a132 c43b 4e4f 153b
00000130: e2ec 9cba 3167 aeba a8ee c93b 217a c1bb
00000140: cb37 b8bb 264b 113b 938f 2a3a c629 e93b
00000150: 2d2a 70ba e4a4 033b 8b81 703b 67ec 67b9
00000160: ba98 2cbb 7944 90bb b03d 5d3b 9e00 71b7
00000170: 9e62 fc3a b0e9 cf3b bb53 903b 1a51 a03b
00000180: 19d9 e43a 0fbe f73b bd68 acbb 186b a8bb
00000190: 8336 523b 143a 743b b957 f7bb b0d6 ebbb
000001a0: e60f e6bb 880c 103b 21c2 f6ba 70db 32bb
000001b0: 6ac6 dcba 76d3 b3bb 1d8b 1eba 27d7 3ab8
000001c0: a20b 33ba 4c40 d1ba 9906 57bb 3131 8f3b
000001d0: 07a5 d8bb 56d7 38bb 9eda 303b fa17 db3b
000001e0: 19dd 08ba 16e7 21bb a386 b73b 0681 7d3b
000001f0: 2856 3e3b 103f 97bb 7126 b4bb 34c3 a7bb
00000200: b1e3 073a 3443 5b3a 205b c1bb 08f7 f63a
00000210: fc98 8b3a 627e 7abb a2df 873b 4e37 123b
00000220: e248 61bb 52d2 dbba 8d24 b93b 4e76 743b
00000230: b94c 93bb b0b9 a9b9 463e 1ebb 63e3 083b
00000240: f1b6 8b3b 8aea 713b c473 b9bb 526e 29bb
00000250: 7563 4f3a a2d6 9ebb 09d9 3a3b 6e9d 51bb
00000260: 8bea 8e3a 9075 b73b f939 473b 4451 243b
00000270: d9b3 babb 8a6f 4bb9 369a 173a 537c 10bb
00000280: 395f d6bb fca7 d5ba 5bdc 7fbb 38fe 1abb
00000290: f858 a5ba 078e 9ebb 61d6 72bb 0632 6dbb
000002a0: b282 9eba 87e7 f4ba 1e58 53bb 1382 ef3b
000002b0: 43da b9bb 6370 c5b8 90ca b4bb d37e b3bb
000002c0: 72bb f7ba 1b74 09ba c296 0c3b d04c 233a
000002d0: be6e a4bb 2b2d 423b 51ed 7cbb 9215 dd3b
000002e0: 148b 8dba 0e58 d73b 814c 06bb e93e ef3a
000002f0: 5bb7 2139 1a27 c2b9 aa48 e03b c4a2 8cbb
00000300: 5ae6 bb3b a8c9 e63a dc38 aeba 84a6 a33b
00000310: 348a 643a 4015 bf3b ce82 44ba 2b02 2e3b
00000320: 094a d43b e27b a9bb 2f68 12bb 8949 a8bb
00000330: bbb5 273b a101 8bbb 1bca 8039 2f23 10bb
00000340: 74a4 db3a 0d11 b4ba d42d bfba 4242 4ebb
00000350: f5ed 73bb b20e d83b e9c2 923b 1c8c 7cbb
00000360: b054 9cbb ef82 573b f780 49ba ebb1 243b
00000370: 5ed8 bf3b e257 3bbb 648f 153b d7ef a2bb
00000380: 4a36 8239 bfe4 bfba fc0a 43bb 1b29 06bb
00000390: 0da3 5e3b 34bd 02bc 635f 393b 95b8 1a3b
000003a0: fbcb 81bb e7c5 403b 6a51 603b 229c f83b
000003b0: 5eff 913b 04b9 81bb d363 793b b4d4 423b
000003c0: 52df 8b37 173b bebb 3b9b 173b a028 9bba
000003d0: ea70 14ba 6dd7 26bb ae00 98ba 6839 b039
000003e0: 65b4 74bb 1ef6 13ba 982f 3a3b 1810 ff3a
000003f0: 61dc 24bb 9ee3 b6bb a2a5 903a 0c6a 3b3b

net_layers.2.linear_2.bias f4 [113]
0.0077418527 -0.07197554 -0.050896488 0.03922355 0.07934748 -0.041689057 0.00052071345 -0.013109953
0.0071712374 0.06485449 -0.03151481 -0.040883496 -0.012762563 0.0695424 0.04462432 -0.048812468
-0.056450367 -0.028714215 -0.076957285 0.003261947 -0.056149576 -0.014567641 0.07276837 0.012726115
-0.016468642 0.06275563 -0.034586966 -0.0011091884 -0.059942625 0.0027651966 0.0059742653 0.079310864
0.015592208 0.052822348 0.057379004 -0.05670911 -0.07907663 0.034224447 -0.028296672 -0.0159865
-0.008570795 -0.003940257 -0.062351022 -0.0012098983 -0.04404471 -0.0702555 -0.03652618 0.08170866
0.021730375 -0.03818111 0.046043854 -0.06323669 -0.027885102 -0.042708296 -0.012938888 0.053596463
0.001549646 -0.06602676 0.049596846 -0.03620366 0.06615664 0.068870574 0.080909625 0.033766717
-0.038575526 -0.04246512 -0.007707795 0.038151115 -0.033976186 0.02608075 0.06807255 -0.020470832
-0.033878457 -0.039828714 0.0032548907 0.054788306 0.008700602 -0.06586531 -0.022597626 -0.04483518
0.06801414 0.0752367 -0.025584975 0.07085893 0.040170394 0.06147629 -0.07276798 -0.06295133
0.050953 -0.016593663 0.040110502 -0.00042277304 0.048181158 -0.059860267 -0.05634388 0.07348485
0.0018127618 0.057307914 0.05717809 -0.0640814 0.015140968 -0.010531436 -0.060308345 0.06519222
-0.012520313 0.040106677 0.077816725 -0.051115688 -0.0036687125 0.03607705 -0.020100435 0.07334337
-0.023758193
00000000: 5eaf fd3b e967 93bd d678 50bd e0a8 203d
00000010: ee80 a23d 25c2 2abd 7d80 083a 21cb 56bc
00000020: b3fc ea3b 6ed2 843d ac15 01bd 7475 27bd
00000030: 121a 51bc 3f6c 8e3d fec7 363d 95ef 47bd
00000040: 8038 67bd 133a ebbc c89b 9dbd 64c6 553b
00000050: 19fd 65bd 1dad 6ebc 9507 953d 3281 503c
00000060: 3fe9 86bc 0686 803d 10ab 0dbd 3062 91ba
00000070: 6686 75bd 4d38 353b c5c3 c33b bc6d a23d
00000080: 7676 7f3c 3f5c 583d 3f06 6b3d d047 68bd
00000090: eef2 a1bd ef2e 0c3d 6cce e7bc 1ff6 82bc
000000a0: 856c 0cbc 451d 81bb c963 7fbd 7395 9eba
000000b0: 3a68 34bd 1ee2 8fbd 7a9c 15bd df56 a73d
000000c0: e603 b23c cc63 1cbd 7b98 3c3d 3d82 81bd
000000d0: 4c6f e4bc e5ee 2ebd a1fd 53bc f787 5b3d
000000e0: 7e1d cb3a 0a39 87bd 1026 4b3d 4a4a 14bd
000000f0: 227d 873d 040c 8d3d f2b3 a53d f84e 0a3d
00000100: 5f01 1ebd e8ef 2dbd ac91 fcbb 5844 1c3d
00000110: 9d2a 0bbd 4ca7 d53c 9f69 8b3d 72b2 a7bc
00000120: 23c4 0abd 6f23 23bd 0150 553b b469 603d
00000130: f88c 0e3c 64e4 86bd a81e b9bc 18a5 37bd
00000140: ff4a 8b3d b315 9a3d 9597 d1bc 7d1e 913d
00000150: b689 243d 90ce 7b3d 6107 95bd a0ec 80bd
00000160: 18b4 503d 6fef 87bc e94a 243d a3a7 ddb9
00000170: 9b59 453d 0a30 75bd d7c8 66bd 3a7f 963d
00000180: 319a ed3a b4bb 6a3d 9333 6a3d 1c3d 83bd
00000190: d311 783c 0b8c 2cbc e205 77bd 8083 853d
000001a0: 0022 4dbc e646 243d 605e 9f3d af5e 51bd
000001b0: c86e 70bb 87c5 133d aba9 a4bc 0c35 963d
000001c0: 8ba0 c2bc
