thesis/may/week 9/models/pruned_siren_std_113n.pth (torch, 630389 bytes, 27 tensors)

net_layers.0.linear.weight f4 [113, 3]
00000000: 835b 01bd 8f30 d3bd 2370 d5bd bb69 fbbd
00000010: 38d6 8bbe 1bca 773e fdcf afbc 1ecb d73d
00000020: 0541 74bd b48b cbbc ab64 97be 33cb 7bbe
00000030: 2d11 5bbe 0642 953e 6597 063e 0657 33be
00000040: 23cb bfbb 8905 92be 3e42 c63c 44ca 5fbe
00000050: ca23 273d de78 a5bd 3f3f 08be 1904 a4be
00000060: f60e 993e 84a2 a5be a7d2 963c f7d8 1fbe
00000070: b8ee 7f3e 6933 6abe 2e0b 16be 6dce 223e
00000080: b143 98be c717 91be 2f7b 6bbd 88ea 0cbd
00000090: 2fa9 723e 634b 663e f337 04be 9a10 1a3e
000000a0: 6a9e 083e f2b2 423e cdc5 ea3d 9e18 6cbd
000000b0: a5d8 f8bd 7b09 433d 81de bb3c a425 e1bd
000000c0: 2805 4ebe 97fe d63d e2ca b0bc bbcb 81bc
000000d0: 37c9 063e 133e 7fbd 5fb5 bbbd a79d 3abe
000000e0: c49f 97be bb2d 9ebe 41ea 56be 7c8b 933e
000000f0: cdac 113e 6710 be3c 5427 76be a00c 7cbe
00000100: 43a9 65be 94fb 683d 0894 6abe 6487 85be
00000110: 0a04 24be d967 a73e c5d9 063e 0da4 93bd
00000120: fedd 713e b6a8 683e fbb5 1a3e 8fe9 583e
00000130: 52ba e5bb 4b17 9dbd 6ab0 86be 0743 69be
00000140: 9900 28be 441e 6c3e 9434 543e df2d 20bd
00000150: e94b cbbd a545 81be 0055 97be c65a 9bbe
00000160: 221e 21be f6fa cabd e3f5 19be dfdf 98be
00000170: 22ec 863e 5d74 04bd 2b39 0b3e cdec 6a3e
00000180: f1b9 69bd 2015 49be 957b 6a3e db29 833d
00000190: 5778 823e 12eb a3be f68a 0c3e 354d b33d
000001a0: 3577 493e 1637 6ebe 4d6b a4be d8e9 ce3d
000001b0: 13da a5be 11e2 8bbe 8f1b b4bd 1569 1a3e
000001c0: 837e c1bd 8a86 6cbe a3d1 e5bd 557b bb3c
000001d0: 8301 7cbc ba0d 183e 828b 9a3d 78dc 5c3e
000001e0: 81e4 1a3e 6ccc 7bbe 4b76 25be 7d97 fd39
000001f0: 8044 28be 59fd 98be c574 62be eaf1 a73c
00000200: c5e0 f7bd 6260 34be 07e6 9abe f90c 6cbe
00000210: 4c74 53be e4ee bc3d 1a22 ddbb 110a 293d
00000220: 57f2 26bd 889d 15be 12dc 09be d1fc ebbd
00000230: 2b44 95be 349b 66be 6290 cd3d 4242 123e
00000240: 75c3 83be 8dfe 163e ad27 a9bd 47b3 a63e
00000250: 7d20 82be 1bf2 a5be 4105 f23d bd5a e0bd
00000260: 91f3 853d ac19 98be c317 aebd a420 243e
00000270: fc15 40be 5be3 5d3e 9480 52be 678f 2dbe
00000280: fcbc 753c 9610 67be 6035 943e 7e62 123e
00000290: 7b8c 18be 44dd 04be 2255 34be 0cbf a4bd
000002a0: 37ab a2be 25b9 073e dabc d23d 3e4b 9fba
000002b0: b052 21be ca22 473e c65e 233e 9c33 a6bd
000002c0: 3003 e93d 0618 94be af32 94be d52d 963e
000002d0: 70be 1bbe 3c48 7ebe fde6 813e 6074 e3bd
000002e0: 326a dd3d d465 3a3e 9354 883d 5906 91be
000002f0: 57bf 5b3e 0d73 723e da64 4cbe ffb1 883e
00000300: 52f5 a7bd aae0 993e 96b3 9abe 5244 433e
00000310: 1f98 9c3e 3567 99be 70a2 4f3e cf14 34be
00000320: 7d5b d93d 4d48 90bd 5437 5abe fd1b 873d
00000330: f1c7 593d 074f e23d b923 64be 5c52 023e
00000340: 1b0a b83d 918d 3fbe 8115 263e 2777 663d
00000350: dfcb 693e a7ea 3a3e 7b40 013d d7d9 9fbe
00000360: b6f2 423e 27fa 833e 34e6 293e f205 893e
00000370: 6a51 52be 97ba 1bbe fd1e a3be b225 273e
00000380: 5d72 a33e 1ebe 363d 7023 d3bd 29eb a23e
00000390: e220 97bc 5f99 8dbe 180c adbd 8bc0 8fbe
000003a0: 98d0 eabd 9007 853e c096 88be 3a8f 9cbd
000003b0: 677d 05be 688d acbd 930a d4bc 1f84 593d
000003c0: 9a2a 53bd 94cd 6e3e 389f a0bc 3c88 8dbe
000003d0: c979 d23d 6133 3f3e d44a 36be 0bb1 983e
000003e0: cd1a 7bbe 9da1 553e 6c96 98bd bdb7 9ebe
000003f0: 79bf ff3d 590f 31bd 3c09 11be 50e2 c3bc
-0.031581413 -0.10311996 -0.10421779 -0.12276026 -0.27311873 0.24198191 -0.021461481 0.105367884
-0.05963232 -0.02484689 -0.2956899 -0.24589233 -0.21393271 0.29151934 0.1314369 -0.17513666
-0.005853073 -0.28519848 0.024201509 -0.21854502 0.040805615 -0.08079694 -0.13305376 -0.32034376
0.29894227 -0.32350552 0.018410994 -0.1561011 0.24993408 -0.22871174 -0.14652702 0.15899058
-0.29739144 -0.28338453 -0.057490524 -0.034403354 0.23697351 0.22489695 -0.12911968 0.15045395
0.1334168 0.19013575 0.11463509 -0.057640664 -0.12150697 0.047616463 0.022933247 -0.109935075
-0.20119154 0.10497778 -0.021581117 -0.015844217 0.13162695 -0.062315058 -0.09165453 -0.18224202
-0.2961408 -0.30894265 -0.20987798 0.28817356 0.14226075 0.02320118 -0.2403844 -0.24614191
-0.2242785 0.05688055 -0.22908032 -0.26079857 -0.16017166 0.32696417 0.1316901 -0.072090246
0.2361984 0.22720608 0.15108483 0.21182846 -0.0070107365 -0.076704584 -0.26306468 -0.22779475
-0.16406478 0.2305842 0.20723182 -0.039106246 -0.09926588 -0.25248447 -0.29557037 -0.30342692
-0.15734151 -0.09911148 -0.15035205 -0.298583 0.2635203 -0.032337535 0.13596027 0.22941895
-0.057062093 -0.19636965 0.22898705 0.06404468 0.25482437 -0.32015282 0.13724884 0.087549604
0.1967438 -0.23263201 -0.32113114 0.10103196 -0.3239294 -0.27320912 -0.08794319 0.15079148
-0.09447958 -0.23098198 -0.11221626 0.022885958 -0.01538122 0.14848986 0.0754614 0.21568477
0.1512623 -0.245897 -0.16158406 0.00048368788 -0.1643238 -0.2988079 -0.22114857 0.020501096
-0.12103418 -0.17614892 -0.30253622 -0.23051824 -0.20649832 0.09225252 -0.00674845 0.041269366
-0.040758457 -0.14610875 -0.13462856 -0.1152283 -0.2915357 -0.22520143 0.100373045 0.14283088
-0.2573506 0.14745541 -0.08259521 0.32558653 -0.25415412 -0.32411274 0.11817408 -0.10954807
0.06540597 -0.29707086 -0.08500626 0.16028076 -0.18758386 0.2166876 -0.20556861 -0.16949235
0.014998671 -0.22564921 0.28946972 0.14295384 -0.14897339 -0.12975031 -0.176106 -0.08044252
-0.31771252 0.13254221 0.10289927 -0.0012153161 -0.15754199 0.19446865 0.15954122 -0.081153125
0.11377561 -0.28924578 -0.2894492 0.29331842 -0.15209365 -0.24832243 0.25371543 -0.11106181
0.10811271 0.18202907 0.06656756 -0.28325155 0.21459709 0.23676701 -0.19960347 0.266983
-0.08201088 0.30054218 -0.30215138 0.19069031 0.3058481 -0.29961553 0.20276809 -0.17586063
0.10613153 -0.0704504 -0.21310169 0.06597135 0.053169195 0.110502295 -0.22279252 0.1272673
0.089863025 -0.18706347 0.1621914 0.056265976 0.22831677 0.18253575 0.031555634 -0.31220886
0.190379 0.2577679 0.16591722 0.26762348 -0.2053887 -0.15207897 -0.3185958 0.16322973
0.3192319 0.044614904 -0.103094935 0.31820038 -0.018448297 -0.27656075 -0.08449572 -0.28076586
-0.11465567 0.25982332 -0.26677513 -0.07644506 -0.13036118 -0.084254086 -0.025883948 0.053104516
-0.0515543 0.2332061 -0.019607171 -0.27643 0.10277135 0.18671943 -0.17801982 0.29822573
-0.24521942 0.20862432 -0.07450566 -0.30999556 0.124876924 -0.043227527 -0.14163679 -0.023911625

net_layers.0.linear.bias f4 [113]
00000000: ab57 f43e c0f8 b43e 18f0 6bbe dc51 36bb
00000010: 11f4 05bc 15ff 76be 9147 01be f349 64be
00000020: fbd8 473e a983 053f 8249 e13e 3c75 f23e
00000030: 4e83 343e a259 d7be 7a5b 5bbd b9bd b8be
00000040: ecae f93e 1e32 483e 7228 b53d b19e 30be
00000050: 0bfe 093f 72ed e33e 9a52 d9be 89d2 913e
00000060: bc41 29be 2baa 8ebe 1cd9 94be db89 523e
00000070: 2613 10bf 0075 13be 70ee a83d 65a6 cc3e
00000080: fb19 a9be 43f6 08bf 9bf0 293e 652e 0d3e
00000090: af96 66be 7f0e ff3e 6e3f c03e 6c1b ccbd
000000a0: 66d1 53be 4e1c 073e 88af 883e 9f5c 023f
000000b0: 150b a0be dd34 9bbe f0d2 8d3e 94d4 3b3e
000000c0: 6165 803d 42bb 03be b933 03bf 44a3 883e
000000d0: 8b84 a63d 30e3 823d e0c5 b13d 493b b2bc
000000e0: 7a3a 023f 1b38 0c3f dcba 513e 4f89 b3be
000000f0: 7704 fc3e 8e3e 9c3e 0386 5d3e 7ae6 56be
00000100: 8af7 0f3f 879b b13e 5cde 0bbf a639 e73d
00000110: bc27 9a3e 3e5d 09bf b6cc 01bf 9705 f0be
00000120: 63c2 7fbe 319f 903e bbd5 0f3f 8451 063e
00000130: 1848 243e 66a2 08be 4c69 bd3e 4b89 28be
00000140: dd81 f1be d614 00be 2b91 cf3e d6c4 df3d
00000150: 4575 7e3e 99f3 85bd e71a 973e 90a1 4a3e
00000160: 8dc9 f1be 8f06 ce3d d7c4 afbe 71f6 4c3e
00000170: a1f3 e7bd 95b5 b53d e029 44be 2e16 15be
00000180: ad85 22be a66a 943e 47b0 313e 9d32 4d3e
00000190: a492 0e3f eee0 cabc 2f01 203e 9cc3 53be
000001a0: 4a0c ad3e cef9 283e 062d 893e f07b fa3e
000001b0: 51bb 9f3e 0874 d4bd 7fda 4d3c f361 9fbe
000001c0: e8a7 f7be
0.47723135 0.3534603 -0.23040807 -0.0027819788 -0.008175866 -0.24120744 -0.12624957 -0.22293834
0.19516365 0.5215402 0.44001395 0.47355068 0.17628214 -0.42060572 -0.053554036 -0.36082247
0.48766267 0.19550368 0.08845605 -0.17248036 0.53903264 0.44517094 -0.42445832 0.28480938
-0.16528982 -0.27864203 -0.2907189 0.205604 -0.5627922 -0.144001 0.08248603 0.399707
-0.33027634 -0.53500766 0.1659569 0.1378723 -0.22518419 0.49815747 0.37548393 -0.09966168
-0.20685348 0.13194391 0.2669642 0.5092258 -0.31258455 -0.3031377 0.27699995 0.18342811
0.062693365 -0.12864402 -0.512508 0.26687062 0.08130749 0.06390989 0.0868032 -0.021756785
0.5087048 0.5477311 0.20481437 -0.35065696 0.49222156 0.30516475 0.21633153 -0.20986357
0.5623709 0.3468897 -0.5463617 0.112902924 0.3010844 -0.536579 -0.5070299 -0.46879265
-0.24976496 0.28246453 0.561855 0.13117033 0.16043127 -0.133432 0.36994398 -0.16458623
-0.4716939 -0.12507948 0.40540442 0.10926215 0.24849422 -0.06540603 0.29512712 0.19788194
-0.47224084 0.10059845 -0.34329864 0.20015885 -0.113257654 0.08872525 -0.19156599 -0.14559242
-0.15871306 0.28987616 0.173524 0.20038839 0.55692506 -0.024765458 0.15625452 -0.20680088
0.33798438 0.16501543 0.26792163 0.48922682 0.311976 -0.10373694 0.012564301 -0.31129417
-0.4837029

net_layers.1.linear_1.weight f4 [113, 113]
00000000: e93d ac3b 55f8 acbb 8b44 883b 1142 a0bb
00000010: 7f0b 023b d2e1 7eba 3ed3 913b a960 40bc
00000020: ae04 6bba 4ea3 bfbb d0a3 043b 07c2 423b
00000030: 1597 b23b c134 6b3a 675a 58bb 8d0b 253a
00000040: 90bf 26bb 5c75 453a d25a 0d3b b7ce 95bb
00000050: f9c2 2a3c db3a 003c c182 1c3c 428b 0e3b
00000060: 1a3f fabb 1370 163c e7ed c1bb 207e 9dbb
00000070: 2df3 f9bb 1650 eaba 3fff 5fbb b68b 22ba
00000080: fc97 83bb 8aa3 d43a 0308 d1bb a9f3 9d3b
00000090: 3f09 013b 061c c93b 51bc a0ba 50a5 1f3c
000000a0: cb7f 25bc 8673 86bb 5a16 05bc 4cfe c23b
000000b0: d513 46bb 6068 08bc e525 933b 305d cbba
000000c0: 0601 153c 08a9 103c aa88 143c 3f3a a5b8
000000d0: 76fe b3bb a18a 90ba 7be1 153c 8d68 37bc
000000e0: 7af8 7dbb 777e c53b 76d9 d93a 4feb 893b
000000f0: 6c7c c23a 8c1f cdba c6d4 59bb c691 213c
00000100: 5f08 fbba 26b7 d5bb 097e 903b bf9d a6bb
00000110: 0368 e03b 563a dabb 15a7 123c 890b 01bc
00000120: b500 f23b 386e f939 5674 9fbb 0328 b23b
00000130: 4bce e93b a3ca 773b 3275 003c 2ec4 073c
00000140: 2f61 11bb 8591 843a cf4f 29bb b515 d6ba
00000150: 3360 503c 7caf f93b ccf1 3ebb 34c0 f13a
00000160: 113b b4ba 5108 cebb c976 9c3a 0bbc 2f3b
00000170: 7e55 74bb d25d cb3b a313 0b37 b77f 893b
00000180: 0368 06bc a17c 28bc 80c2 1f3c 2b44 ebbb
00000190: 45ab 44bc 6728 103b 8c93 0f3c cc39 dabb
000001a0: e3c6 073c 535b 583c f0fa 863b 1c28 3b3c
000001b0: a7bf 0ebc 2e2e 563a 8733 a6bb 412a a6bb
000001c0: cb51 e23b ba1f 32bb e213 c53b f56f 813b
000001d0: 7729 6c3a ac38 2a3c cc4e 0136 8931 c0bb
000001e0: 78f7 cc3b 8947 65bb 69bc 60bb 104b 4dbb
000001f0: d76d 653b 3627 72bb 1fcf 95bb 8ae9 26bc
00000200: 4647 883b 2974 b73a 6869 42bb 7156 bbbb
00000210: d6a7 d4ba 5e49 8b3c 1278 89bb 32e1 23bc
00000220: cb4c c63b 8a73 9fbb 8a83 293c a792 d13a
00000230: ac38 ef3a 9696 1e3c 2580 f0ba 7499 863b
00000240: 92b2 4b3b 10b3 a5bb f23d af3a 1ff1 dabb
00000250: 0b16 d03a d6cc 03bc 86fb 153b bf97 413b
00000260: af53 2b3c b908 bf3b 6928 68bc a748 f93b
00000270: 0477 10bc fa9a ebbb e56b abbb f8df 283b
00000280: f2f8 893b 44cc 02ba 6ee4 d33b 8702 0fbc
00000290: 9548 223b 54e8 be3a 5b4b b2b9 aa05 09bc
000002a0: e4da 3c3b 47a5 8338 d84f b9bb 77a0 5a3b
000002b0: 9f74 d9bb a0af 0e3b 338b cc3b b864 e73b
000002c0: 6d8d e039 f5d1 0a3c fe52 f13a 2edf a8bb
000002d0: 1322 c4bb e5fd 413c 1f8c 8cbb 0234 103c
000002e0: 48f8 eb39 88df 0cbc 233b 0abc 6a61 4abb
000002f0: aa26 a33b 9fe8 00bb c86e 26bb 0b0f f6bb
00000300: e4f0 343c 4c1d 663b 949c 463c 8a89 20bc
00000310: 9dcb 22bb e875 3b3c af71 263b 5900 49bc
00000320: d821 d03a 2888 32bc 6f39 07bb cc32 bbbb
00000330: 7fe7 95bb fc94 ea39 7c07 00bc 62d6 cebb
00000340: 1c6c 02bb f99e b4bb 186b cb3a 4ad1 863b
00000350: cfe6 623b b011 23bb bdba 003c 1de1 59bc
00000360: d93e 13bb f5d6 9f3b 38bf b2ba 8de1 8b3a
00000370: c841 483b cd20 0b3b 1689 ccbb 1f56 38bc
00000380: 7778 483b cb00 393b a4d4 203b 2332 883b
00000390: 9d5a ffba 7316 133c 723b eb3b 7454 343b
000003a0: b397 a73a c195 6cbb b001 24bb 6ecf a2b9
000003b0: 9f73 3a3b 9426 fcba 0076 d3bb 49c7 79b9
000003c0: 17c7 f9ba 97bf 8ebb efbd b13a 9747 9c3a
000003d0: bead 233b a31d 013c 69c3 10bb 53ac 103a
000003e0: b0ec 66b9 d835 043c a26d 8839 3bd7 0ebb
000003f0: 991e 33bb 8423 a03b 8f93 b3bb 92c8 8837
0.0052564037 -0.005278627 0.0041585616 -0.004890688 0.0019843278 -0.0009722981 0.004450231 -0.011741796
-0.0008965236 -0.005848325 0.0020239241 0.00297177 0.0054501393 0.00089723995 -0.0033012868 0.00062959717
-0.002544377 0.00075324415 0.0021569026 -0.0045717615 0.010422462 0.007826532 0.009552659 0.0021750485
-0.007636917 0.009181994 -0.0059182527 -0.004806295 -0.0076278658 -0.0017876651 -0.0034179238 -0.0006200628
-0.0040159207 0.0016223055 -0.006379129 0.0048203063 0.001968935 0.006137374 -0.0012263154 0.009744003
-0.010101269 -0.004103127 -0.008123005 0.0059507247 -0.0030224223 -0.008325666 0.0044906014 -0.0015515443
0.009094482 0.008829363 0.009065786 -7.878662e-05 -0.0054929806 -0.0011027643 0.009147997 -0.01119436
-0.003875284 0.0060270387 0.0016620595 0.004208959 0.0014838106 -0.001564966 -0.0033238395 0.009861415
-0.0019152275 -0.006522077 0.004409556 -0.005084723 0.0068483367 -0.006659786 0.008950968 -0.007876285
0.007385338 0.000475751 -0.0048661632 0.0054368987 0.0071351877 0.003780999 0.007840442 0.008286519
-0.002218317 0.0010114169 -0.0025834923 -0.0016333373 0.012718248 0.0076197963 -0.0029135821 0.0018444122
-0.0013750513 -0.0062876125 0.0011937256 0.0026814963 -0.0037282403 0.0062062526 8.289618e-06 0.004196133
-0.008203509 -0.01028362 0.009750962 -0.007179757 -0.012003724 0.0021996738 0.008763205 -0.006659722
0.008287164 0.013205367 0.0041192695 0.011423137 -0.008712686 0.00081703335 -0.0050720605 -0.005070955
0.006906723 -0.0027179555 0.006014333 0.003950114 0.0009008864 0.010389488 1.9268364e-06 -0.00586528
0.0062550865 -0.0034985265 -0.0034291989 -0.0031325258 0.0035008097 -0.003694964 -0.00457181 -0.010187516
0.004158887 0.001399641 -0.0029664878 -0.0057170917 -0.0016224335 0.017002758 -0.0041952217 -0.010002421
0.006051635 -0.0048660683 0.010346303 0.001598914 0.0018251142 0.009679457 -0.0018348737 0.0041076485
0.0031081778 -0.0050567463 0.0013369902 -0.006681576 0.001587571 -0.008044442 0.0022885515 0.002953991
0.010456963 0.0058298972 -0.014169791 0.007607538 -0.008817438 -0.0071901055 -0.005231368 0.0025768261
0.004210585 -0.00049895444 0.00646644 -0.00872863 0.00247625 0.0014565089 -0.0003400695 -0.008363167
0.0028816992 6.277352e-05 -0.00565527 0.0033359805 -0.006636217 0.002177216 0.00624218 0.007061567
0.0004282998 0.008472909 0.0018411574 -0.005153558 -0.0059855073 0.011840318 -0.0042891647 0.008801462
0.00045007677 -0.008598216 -0.008436951 -0.0030880817 0.0049789743 -0.0019669903 -0.002539562 -0.0075091175
0.011043761 0.0035112677 0.012122292 -0.009798417 -0.0024840601 0.011441685 0.002539735 -0.012268149
0.0015879227 -0.01089672 -0.0020633598 -0.0057128426 -0.0045747156 0.0004474296 -0.007814284 -0.0063121775
-0.0019900864 -0.005512115 0.0015519587 0.0041143047 0.0034622436 -0.0024882369 0.007857022 -0.0132983
-0.002246788 0.00487792 -0.001363731 0.0010672078 0.0030556787 0.0021229268 -0.006241928 -0.011251002
0.003058938 0.0028229232 0.0024540806 0.0041563674 -0.0019481961 0.00897752 0.0071787173 0.0027516158
0.0012786299 -0.0036100002 -0.002502542 -0.00031053595 0.0028450263 -0.0019237571 -0.0064532757 -0.0002382073
-0.0019056526 -0.0043563354 0.0013560633 0.0011923191 0.0024975385 0.007880601 -0.002208913 0.00055188424
-0.00022022682 0.008069478 0.00026021624 -0.0021795768 -0.002733147 0.0048870463 -0.005480237 1.6305861e-05

net_layers.1.linear_1.bias f4 [113]
00000000: 572d adbc 3773 1e3d b637 bcbc 184b 473c
00000010: 3124 6a3d 8077 70bd 8627 8b3d 994a fabb
00000020: feed ad3c be1c 97bc 2883 dd3c d274 3ebd
00000030: 2fb0 903d e42b 40bd 49c0 f83c cbaf 2d3b
00000040: 6896 823d cc64 dbbc f176 debc 010e 1cbd
00000050: e24c 123d 2912 a1bc e542 8fbd 9327 8c3d
00000060: 1bec ce3c eb98 d13c 7f30 5d3c 6e76 763c
00000070: 2953 813c dcc8 89bd 502f 993d 6ef6 023d
00000080: 0676 963d f90d ee3b 9799 963d 684b b7bc
00000090: 4ba8 573c 94b4 43bd ab02 95bd fd06 f63c
000000a0: 6920 7abd e0ad 8fbc efc9 d03a 4c61 2d3d
000000b0: 7b86 3fbd f116 d9bc bc99 7e3d 3fcf 7dbd
000000c0: 278d 823c d8ca 71bd ef5b 163d eda3 333d
000000d0: 1df3 7a3d 6e95 5abd a96a 92bd e671 9a3d
000000e0: f5aa 8f3d 0595 e8bc 5382 8e3c 863f 99bc
000000f0: 94bd b53d ec69 0e3d c678 5fbd 4445 8c3d
00000100: d03a 8f3c 92b1 2e3c 05ff 97bd ce8c 5dbd
00000110: 5832 b93c 3bb3 bebc 05eb 9bbd 9026 1ebd
00000120: 6493 92bd ff43 823b 4133 273d e34f a13d
00000130: ae48 a23d 5b60 a33d b127 d03c 9c05 4e3d
00000140: f5b4 f83c ff48 32bd 2db7 983c c8c8 7ebd
00000150: 41f3 adbd 4e53 8fbd 3ccb 39bd e0b4 4abd
00000160: c79a 603d f121 adbc 3414 743c dd2a 583c
00000170: 6145 b1bc 2b92 473d 0113 cfbc 75ec 6ebd
00000180: 51eb 8abb 5ec3 633b 8640 79bd d403 9a3d
00000190: 954c a53d 8e6a 2cbd f809 b1bc aa17 cfbc
000001a0: 90d5 7e3c 5f30 88bd 6da5 113d e74d b73b
000001b0: 3127 2a3d d22b 823b 0373 25bd 2f8d 13bc
000001c0: 9222 22bd
-0.021139784 0.038684096 -0.022975784 0.0121639 0.05716342 -0.058707714 0.06794648 -0.0076382873
0.021231648 -0.018446323 0.02704008 -0.046498127 0.07064854 -0.046916857 0.030365126 0.0026502486
0.06376344 -0.026781462 -0.027156325 -0.038099293 0.035717852 -0.01966198 -0.06995181 0.06843486
0.025259068 0.025585612 0.013500332 0.015042884 0.015786724 -0.06727764 0.07479727 0.031973295
0.0734673 0.0072648493 0.07353514 -0.022374824 0.013162683 -0.047779635 -0.072758995 0.03003263
-0.061066065 -0.017538965 0.0015929322 0.042329118 -0.04675911 -0.026500197 0.06215833 -0.061965223
0.015936447 -0.059031337 0.03670877 0.043857504 0.061267007 -0.053365164 -0.0714925 0.07541256
0.07015029 -0.02839137 0.017396128 -0.018707048 0.0887405 0.034768984 -0.054558538 0.06849149
0.017484099 0.010662453 -0.07421688 -0.05408936 0.022607014 -0.023278823 -0.07613186 -0.038610995
-0.07157019 0.003975391 0.040820364 0.07876565 0.07924019 0.07977363 0.025409551 0.05029832
0.030359725 -0.043526646 0.018642033 -0.0622032 -0.084936626 -0.06998311 -0.045359835 -0.049488902
0.054835107 -0.021134349 0.014897395 0.013193813 -0.021639528 0.04872338 -0.025277616 -0.05833097
-0.0042394777 0.00347539 -0.06085255 0.075202614 0.080712475 -0.042093806 -0.021611199 -0.025279839
0.015553847 -0.06649851 0.035558153 0.0055940035 0.041541282 0.003972509 -0.040392887 -0.009005829
-0.03958375

net_layers.1.linear_2.weight f4 [113, 113]
00000000: ca31 ddba f80d 423a 2122 46ba ef72 7abb
00000010: 561e 663b 1cf7 1bbb d2cf 713b c6ed c23b
00000020: f114 8c3b af6c fc3b f5ba 3d3b ab01 523b
00000030: 5c4f 1f3c 53e1 9cba c428 f3bb d267 48bb
00000040: 9e4c 113a 73f0 50bb 5b2e c6bb d3e2 6bbb
00000050: ab0c fdbb 04e1 863a bf04 af3b 4bae 8e3b
00000060: b630 873b 5efd cebb 39b8 18bc 7887 a539
00000070: 023e 4c3c 42cd 2ab9 5d3b 38bb 177d 9fbb
00000080: a9f7 c43b 4ac9 cb3b 0590 943b cf6c 3fba
00000090: 65dc ab3a 95e7 c13a 22b2 db3a 0447 47bb
000000a0: 4f86 7d3a 97ac 8e3b 9981 d43a 27af 33bc
000000b0: 5090 4ebb 7374 373b 04bc 7fbb 6223 9f3b
000000c0: f1c7 ce3b 8fe9 3dbb 613c abba 8748 533b
000000d0: dbcb 3eb9 79ce 823b a06a 9ebb f9a6 6c3b
000000e0: bc68 06bc 4162 8dbb d2cb 9dbb 048e 0e3b
000000f0: 6757 cc3b 87b5 babb a8a4 4f3b ea17 abbb
00000100: 1b9a d93a 195a 2abc 63d0 c6bb 3653 453b
00000110: 6f66 7abb edbb 533b c8aa 693b 586d a2b8
00000120: 26a0 8c3b 1076 d83a 42f8 af3b ad80 1fbc
00000130: b4f6 85bb bc91 90b9 5f6a 233b 9f6c 42bb
00000140: 3036 8ebb e023 6ebb 8b25 9abb 1092 afbb
00000150: c6e8 063a 7424 9f3b 421d a1ba 30e3 e6bb
00000160: 382f e8bb 81cd 82bb 58ad 083b 0d9d d3bb
00000170: bff5 943b ab49 71bb fc0b af39 69e9 9b3b
00000180: c458 2bbc 49e3 1cbb 1460 823b a23d 043b
00000190: 6dbe 083b 2e78 053a fd7b 7ebb cd17 e33a
000001a0: ad8a 5fbb fc57 3f3c dd83 ebbb f288 ebbb
000001b0: 688a a83b fe52 fabb fe6a 783a 3f6b ce39
000001c0: 82fc 2dbc 51b6 103b 41b7 46bc 3bbb f63b
000001d0: 645d 91bb ea1c 00bc cc8b 123b 48e6 8bbb
000001e0: d748 dfba 67c0 c5ba 1c60 23bb ec80 28bc
000001f0: eab2 42b9 1631 a9bb d2ac bb3b 5284 dfbb
00000200: 4cc3 2fbc 1519 6e3a cbd3 eb3b ec55 c33b
00000210: 61cc fc3b 0ee6 a0bb 7a96 c8bb d18d ac3b
00000220: 575e 71bc 69db 02ba ae63 08bc 4181 8abb
00000230: 0411 393b 493f ff3b b62f 983b d4cf 1a3b
00000240: 289d ffbb 87f2 e1ba c2c8 b9bb d95d bfbb
00000250: 6e5e 513c ed22 68bb 8493 963b a821 243b
00000260: 6583 c6ba 994e b13b c1b4 1cbb 0045 73bb
00000270: 3f33 55bc ed2e e43b a9ce 413a b416 223c
00000280: 3090 fe3b a3e2 28bc 9a19 ebba 00a9 16bb
00000290: bfce 3bbc 56fb 23bc bcd1 193c 4dd1 8f3a
000002a0: cdb5 e1bb 5ec5 f63a 0d8f 233c 2bac 483b
000002b0: 7b5d 0d3c edbf 1dbb 580f 32bb 4bde 8abb
000002c0: 5dc8 9d3b 9165 403b d982 85bb 3e0c 203b
000002d0: f8a9 f53b 8154 c9bb 9913 99bb 6f7f f83a
000002e0: bf3b cd3a ef0a 843b afc8 d6b8 bfd3 49b8
000002f0: cb37 943b 4b71 bfbb 2ccc 80b8 d398 9a3b
00000300: d5c1 19bc 25cb f1bb 98d4 903a b7d5 063b
00000310: 606a 073c e158 293c d036 853b 39be cfbb
00000320: a1ca 1439 471c 283b 8096 e23a a0aa 6bbb
00000330: 9e15 6abb eeaa 7aba a8d3 bb3b 541d 623b
00000340: 34cc bbba cabe dbbb 51c4 f63a 620a 613c
00000350: 76d8 95bb 6131 37bb 572b 283b 1247 28ba
00000360: beed 8939 1b78 0a3c ac94 b4bb 5ec2 07bc
00000370: a740 3bbb 2a68 1abc 8e1a 453c 1cfb d43a
00000380: f380 113c dd35 2a3c fb73 d5ba 03b9 353b
00000390: 8faa 90bb e3cf 5dbb c391 fe3b 340b a43b
000003a0: 4cc0 9bbb 18ca 31bb 3ad4 f23a 5354 47bc
000003b0: af37 30b6 ab34 03bc 9393 ec3b fb4f 74bb
000003c0: af5d 573b 091d 083c 75f2 6cbb 4104 09bc
000003d0: ce4c 2cbb 8f18 b9bb e458 b53a 6085 68bb
000003e0: 4940 63ba 3490 b73a 3e66 39bb 74a8 51ba
000003f0: b50a f23b 248c 2cba 3706 c03b b6db e6ba
-0.00168758 0.0007402594 -0.0007558186 -0.0038215478 0.0035113296 -0.0023798412 0.0036897552 0.005948755
0.0042749573 0.007703386 0.0028950546 0.0032044451 0.009723511 -0.0011969007 -0.007420631 -0.003057946
0.0005542728 -0.00318816 -0.0060480065 -0.0035993352 -0.0077224574 0.0010290449 0.005341142 0.0043542734
0.00412568 -0.006316825 -0.009321266 0.00031572185 0.012465956 -0.00016288928 -0.0028111555 -0.004867207
0.0060109687 0.006219064 0.00453377 -0.00073022855 0.0013111947 0.0014793748 0.0016761462 -0.003040732
0.00096711976 0.0043540704 0.001621294 -0.010967053 -0.0031519122 0.0027992993 -0.0039021978 0.004856513
0.006310456 -0.0028978323 -0.0013064259 0.0032239275 -0.00018195754 0.0039918986 -0.004834488 0.0036110266
-0.008203682 -0.0043146913 -0.004815557 0.0021752128 0.006236005 -0.0056979093 0.0031683836 -0.0052213566
0.0016601713 -0.0103974575 -0.006067322 0.0030109412 -0.0038208028 0.0032308057 0.0035654772 -7.745129e-05
0.004291552 0.0016514678 0.005370171 -0.009735269 -0.004088247 -0.000275744 0.0024935228 -0.0029666794
-0.0043399557 -0.00363373 -0.0047041825 -0.005357988 0.000514638 0.0048566405 -0.0012292045 -0.007046126
-0.007085707 -0.003991783 0.0020855274 -0.006457931 0.004545897 -0.0036817591 0.0003338753 0.0047580493
-0.010458175 -0.0023939183 0.0039787386 0.0020178338 0.0020865456 0.00050914555 -0.0038831227 0.0017325819
-0.0034109757 0.011678692 -0.00718735 -0.007187956 0.0051434524 -0.007639288 0.00094763923 0.00039371286
-0.010619285 0.0022081325 -0.012128652 0.007529644 -0.004436182 -0.007819394 0.0022361157 -0.004269395
-0.0017035258 -0.0015087248 -0.0024929112 -0.010284644 -0.00018567932 -0.005163322 0.005727389 -0.0068211937
-0.010727715 0.0009082717 0.0071968785 0.0059611704 0.0077147936 -0.004910237 -0.006121454 0.0052659293
-0.014731965 -0.0004991801 -0.008324547 -0.004226834 0.0028238902 0.0077895266 0.0046443595 0.002362241
-0.007800717 -0.0017238416 -0.005669684 -0.005840045 0.012778861 -0.0035421208 0.004595222 0.0025044475
-0.001514536 0.005410981 -0.0023911449 -0.0037119985 -0.013012706 0.006963602 0.00073931605 0.009893108
0.0077686533 -0.010307941 -0.0017936707 -0.0022988915 -0.011462866 -0.010008654 0.0093883835 0.0010972411
-0.0068881274 0.001882713 0.009982836 0.0030620198 0.0086282445 -0.0024070696 -0.002716979 -0.004237925
0.004815145 0.0029357413 -0.004074436 0.002442136 0.0074970685 -0.006144107 -0.0046715257 0.0018958877
0.0015658065 0.0040296237 -0.000102416954 -4.811934e-05 0.0045232526 -0.005842363 -6.1415456e-05 0.004717925
-0.009384592 -0.007378953 0.0011049686 0.0020574161 0.008265108 0.010336132 0.004065372 -0.006339815
0.00014189865 0.002565162 0.0017287284 -0.0035959855 -0.0035718451 -0.00095622137 0.0057320185 0.0034502344
-0.0014327825 -0.0067060934 0.0018826817 0.013735386 -0.0045729233 -0.0027953016 0.0025660598 -0.00064192817
0.00026307808 0.008451487 -0.005510887 -0.008286087 -0.0028572471 -0.009424249 0.012030257 0.0016249153
0.008880842 0.010388819 -0.0016285175 0.0027728684 -0.0044148634 -0.0033845834 0.007768841 0.0050062183
-0.004753148 -0.0027128514 0.0018526383 -0.012166101 -2.6258456e-06 -0.0080081625 0.0072197407 -0.0037279117
0.0032862236 0.008307704 -0.0036155258 -0.008362831 -0.0026290896 -0.0056486796 0.0013835696 -0.0035479888
-0.0008668942 0.0014004768 -0.00282897 -0.0007997819 0.0073865303 -0.0006582162 0.005860116 -0.0017613086

net_layers.1.linear_2.bias f4 [113]
00000000: b300 4d3c c7bc 18bd 9c76 d2bc 8034 67bd
00000010: 30c2 553d e2e1 6e3c d71e 5a3d 7d4b ce3b
00000020: c405 1a3d 0c88 8abd 51e7 97bd 0b13 87bd
00000030: 7a68 183d 950f 4c3d 9dab d7bc fae8 0cbb
00000040: def5 a83d 2b74 613b e69e be3b 1878 59bb
00000050: bca5 e23c 5f86 983d ac45 6e3d f338 1ebd
00000060: 86b3 2d3d 27e3 493b bec3 5abd 6c18 533d
00000070: a377 04bd dc09 70bd 1203 7ebd 4683 aabd
00000080: bcd0 47bd 716b 97bd e0e8 0ebc e88e bbbc
00000090: 27f6 d0bc eb4c 4939 2ab8 77bd 6ae5 c5bc
000000a0: 912e 093d 5a91 a93b 852f 71bc 281a 8b3d
000000b0: d8c1 7fbd 722a 093d 4049 2abd 8ea2 5cbc
000000c0: f90c 313d 0eb5 e2bc 219c a53c 340c 73bc
000000d0: c294 723d 90ba 553d 4700 15bd d7cf ae3d
000000e0: e73d 293d 0c5d 893d be4b 6ebd b360 62bd
000000f0: 9348 893d 4112 973c 00d2 c8bc 0254 9d3d
00000100: 1a64 96bd a8fd 89bd a06e 69bd 8353 cfbc
00000110: a777 59bd 1ac6 2c3d dcf7 023d 0035 bcbc
00000120: 1ff5 b23b 2ef8 14bd a3a9 92bd d94c 093d
00000130: b116 493d a1ac 17bd d735 8fbd 8f98 7ebd
00000140: 37f7 063d c7d4 00bc 03b0 57bd 9725 753c
00000150: ede3 ab3b 6b03 18bd 995c 0ebd 55d5 903c
00000160: 0c66 b63c 15fc eabc e3a9 abbd 5ad8 933b
00000170: af53 b8bc 7568 8e3d f5c4 a4bc 647a 4dbd
00000180: ee4f ecbc 7ba6 323d bd3d 2fbd 5efa 7b3c
00000190: da7c 3f3d d675 8fbd e4ad 61bd c6b1 d5bc
000001a0: 536a 47bd 5223 2ebd 79bf 133c eb7d 31bd
000001b0: 39f3 1d3b 6d62 3abd ac04 6e3d 1154 283d
000001c0: 407b aabc
0.012512374 -0.037289407 -0.025691323 -0.056446552 0.052187145 0.014580222 0.053252067 0.00629562
0.037603155 -0.0676423 -0.07417167 -0.06595429 0.03720901 0.049819548 -0.026326949 -0.002150117
0.082500204 0.0034401517 0.005817282 -0.0033183154 0.027666919 0.07447504 0.058171913 -0.03862853
0.042407535 0.003080556 -0.05340933 0.051536962 -0.032340657 -0.058603153 -0.062014647 -0.0832582
-0.04878305 -0.0739354 -0.008722514 -0.022895291 -0.025508 0.00019197508 -0.060478367 -0.024157245
0.033491675 0.005174798 -0.014720802 0.06792098 -0.062440723 0.033487745 -0.041573763 -0.01346649
0.043225262 -0.027674224 0.02021605 -0.014834452 0.059223898 0.052179873 -0.036377218 0.08535736
0.0413188 0.067072004 -0.058177702 -0.055268 0.067032956 0.018441321 -0.024514198 0.07682039
-0.073433116 -0.06737834 -0.056990266 -0.025308376 -0.053092625 0.042181112 0.03197466 -0.022974491
0.0054613496 -0.036369495 -0.07161262 0.033520553 0.049093906 -0.037029866 -0.06992691 -0.06215721
0.032950606 -0.00786323 -0.052658092 0.014962575 0.0052456767 -0.037112635 -0.034756277 0.01767985
0.022265457 -0.028684655 -0.08382013 0.004511875 -0.022500841 0.06953517 -0.020113448 -0.05016555
-0.028846707 0.0436158 -0.042783488 0.015379516 0.046749927 -0.07004897 -0.055097476 -0.026085746
-0.048685383 -0.042514153 0.009017819 -0.043332975 0.002410127 -0.045504022 0.058109924 0.041095797
-0.020810723

net_layers.2.linear_1.weight f4 [113, 113]
00000000: f026 35bb d746 c3bb 144c 363a de45 04bc
00000010: e9f3 473c dd8d bd3a 17be 21bc 8ab3 5ebb
00000020: 4e3d 00bb a60b 3abb ad3e 88bb 4f22 4f3c
00000030: f948 e93b aade c6bb 768a a23b 096a d7b7
00000040: cfcb 513b a2cb 913b dd48 05bc a3bc 06bb
00000050: 648e 19bc 0dd1 c33b d311 383c e11e c5ba
00000060: 61f3 fd3b 1126 0c3b e113 f8ba c298 4b3a
00000070: cbef 3abb 6eaa 96bb 0a40 72bc 80d1 41bc
00000080: 02f7 8cbb d7c0 b1bb 0a94 203a 83e6 103b
00000090: 9d65 053c dcf8 acbb f22f 2cbc 2edc 713c
000000a0: 67c3 f4bb e348 c3ba e7b9 00bc 533c 28bb
000000b0: fbf2 20bc 5313 ec3a 7485 043c 8abd bc3b
000000c0: 1931 6bbb 6ee7 1b3b bd93 343b 6b1a 283c
000000d0: bb94 0fbc af90 e43b 8790 6a3c b36d 01bc
000000e0: f1ff fb3b 0264 98b9 aa5f 153c 93e6 2e39
000000f0: dcd0 57bc 3d46 0b3c bd7f 42ba 2e16 a03b
00000100: 01f0 a5bb 3936 ef3a fb03 55ba 0dca 5d3b
00000110: 20e9 99b9 b3d5 7fbb b28d 043b 511b 563a
00000120: c6ae 6a3a 5414 1abc 86d4 303c 0464 f8b9
00000130: b5fe 813b 5835 1f3c cf2d 9f3c 0992 463c
00000140: cf52 633c dd54 97b8 40df b73a caf9 00bc
00000150: 38bd 9f3b d5f4 de3b 323e baba 62f7 01bb
00000160: dce0 343c 04cd 523c ca5e e33b 171a b33a
00000170: 8482 9aba 6412 09bc 838d 7b3b cf78 8cbb
00000180: a527 a13a 2502 c5bb 172b 163c 4314 eabb
00000190: 2532 eabb 4b1a 24bc 3ed6 543b 7ec0 6f3b
000001a0: b3cc 6f3b 32d6 2cbb a3ed f3bb b564 823b
000001b0: 268a c9bb de79 113c 4398 3ebc a3c7 8d39
000001c0: b367 4d3b 72d6 233c 749e db3b 0d0d 5ebb
000001d0: 9e68 1c3a 7296 393c 523e feb9 a06d 3e3c
000001e0: d670 10bb 67f0 323c 9f1e 933a 3168 343b
000001f0: 7a12 bf3a f7f8 343c 9106 c83b a21d 11bc
00000200: 5d5e 63bc d30e d8b7 3c5c 6dbc 22df e2ba
00000210: 127f 893a f0ec 22bb b8c7 81bb bfc4 7f3b
00000220: 0c35 01bc 46a3 01bc 0de0 a638 5aaf ce3a
00000230: 4e5b 2b3b ab86 8f3a e857 bbbb b524 e336
00000240: 3f80 283b 4378 f43b b92f 953a 0d95 263c
00000250: 3d2c c9bb 5167 73bc fcde 943a 80e7 c63b
00000260: 34f5 efbb fa00 d9bb 4ea1 bcbb 9537 723b
00000270: eb98 7db9 8ed4 9dbb a241 b4bb 6e55 e2bb
00000280: 1666 a9bb 2ec8 25bb 5c03 5ebb eeb9 e53b
00000290: e2c2 a3b9 d9b0 2f3c 4ee8 d7bb 7e5e 3aba
000002a0: 3281 3c3b b3fa 0f3b 91d1 20bb fc75 3b39
000002b0: faf9 42bc a5f3 00ba 74c3 0abc 7b05 053c
000002c0: f839 24bb 2c76 b3bb 12e7 dd3a 2cbe 0abb
000002d0: 6294 3e3a a82c 6dbc 00ce a73b c5ea b13b
000002e0: 32f2 303a 56c7 0339 f220 843c fc86 08bc
000002f0: b5cb fe3b 2920 b0ba abfc ae3b 707b 073b
00000300: 49aa ed3b 0e8f 08bc ac73 b03a e1f1 8fba
00000310: bc8c a2bb 82f4 743b 12e4 77bb 542a a83a
00000320: 3d4f 1fbb 69a3 afbb 63f9 ad3a c0c3 8cbb
00000330: 189c 363a a07a 2ebc 0c5d 063c 4e57 c33b
00000340: 4944 9fbb 02af be3a 02e9 f0ba 4b23 9b3b
00000350: e8f6 d33b edf4 313c b47a 35bc c8f0 5cbb
00000360: aeb2 0bba 8bcd 1c3c 9e44 093b e4c3 96bb
00000370: 2972 4f3b 56e2 143b 85e2 c0bb 32a1 d1bb
00000380: 7fd3 3f3b a9d5 feba 8fc4 7e3b 7c29 7abb
00000390: 4454 fa39 b661 bfbb b60f 183b 0182 90bb
000003a0: 471a 39bb 14e2 3abc 704e 813a 7e7b 913b
000003b0: 323f d73a 7f2a e3bb 1eea 38bb ae9b 3ebb
000003c0: 9fa0 29bc 526c 1cbb 5d1a 9bbb d547 75b9
000003d0: 8fff e8ba 1f8a 083b aa2d ee39 6139 90bb
000003e0: d4e0 e13b c013 5abb d636 d5ba 8758 5cbb
000003f0: 7c3f 663b 58a0 11bc 2e24 c23a 2b2a 043c
-0.0027641617 -0.0059593725 0.00069540855 -0.008073298 0.012204149 0.0014461834 -0.009871981 -0.0033981525
-0.001956779 -0.002838829 -0.004157862 0.012642457 0.0071192947 -0.006069024 0.0049603535 -2.5679374e-05
0.0032012349 0.0044493238 -0.008135048 -0.0020559214 -0.0093723275 0.0059758485 0.011234718 -0.001503911
0.0077499603 0.0021384994 -0.0018926823 0.0007766598 -0.0028524275 -0.0045979535 -0.014785776 -0.011829734
-0.0043019066 -0.0054245996 0.0006125575 0.0022110052 0.008141902 -0.00527869 -0.010509478 0.014761968
-0.007469583 -0.0014899041 -0.007856823 -0.0025670722 -0.009823556 0.001801113 0.008088458 0.0057598995
-0.0035887419 0.0023789066 0.002755388 0.010260205 -0.008763487 0.0069752554 0.014316685 -0.0078996895
0.0076904227 -0.0002906621 0.009117046 0.00016679829 -0.013172355 0.008500633 -0.0007419547 0.0048854565
-0.005064011 0.0018250413 -0.00081258983 0.0033842355 -0.00029356126 -0.0039037287 0.0020226059 0.00081675226
0.0008952435 -0.009404261 0.010792857 -0.00047376764 0.003967131 0.009717308 0.019431023 0.012119778
0.013874724 -7.216048e-05 0.0014028326 -0.007872054 0.0048748516 0.0068040886 -0.001420921 -0.001983129
0.011039939 0.012866262 0.00693879 0.0013664392 -0.0011788164 -0.008366201 0.0038383908 -0.0042868624
0.001229514 -0.0060122185 0.009165547 -0.0071435287 -0.007147091 -0.010016034 0.003247633 0.003658324
0.0036590516 -0.0026372788 -0.0074441 0.0039792904 -0.006150502 0.008879153 -0.011632982 0.00027042357
0.0031342327 0.009999858 0.0067022387 -0.003388229 0.0005966517 0.011327373 -0.00048493088 0.011622816
-0.0022039912 0.010921574 0.0011224336 0.0027527923 0.001457765 0.011045686 0.0061042984 -0.008857163
-0.013877478 -2.575611e-05 -0.014487322 -0.001730893 0.001049014 -0.0024860464 -0.003960576 0.0039027182
-0.0078861825 -0.007912463 7.9572295e-05 0.0015768812 0.002614695 0.0010950168 -0.0057172664 6.7694004e-06
0.0025711206 0.0074606254 0.001138202 0.010167372 -0.006139307 -0.0148561755 0.0011357958 0.0060700774
-0.0073229317 -0.006622431 -0.0057565337 0.00369594 -0.00024184927 -0.0048165983 -0.005500988 -0.0069071567
-0.0051696403 -0.0025296318 -0.0033876514 0.00701069 -0.00031234982 0.010723316 -0.006588972 -0.00071094173
0.002876353 0.0021969497 -0.0024538974 0.00017877662 -0.011900419 -0.00049191184 -0.008469451 0.008118982
-0.0025058966 -0.0054767337 0.0016929826 -0.002117048 0.00072700356 -0.014475979 0.0051209927 0.005429598
0.0006749957 0.00012567392 0.01612899 -0.008332964 0.0077757486 -0.0013437319 0.005340179 0.002067294
0.0072529656 -0.008334888 0.0013462207 -0.001098212 -0.0049606245 0.0037377183 -0.003782515 0.0012829998
-0.0024308704 -0.005360056 0.0013273176 -0.004295796 0.0006966009 -0.010649353 0.008200895 0.0059613353
-0.004860435 0.0014548006 -0.0018379989 0.004734432 0.0064686425 0.0108616175 -0.011076618 -0.0033712853
-0.00053290545 0.00957049 0.002094544 -0.0046009887 0.0031653738 0.0022717915 -0.005886378 -0.00639739
0.0029270349 -0.0019442338 0.0038874482 -0.00381717 0.000477465 -0.0058405055 0.0023202724 -0.004410029
-0.0028244422 -0.01140644 0.0009865295 0.0044397702 0.0016422032 -0.006932556 -0.0028215717 -0.0029084492
-0.010353236 -0.0023868275 -0.0047333674 -0.0002339178 -0.0017776358 0.002083428 0.0004542892 -0.0044013713
0.0068932567 -0.0033275932 -0.0016266953 -0.0033622102 0.0035133054 -0.008888327 0.0014811808 0.008066694

net_layers.2.linear_1.bias f4 [113]
00000000: c340 983d 14bf dc3c 4af0 86bd f71f ce3c
00000010: 649b cfbb 24e8 9bbd f86e eebc 7f3d 80bc
00000020: fd21 73bd e560 82ba 13ec 28bc 0388 e83c
00000030: ca87 8d3c 686b 9f3d 66ab a73c facc 3abd
00000040: ad9d 31bb 21bf ab3c 93f8 22bd 60a1 a93d
00000050: ec41 65bd 239d 4dbd 2bd5 9ebc 5946 25bd
00000060: 6a7d 4ebd 151d 403d 4b1a 4f3d 70b6 fe3b
00000070: d4a0 17bc 0525 05bd f0c9 29bd aea2 a0bd
00000080: 39be 983d 6c21 3f3d 59fb 3c3c b7c3 1cbd
00000090: 2c5d a2bc ee9e 57bd 571f 7b3d 43ed 5c3c
000000a0: 4197 5abd a41a 503d 54a1 57bd 1f57 1ebd
000000b0: b3b3 60bd 0caf 37bd b3c7 5eb9 cf96 9fbd
000000c0: 0d5c b33c be86 8bbd 5d6e 9b3d d845 7e3c
000000d0: 1384 97bd ce5a fbbc b0b1 c4bc 9bbf 15bd
000000e0: ee9a d93c d5bd 1abd 0377 7e3c c7d6 57bb
000000f0: 234f 8fbd 7d59 8b3c 1252 293c 9bc1 493d
00000100: f566 03bd 9116 353d 6bd9 6ebd d49b 6a3d
00000110: dd78 e13c 3984 d93b d4dc 09bd d207 823d
00000120: 07dc 2ebd c667 3f3d f92c 27bd feeb 1d3d
00000130: a93f 593d b8e1 b1bb 45b8 913d e8e7 273d
00000140: e8bc a8bd 2064 84bd 2b01 603d 4181 bbbb
00000150: 04c1 58bd 21fd 15bd e92b 2b3d de99 a03d
00000160: 319f 8e3d 94c5 8cbd a851 ab3c cecb 2ebd
00000170: 64f8 95bd 7d93 583d c6fc ae3c f212 a33d
00000180: cca5 853c 76e7 843c e131 6b3c 39bf 9ebd
00000190: c0bb 623d 62de 893d fd17 b73c a78d a2bd
000001a0: 2a6f 51bd e67a b23b 82af 7cbd 7f78 163d
000001b0: 7803 853d 3aa0 ecbc c39b 0bbd ead9 0d3c
000001c0: 3866 733d
0.07434227 0.026946582 -0.065888 0.025161726 -0.0063356627 -0.07612637 -0.029105648 -0.015654324
-0.059358586 -0.000994709 -0.010310191 0.028385168 0.017276663 0.07784158 0.020467471 -0.045605637
-0.0027102039 0.02096516 -0.03978784 0.08282733 -0.05597107 -0.050198685 -0.019388756 -0.040350292
-0.050412573 0.046902735 0.050562184 0.007773213 -0.009254653 -0.032506008 -0.04145235 -0.07843529
0.07458157 0.046662733 0.011534535 -0.038272586 -0.019819818 -0.0526418 0.061309185 0.013484302
-0.053366903 0.050806656 -0.05264409 -0.038657304 -0.054858875 -0.044844672 -0.00021245964 -0.07792436
0.02189448 -0.068128094 0.075894095 0.015519582 -0.07398238 -0.030682947 -0.02401051 -0.036559682
0.026563134 -0.037778694 0.015531304 -0.0032934414 -0.06997516 0.017010445 0.0103345085 0.049256902
-0.03208061 0.044210974 -0.058312815 0.057277516 0.027523452 0.0066380766 -0.033657864 0.06349148
-0.042690303 0.046729825 -0.040814374 0.038555138 0.053039227 -0.005428519 0.07115225 0.040992647
-0.08239156 -0.0646441 0.054688614 -0.0057221954 -0.05291845 -0.036618356 0.041789923 0.07841848
0.06963957 -0.068736225 0.02091296 -0.042674832 -0.073227674 0.05287503 0.021360766 0.07962598
0.01631441 0.01622365 0.014355154 -0.077513166 0.055354834 0.06731869 0.022350306 -0.07937174
-0.051131405 0.0054467795 -0.061690815 0.036736008 0.06494802 -0.028884996 -0.034084093 0.008657912
0.059423655

net_layers.2.linear_2.weight f4 [113, 113]
00000000: f317 c5ba ab6b 31bb 48f9 f83a 03c7 cbbb
00000010: 2457 ddbb 4186 38bb e28a 4d3b 5a6f f9ba
00000020: 00ff 183c 5718 9e3b dedb 163c c8b4 96b9
00000030: 93ea 5dba 82ed b93b 36a3 6fbb 99e5 b53b
00000040: 3cb4 c0bb 0825 013c caee 2d3b 6609 efbb
00000050: 7ffa 003c 9ea1 e03b dea5 5a3b 3864 c5ba
00000060: df76 9fbb 9aca 1fbb 2fae 14bc 3fea 3cbb
00000070: f87e 803b 5321 c53b 4b6d 063c 37cb e53b
00000080: aef8 d3bb 1822 65ba 9337 a638 f2a8 223c
00000090: 5a75 bc3b a603 4c3b 5a13 fe39 c079 3f3b
000000a0: 515b 80ba cf36 d2bb fa24 273c 7471 cc3a
000000b0: 401d fab9 231f 6d3b 76df 433a 120b a03a
000000c0: 93a4 153b 286e e3b9 96b3 69bb 96a1 07bb
000000d0: 83ec c03b 421a 76bb f9c3 b83b ab59 a93b
000000e0: ba8b 74ba 30e1 683b 129e 99bb 8713 32ba
000000f0: 5fcf d03a 8c8d 71bb 1c3f 81ba 36b9 3f3b
00000100: 5f6a 00b9 b6d7 cbbb bdd6 243c 216f b5bb
00000110: 399f 85bb 852e b03b 372c ab3b b255 873b
00000120: 264b efbb eac1 913b d49a b1ba 45ef 0abc
00000130: 89ea 13bc 50ac d73a e5d6 983a d37a 0cbc
00000140: 5287 503a b105 833b 54fc 8f3a 3948 c83b
00000150: b60c 9a3b 052a ab3b 635c f33b efee 06bc
00000160: 93a6 9ebb 80bd ff3a a8d1 88ba fc03 603b
00000170: 819b 02bc 3470 cbba c209 6f3a d475 86bb
00000180: 08a1 ec39 678d 703c 3639 ab3b 0133 40bb
00000190: 6565 f13a 4b76 0bbc 8cea 8f3b fa23 babb
000001a0: b639 79bb 0b23 03bc 267e 4ebb 28bb 023c
000001b0: 94d1 d2bb e94a 823b f92e 083c 4363 8aba
000001c0: 8316 d639 f777 123b 24c0 df3b 2a78 e33b
000001d0: f1bb ad3a 12f7 113c cce8 093c 6fb3 783b
000001e0: 93a6 3139 2d1f bfbb 9108 f23b e9ed f43b
000001f0: f59f 1ebb fff1 61bc 661c 77bb 3a3d 463b
00000200: 37d3 303b 6505 523c feaa 03bb 8bfa 283a
00000210: 9043 fdbb 5e7f 26bc 28f5 56bb 8e8a 5bba
00000220: cdc9 723a b2e6 2b3c a688 283c abf0 f9bb
00000230: 43a9 9cbb 141b bbb9 0f2a 1d3c 7000 f13a
00000240: 1b2a 11bc 9764 ce39 c858 e4bb 3f7c 86bb
00000250: 02c6 b2ba f526 b9bb d514 e8b9 f1c8 e43b
00000260: 72cd a13b f96f eb38 4b4d 093c 4220 903b
00000270: 48e4 12ba 4ddb 863b c469 85bb 5c6b 0ebc
00000280: dd0b 2cbb 378c aab9 5610 523b 4ce6 8d3b
00000290: 0309 fdba d8e7 303a 147f 83ba fefe 103c
000002a0: 148c 8d3b 627a d1ba 6120 42bb df17 50bb
000002b0: 897c 0ebc a28c 11bb c5ac f3b9 2785 2ebb
000002c0: 4ccb 1239 2e6a 053c d1d4 863a 3980 9539
000002d0: 7123 53bb cc8a c33b 46d4 2d3b fbe7 de3a
000002e0: a4c5 9bbb a855 103c b5b1 84bb 6a4c 773c
000002f0: c139 fcbb 4278 b03b 101e 27bc a289 c8bb
00000300: 4525 bc3b a0f2 a237 d208 003c 3f59 91bb
00000310: 1109 0a3b 2120 a93b c10c 7ebb 6e89 973a
00000320: b7f5 30bc 11ec 803b c82d 05ba 3cde f23a
00000330: 300d 6ebb c6ea 953b ce9a 9d3b 0774 333b
00000340: 84ee 113b 787c 813a f6a0 b53b d537 263b
00000350: 8a28 6b3b 0cbe debb 9e92 69bb b51a 953b
00000360: ec4e 043c 0a46 9dbb 572d 003c 8321 4fbc
00000370: 973b 6d3b ed12 7d3a 8775 00bc e66d 68bb
00000380: 34b6 283c a2db 073c fe89 babb 475f 8dbb
00000390: 107a a1b9 ca79 adbb 4710 4b3a 0124 883b
000003a0: 5d76 fa39 7839 c03b e244 1339 128c 90bb
000003b0: d399 cd38 4e2d 1c3c 8a15 993b aa59 8fbb
000003c0: 03f9 283c ef21 893b cf04 253a c28f 9339
000003d0: d0f4 b73a ab3d eb3b 8f69 bfbb a021 e33b
000003e0: a2a2 e3bb 924f d4b9 0491 853b d5da fe3b
000003f0: b411 73ba c64e 273b f188 953b c9df f8bb
-0.0015037045 -0.0027072232 0.001899519 -0.0062187924 -0.0067547727 -0.0028156193 0.0031363298 -0.0019030378
0.0093381405 0.004824679 0.009207694 -0.00028744922 -0.0008465435 0.005674065 -0.0036565787 0.005551052
-0.0058808606 0.007882364 0.0026540034 -0.0072948216 0.007872223 0.006855204 0.0033363025 -0.0015059775
-0.0048664655 -0.0024382235 -0.009074732 -0.0028826145 0.003921386 0.0060159354 0.008204768 0.0070127505
-0.006468854 -0.0008740737 7.925848e-05 0.009927975 0.005751294 0.0031130104 0.00048461073 0.0029216856
-0.0009792839 -0.006415225 0.010201687 0.0015597777 -0.0004770551 0.003618189 0.0007471958 0.001221033
0.002283369 -0.00043378887 -0.003566002 -0.0020695678 0.0058875694 -0.0037552272 0.005638596 0.00516816
-0.0009328682 0.0035534613 -0.004688033 -0.0006793071 0.0015930942 -0.003685805 -0.0009860727 0.0029254681
-0.00012246658 -0.006220783 0.010060963 -0.0055369292 -0.0040778187 0.0053766393 0.0052237767 0.0041300887
-0.0073026596 0.004448165 -0.0013550171 -0.008479898 -0.0090280855 0.0016454551 0.0011660723 -0.008574205
0.00079547346 0.003998481 0.0010985234 0.0061121252 0.0047012223 0.005223515 0.007426785 -0.008235677
-0.0048416345 0.0019511431 -0.0010438459 0.0034182062 -0.007971645 -0.001552111 0.00091185805 -0.0041034017
0.00045133405 0.01468215 0.005225326 -0.0029327276 0.0018417059 -0.00851209 0.004391974 -0.0056805583
-0.0038028783 -0.00800396 -0.0031508296 0.007979192 -0.006433675 0.003976215 0.00831198 -0.0010558147
0.00040834033 0.0022349337 0.006828325 0.006941815 0.0013254863 0.008909004 0.0084173195 0.0037948748
0.00016942089 -0.005832574 0.007386275 0.00747465 -0.0024204229 -0.0137906065 -0.0037706136 0.0030248896
0.0026981363 0.012818669 -0.0020090933 0.0006446025 -0.0077290013 -0.010162203 -0.0032799933 -0.0008374833
0.0009261638 0.010492014 0.010286486 -0.007627567 -0.0047809198 -0.00035687594 0.009592547 0.0018386971
-0.008860136 0.00039366327 -0.0069685914 -0.0041041668 -0.0013639333 -0.005650396 -0.0004426601 0.006981962
0.004937821 0.0001122653 0.0083802445 0.0043983767 -0.00056034746 0.004115498 -0.004071446 -0.008692589
-0.0026252188 -0.00032529395 0.0032053194 0.004330432 -0.0019305054 0.00067484146 -0.0010032379 0.008849857
0.004319677 -0.0015981907 -0.002962135 -0.003175251 -0.008696684 -0.0022209068 -0.00046477295 -0.0026629658
0.00013999379 0.008142991 0.0010286813 0.00028515028 -0.003221717 0.0059674736 0.002652423 0.0017006391
-0.004753785 0.008809485 -0.0040495046 0.015093902 -0.0076973145 0.0053854296 -0.010200039 -0.0061199227
0.0057417476 1.9424886e-05 0.007814603 -0.004435688 0.0021062533 0.005161301 -0.0038764926 0.0011561343
-0.0108007705 0.0039343913 -0.00050803693 0.0018529366 -0.0036323778 0.0045751063 0.004809714 0.002738239
0.002226741 0.0009879014 0.0055428697 0.0025362868 0.0035882317 -0.0067975577 -0.003564037 0.004550303
0.008075457 -0.004799609 0.00782331 -0.012642267 0.0036198848 0.0009654004 -0.007840521 -0.0035465895
0.010297347 0.008292111 -0.0056927195 -0.0043143365 -0.00030799257 -0.0052940594 0.0007746261 0.0041546826
0.00047771903 0.005866226 0.00014044673 -0.004411229 9.803814e-05 0.009532286 0.004671757 -0.0043747025
0.010313275 0.0041849534 0.0006294967 0.00028145133 0.0014034752 0.0071789823 -0.005841441 0.0069314986
-0.0069468776 -0.00040495076 0.004076125 0.0077775517 -0.00092723523 0.002552913 0.004563444 -0.0075950366

net_layers.2.linear_2.bias f4 [113]
00000000: 98be 633d 2091 15bd 8ea6 9b3d f210 5a3d
00000010: e781 a6bd dc5d 8a3d 3ff3 9b3d 91ff 9fbc
00000020: 0778 8bbd 9b67 33bc 127e 333d bc55 08bd
00000030: 4a20 7e3c 29aa fcb9 7381 a43c 1b5f 553d
00000040: f7d7 7e3d ded9 debb d0f5 463d 7427 f83c
00000050: e62f 1abd c125 98bd 275a 39bd fa72 973d
00000060: bf28 07bd 420e f1bc 072f 363d 7cd8 043d
00000070: 7c7e 853d ed33 b5bc 53e9 96bd 931a 79bc
00000080: 06ee 803d 5b3c 043d aa31 96bc 717e b7bc
00000090: f1a7 d7bc f4c5 80bd 7b34 08bb 9374 bf3b
000000a0: dba1 2bbd 3cfb 33bd 0673 92bd 4c67 273c
000000b0: ea4e 163c 4df5 533d 4c63 31bd d9c1 843d
000000c0: 8d5d 32bd f90a 61bd e34b 94bc 945d 743d
000000d0: 13a1 073d ac69 873d 569a 0f3d c04d 083d
000000e0: b82b 78bd 0d7f a4bc 3040 ba3b 1906 99bc
000000f0: 5b7e febc d948 b13d 5209 933d a9e4 4b3c
00000100: 3a23 29bd 8ebd 16bd cc78 52bc 4e7a 41bd
00000110: 2e5c e1bc 11e7 0fbd f4c5 a23b 6acc 0b3d
00000120: f809 c73c a847 893d 8b72 b03d 1bd8 f93c
00000130: a496 013d e144 8d3d 777d 223d e2cc 82bd
00000140: 56d5 863d 98eb 0cbd a75e 003b 7766 6fbd
00000150: 0b44 d5bc 0a20 c03b c427 193d 0f8c 07bd
00000160: d8d4 9abd 8eb9 493d fb3d 76bd bcc5 253d
00000170: cd90 903d 662e 923d dea6 393d cef0 db3c
00000180: 9b2d 523d 6962 353d d300 d0bc b644 e3bc
00000190: 33bb 973c 9406 a83d 3c2f 163d 8ac6 553c
000001a0: e3d4 8dbb 7c31 3a3c 69a5 79bc 32a6 2dbd
000001b0: 88b8 153d 9bbc 883d 8096 353d 13e6 cdbc
000001c0: 4671 65bd
0.055601686 -0.036515355 0.07600127 0.053238817 -0.08130246 0.067561835 0.07614755 -0.019531043
-0.06810003 -0.010949994 0.043821402 -0.033284888 0.015510628 -0.00048191965 0.020081257 0.052092653
0.06221768 -0.006800874 0.04857427 0.03029225 -0.037643336 -0.07429076 -0.04525199 0.07394977
-0.032997843 -0.029425744 0.044478443 0.032433018 0.065182656 -0.022119487 -0.07368722 -0.01520409
0.06295399 0.032284122 -0.018334229 -0.02239916 -0.026325198 -0.062877566 -0.0020783234 0.005842754
-0.041902404 -0.043940768 -0.07150845 0.010217499 0.009174088 0.05174761 -0.043307588 0.06482286
-0.04354625 -0.054942105 -0.018102592 0.059659556 0.033112597 0.06611952 0.035059296 0.033277273
-0.06058857 -0.020080114 0.0056839213 -0.018679665 -0.03106611 0.08656473 0.07179512 0.012444654
-0.04129336 -0.036801867 -0.012846183 -0.04723578 -0.027509775 -0.03513247 0.0049674455 0.03413049
0.024296746 0.067031205 0.08615597 0.030498555 0.031637803 0.06897903 0.039670434 -0.063867345
0.06583659 -0.034404367 0.0019587667 -0.058447327 -0.026033422 0.0058631944 0.03739144 -0.033092555
-0.07560128 0.049249224 -0.060117703 0.040471777 0.070588686 0.07137756 0.045325153 0.026848223
0.051313024 0.044283304 -0.025391018 -0.027742725 0.01852188 0.0820438 0.03666614 0.013047824
-0.0043283566 0.011364337 -0.015237191 -0.042394824 0.036552936 0.06676599 0.04433298 -0.025134122
-0.05601623
