thesis/may/week_14/distillation/teardrop/models/teardrop_KnowledgeDistillation_version1.pth (torch, 919387 bytes, 23 tensors)

module.net_layers.0.linear.weight f4 [150, 4]
-0.22932549 -0.0019314932 -0.064430274 -0.21719457 0.04643537 -0.23515673 0.18434782 0.09914343
-0.1773337 0.009668272 0.026263377 -0.055466834 0.11890403 0.07024364 -0.08694478 -0.011953284
-0.0684422 0.16093516 0.15430805 -0.20015945 0.24290408 0.17459278 0.25372836 0.003647551
-0.1730905 -0.12686051 0.18414865 -0.019383578 0.24934337 0.08024321 0.14393233 -0.17476426
0.05894042 -0.24956368 0.0019415495 0.22044063 0.07228989 0.13367489 -0.2074266 0.08046732
0.12725589 0.21737342 -0.22446476 -0.111216426 0.19384079 -0.016933538 0.055873577 0.11058588
-0.13646859 0.07714131 -0.10459434 0.19497488 -0.07004847 -0.20224589 -0.09143558 0.03336748
0.21376605 0.06671162 0.17971088 -0.06429228 -0.058937654 0.20765035 0.11038681 0.23731475
0.21998797 -0.24438602 0.054902505 -0.15429811 0.09328821 0.1590507 0.12124748 0.05182214
-0.23893365 0.13344587 -0.18713832 0.054576688 -0.2305603 -0.027177386 -0.08164245 0.19865385
-0.139743 0.09513656 -0.019713366 0.0924803 0.056233156 0.005111868 -0.24505143 0.13895208
0.11660259 -0.22407734 0.18744284 -0.11445589 -0.17288159 -0.22539404 0.19698974 -0.13326626
-0.03231795 0.021215623 -0.011914194 0.19431758 0.24722584 -0.093651175 0.24859023 0.25298265
-0.0896161 0.011726145 -0.23579028 -0.18582661 0.01455598 -0.10308417 0.09234418 -0.10359798
-0.12261065 0.0754344 -0.24709094 -0.16756049 -0.23342481 0.23622416 0.22639258 -0.0397649
-0.11156657 0.16144007 -0.2149685 0.23306783 -0.034770496 -0.07726023 0.2682684 -0.0092824595
-0.1550705 -0.17950897 0.2554167 0.22164401 -0.08232877 0.14847991 -0.04587427 -0.041677196
-0.09993272 -0.054940403 -0.240773 0.11969724 0.21906573 0.099750705 0.016880313 0.19715819
-0.0635514 -0.0024184387 0.13234198 -0.11703697 -0.113701545 0.117380574 -0.1562075 0.19450504
0.1019883 0.07420737 -0.24953757 -0.039271746 -0.21027958 -0.016767187 -0.25505713 -0.09289785
-0.1183053 0.1889691 -0.06914567 0.10435226 0.23364633 0.13992143 0.124 -0.057000387
0.20624389 -0.12267688 0.21335784 -0.14504607 0.21239011 0.038119383 -0.0842694 0.018694825
0.07404978 0.061270017 0.19092056 0.24000953 0.04682368 -0.14923367 0.20050173 -0.124681644
0.23957022 0.18421629 0.002922875 0.23571768 0.1965854 -0.0992089 0.20516726 0.17774293
-0.17837638 -0.1288484 -0.07321015 -0.22104669 -0.084261924 -0.19911426 0.016174752 0.1847238
0.07303162 -0.1583355 0.22395216 -0.023862893 -0.16002345 -0.051475324 -0.26558253 0.1983192
0.072098956 0.23205595 0.038014088 -0.19302048 0.22860631 -0.13174698 0.1287795 0.04355949
0.073516116 -0.087200485 -0.23915458 0.07426954 -0.15666175 -0.17825486 -0.08281379 0.0467992
-0.22133096 -0.20519537 -0.24773821 -0.107240126 0.20863755 0.112940386 -0.1573837 -0.029422266
0.22971688 -0.08299527 -0.12464764 -0.10451456 -0.015892172 -0.03609941 0.1020675 -0.20466913
0.08677215 0.20189871 -0.060780782 -0.045634404 -0.17817122 0.10431464 -0.19497415 0.13459997
-0.089217655 -0.025024464 0.16060719 -0.13375059 0.21998514 0.2468067 -0.041339945 0.24420467
00000000: 4dd4 6abe 282a fdba 05f4 83bd 4168 5ebe
00000010: 0433 3e3d edcc 70be adc5 3c3e b60b cb3d
00000020: f796 35be ac67 1e3c 4b26 d73c 3131 63bd
00000030: f583 f33d e6db 8f3d 1b10 b2bd b5d7 43bc
00000040: 6d2b 8cbd 30cc 243e ee02 1e3e 99f6 4cbe
00000050: d9bb 783e 73c8 323e afe8 813e c00b 6f3b
00000060: a33e 31be b9e7 01be 7791 3c3e 4fca 9ebc
00000070: de53 7f3e 8d56 a43d ff62 133e 67f5 32be
00000080: 836b 713d 9f8d 7fbe 977b fe3a 30bb 613e
00000090: b90c 943d 12e2 083e a367 54be 0dcc a43d
000000a0: 5e4f 023e 2397 5e3e 17da 65be 70c5 e3bd
000000b0: 337e 463e 34b8 8abc b1db 643d da7a e23d
000000c0: 6cbe 0bbe 43fc 9d3d 8f35 d6bd 7fa7 473e
000000d0: 9275 8fbd 8c19 4fbe 9442 bbbd 57ac 083d
000000e0: 7de5 5a3e 1aa0 883d 2106 383e acab 83bd
000000f0: 9c68 71bd 4ba2 543e 7b12 e23d a302 733e
00000100: 8744 613e 5440 7abe 73e1 603d 5300 1ebe
00000110: e40d bf3d 30de 223e 9950 f83d 7443 543d
00000120: 06ab 74be 09a6 083e 30a1 3fbe ce8b 5f3d
00000130: 0018 6cbe 1ca3 debc 2834 a7bd ea6b 4b3e
00000140: ca18 0fbe f5d6 c23d ed7d a1bc 5066 bd3d
00000150: bd54 663d 7581 a73b c3ee 7abe 7449 0e3e
00000160: 57cd ee3d 8874 65be 04f1 3f3e da67 eabd
00000170: df07 31be b2cd 66be aeb7 493e f376 08be
00000180: d45f 04bd 63cc ad3c c033 43bc 30fb 463e
00000190: c528 7d3e 30cc bfbd 708e 7e3e f186 813e
000001a0: a588 b7bd 041f 403c 0273 71be 5549 3ebe
000001b0: 357c 6e3c cb1d d3bd f21e bd3d 2e2b d4bd
000001c0: 4b1b fbbd 5a7d 9a3d 6805 7dbe fa94 2bbe
000001d0: ea06 6fbe bfe4 713e 75d3 673e 85e0 22bd
000001e0: 047d e4bd 8c50 253e b420 5cbe 55a9 6e3e
000001f0: 826b 0ebd 9d3a 9ebd 7a5a 893e 7515 18bc
00000200: cdca 1ebe 33d1 37be fac5 823e a6f6 623e
00000210: fc9b a8bd 1e0b 183e a9e6 3bbd b5b5 2abd
00000220: 87a9 ccbd 3009 61bd 338d 76be d423 f53d
00000230: c452 603e 194a cc3d 9548 8a3c d6e3 493e
00000240: 3d27 82bd ab7e 1ebb a884 073e 14b1 efbd
00000250: 5bdc e8bd 3a65 f03d dcf4 1fbe 542c 473e
00000260: 3edf d03d 09fa 973d c786 7fbe 69db 20bd
00000270: 8853 57be 575b 89bc d996 82be 3a41 bebd
00000280: 0d4a f2bd 1e81 413e 3f9c 8dbd a3b6 d53d
00000290: fc40 6f3e 9047 0f3e b6f3 fd3d 3d79 69bd
000002a0: 9931 533e 043e fbbd 7a7a 5a3e f586 14be
000002b0: cb7c 593e 1223 1c3d 6f95 acbd e425 993c
000002c0: 69a7 973d 45f6 7a3d ae80 433e 0fc5 753e
000002d0: 30ca 3f3d b6d0 18be 5350 4d3e 1759 ffbd
000002e0: e551 753e 32a3 3c3e b58d 3f3b fa5f 713e
000002f0: af4d 493e 092e cbbd 5e17 523e 3e02 363e
00000300: 4ca8 36be d6f0 03be 34ef 95bd 105a 62be
00000310: 8491 acbd 9ce4 4bbe ea80 843c 3c28 3d3e
00000320: 9a91 953d b422 22be b753 653e 1d7c c3bc
00000330: 30dd 23be cad7 52bd 6ffa 87be 3014 4b3e
00000340: 9ea8 933d 13a0 6d3e a9b4 1b3d 29a7 45be
00000350: c617 6a3e aee8 06be c6de 033e 706b 323d
00000360: 9e8f 963d 2b96 b2bd f0e4 74be a11a 983d
00000370: f06b 20be 7188 36be 479a a9bd 85b0 3f3d
00000380: 95a4 62be bc1e 52be 16af 7dbe b6a0 dbbd
00000390: 15a5 553e 4a4d e73d 3129 21be f706 f1bc
000003a0: e73a 6b3e 6df9 a9bd 4347 ffbd bb0b d6bd
000003b0: 4d30 82bc fadc 13bd c408 d13d c994 51be
000003c0: 99b5 b13d 89be 4e3e 45f5 78bd 24eb 3abd
000003d0: 8472 36be eaa2 d53d 4ea7 47be 93d4 093e
000003e0: bfb7 b6bd 1b00 cdbc 3676 243e eaf5 08be
000003f0: c943 613e e5ba 7c3e 1354 29bd ca10 7a3e

module.net_layers.0.linear.bias f4 [150]
-0.14904207 -0.02728534 0.44452924 -0.03840455 -0.0717306 0.18299517 0.05344386 0.12020768
-0.11880962 -0.22922829 0.46793392 0.2550796 -0.36405617 0.11989905 0.26812303 -0.33423865
0.262301 -0.42568606 0.15335573 -0.022725455 -0.0074450234 -0.1152473 -0.12268826 0.37738025
-0.09416022 -0.41840953 0.0895475 0.1646677 -0.11301742 -0.23337555 -0.1648472 -0.28669035
0.005459873 0.22842 -0.033643007 -0.027717477 -0.45388603 0.1888181 -0.16137958 -0.20636515
0.266632 0.38533118 -0.024427688 -0.33787593 -0.046432823 -0.25238723 0.29193878 0.20478737
-0.22995694 0.3662948 -0.29808873 0.35636342 0.36420843 0.1251485 -0.019652456 0.14807512
0.41110274 0.083770834 0.2745136 0.49466315 -0.47444025 -0.33269927 -0.12310481 0.022046605
0.27806506 0.25754443 -0.3404385 0.27135947 0.23150706 0.0068586827 0.36402884 -0.1629537
0.46413893 -0.08206357 0.4762389 0.1995081 0.31176764 0.42820248 0.17236738 -0.3427984
-0.4159767 0.03483252 -0.27272263 -0.26527342 -0.1291 0.12471014 0.16315757 0.13223979
-0.4504887 0.45720774 -0.37020656 -0.4081116 0.022109326 0.10747496 0.18331122 0.2928036
0.03981201 0.25665337 0.2383032 -0.06516714 0.36779407 -0.26981792 0.14926682 -0.45941925
0.038309038 -0.30433425 -0.07873825 0.18300967 -0.20091158 0.06876378 0.16479094 0.43929923
0.07759648 0.106166296 -0.27914312 0.20778014 -0.14903481 0.19663353 0.11505838 0.04612777
0.2156813 0.46565244 -0.22785477 0.014837858 -0.13179594 0.20519862 -0.2578618 0.18642792
0.4750663 0.25643757 0.27160534 -0.3184421 0.08305934 0.088960774 0.49364397 -0.035681352
-0.091482244 0.35115707 0.20389016 0.1394977 0.08401281 -0.41444272 0.08277809 -0.042602364
-0.26835212 0.12262574 -0.042285956 0.039961375 0.33090952 -0.2610975
00000000: 7c9e 18be 8185 dfbc 5699 e33e 174e 1dbd
00000010: 7ee7 92bd 1663 3b3e f3e7 5a3d 722f f63d
00000020: 7552 f3bd d2ba 6abe 0995 ef3e cb99 823e
00000030: 9265 babe a28d f53d 6c47 893e 5421 abbe
00000040: 514c 863e 86f3 d9be 4909 1d3e bc2a babc
00000050: 62f5 f3bb c706 ecbd fc43 fbbd fc37 c13e
00000060: 13d7 c0bd c639 d6be ae64 b73d a69e 283e
00000070: ad75 e7bd 00fa 6ebe b4cd 28be 14c9 92be
00000080: bce8 b23b efe6 693e 40cd 09bd c30f e3bc
00000090: c063 e8be 8859 413e b040 25be 6351 53be
000000a0: fd83 883e 214a c53e 931c c8bc 13fe acbe
000000b0: 5830 3ebd e638 81be 0079 953e c8b3 513e
000000c0: d579 6bbe fe8a bb3e 169f 98be 4475 b63e
000000d0: 8779 ba3e ee26 003e 30fe a0bc 01a1 173e
000000e0: 0f7c d23e 0b90 ab3d 0c8d 8c3e 7d44 fd3e
000000f0: d5e9 f2be 8f57 aabe 601e fcbd 159b b43c
00000100: 8b5e 8e3e dddc 833e f44d aebe a1ef 8a3e
00000110: 3010 6d3e cdbe e03b fd61 ba3e 56dd 26be
00000120: 9ea3 ed3e f210 a8bd 96d5 f33e da4b 4c3e
00000130: 02a0 9f3e 5b3d db3e 1381 303e 4683 afbe
00000140: e6fa d4be 8bac 0e3d 4da2 8bbe ebd1 87be
00000150: ca32 04be 0868 ff3d c712 273e de69 073e
00000160: 74a6 e6be 2217 ea3e b78b bdbe 01f4 d0be
00000170: 9e1e b53c d51b dc3d f0b5 3b3e 5aea 953e
00000180: eb11 233d 1268 833e c105 743e 5976 85bd
00000190: 814f bc3e 9325 8abe 67d9 183e 0039 ebbe
000001a0: f0e9 1c3d b3d1 9bbe 8541 a1bd e366 3b3e
000001b0: c4bb 4dbe 06d4 8c3d f5be 283e d4eb e03e
000001c0: e7ea 9e3d b76d d93d d9eb 8ebe 51c4 543e
000001d0: 959c 18be 4d5a 493e baa3 eb3d 79f0 3c3d
000001e0: 8fdb 5c3e ff69 ee3e c352 69be 7d1a 733c
000001f0: 84f5 06be 961f 523e 7606 84be f6e6 3e3e
00000200: e43b f33e c94b 833e db0f 8b3e d80a a3be
00000210: 041b aa3d 1131 b63d e7be fc3e 9c26 12bd
00000220: 0b5b bbbd dcca b33e 95c8 503e 7cd8 0e3e
00000230: e80e ac3d d631 d4be 8f87 a93d d17f 2ebd
00000240: 7365 89be 3423 fb3d 0a34 2dbd 8aae 233d
00000250: f96c a93e 92ae 85be

module.net_layers.1.linear_1.weight f4 [150, 150]
-0.0060148956 -0.0046516606 0.0038875353 -0.007406996 0.0039609172 -0.008640154 0.0040623685 0.013839746
0.0039149337 -0.0017769617 -0.00021190332 0.008844066 0.004934389 0.0016034835 0.007821155 -0.008894538
-0.0008261467 -0.0033799268 0.0031187048 0.0053023878 -0.004776301 0.006174544 0.0013697926 -0.008727089
-0.0047779274 -0.0051937387 -0.0021712263 0.0016609613 -0.0029434087 -0.009026548 -0.0037388885 -0.005611714
-0.008112247 0.00257611 0.006144243 0.01252984 0.006713016 -0.007819047 0.0006804249 -0.004040229
0.007886911 -0.007504863 0.005532128 0.0022401002 -0.00067611656 -0.0032508287 -0.0023822428 0.0027641344
0.0072051915 -0.0016566274 -0.004221989 6.195911e-05 -0.00035932186 -0.009162039 -0.0011275271 -0.0013366512
0.010070023 -0.0064128675 0.0047024325 -0.0059534353 -0.00070454675 -0.0012606634 -0.0030691214 -0.001295934
-0.00414214 0.0003896162 0.0060225558 -0.005746274 -0.0026686266 -0.00021115666 -0.0010234569 0.002287883
-0.0045740455 0.0005754884 0.009604335 -0.002868576 0.0016054458 0.00100214 -0.0025598286 0.007202045
0.0013816148 0.0070066922 0.004551004 0.0026602268 -0.004679312 0.0013400628 -0.0073646856 0.0037242428
0.0023043887 -0.0014783047 0.0035073701 -6.552199e-06 -0.00017001975 -0.011460785 -0.006156264 0.0054470114
0.011631276 0.0013530542 0.018534973 0.0062677353 -0.00039203974 0.007906818 0.0014711345 0.007610858
-0.01098841 -0.0013148786 0.001047785 0.0020715962 0.0068298317 -0.0046438957 0.003921311 -0.00023616552
0.0056432616 0.0017944347 0.002158518 0.0029072436 0.017494308 -0.0058100293 0.0004003559 -0.006730573
-0.01650806 -0.00022317212 0.00091954897 0.0050205714 0.006429951 -0.0016696436 -0.0036203198 -0.0083334595
0.010406246 0.0026976117 0.012481529 0.002301293 -0.0028641988 -0.0027117578 -0.0042237393 -0.0008508089
0.0003904077 -0.004751197 0.0022711563 0.00069098285 -0.0010410142 0.0003354427 0.0046207346 0.0011170583
0.0058260127 0.003158694 -0.0034785606 -0.004748773 0.00011328178 0.0019018898 0.00013720538 0.00037190874
-0.0049792915 0.009470737 0.00480195 0.011313555 -0.002841039 -0.008174555 0.004161343 -0.0058864024
-0.0036210734 0.00082451414 -0.0007768476 -0.0020075724 -0.0021147311 0.008027015 -0.0062017716 0.0033837934
-0.008355289 -0.0023462176 0.0058159768 -0.0064257965 0.0065405536 -0.0028242795 0.0032842641 0.0044829897
0.0034147887 0.0061245244 0.0010531917 -0.012085003 -0.0024934546 -0.0025789358 0.0012479785 -0.0012590381
-0.0038047184 0.0045015565 0.00015147055 0.004036109 -0.009836043 -0.0017715358 0.0020226762 -0.008251339
0.0026426243 0.0011582073 -0.005714472 -0.0008627807 0.0033434543 -0.0032689169 -0.004761925 -0.0042707217
0.006476373 0.002562394 0.0005088336 0.004574757 0.00061719184 0.0013747072 0.0018359318 0.0062973206
-0.0036463102 0.0060576624 0.0028681923 0.00045236165 0.00064512447 0.0024961724 0.002074797 -0.0034591819
-0.00493606 0.0032848807 -0.00095924456 0.0028710344 0.003054593 -0.0013718135 0.00028842193 0.001933263
0.008775681 0.001172224 -0.002703572 0.0015076017 0.0009177258 -0.0010278833 0.0007196326 -0.004599579
0.00024735296 0.003577791 0.005605015 0.004698368 0.011197778 0.0024552608 0.004322441 0.0075434
0.0055110687 -0.002257448 0.003756167 0.0017206388 0.0058160215 -0.002944679 0.00021608188 0.002361857
-0.0011272489 0.0034670865 -2.8136341e-05 -0.004172771 -0.008719823 -0.007013095 -0.0052255066 0.0019800547
00000000: 9a18 c5bb f56c 98bb 05c6 7e3b 63b6 f2bb
00000010: 95ca 813b 6f8f 0dbc 9e1d 853b 1ac0 623c
00000020: d848 803b f1e8 e8ba 5d32 5eb9 b4e6 103c
00000030: a8b0 a13b fa2b d23a 4d24 003c 65ba 11bc
00000040: c491 58ba c381 5dbb 2f63 4c3b a7bf ad3b
00000050: 8482 9cbb d453 ca3b 9d8a b33a 10fc 0ebc
00000060: 2990 9cbb 3d30 aabb 224b 0ebb 9db4 d93a
00000070: 34e6 40bb 16e4 13bc 2408 75bb 78e2 b7bb
00000080: 3be9 04bc f4d3 283b a555 c93b f549 4d3c
00000090: dcf8 db3b 761b 00bc 8b5e 323a e663 84bb
000000a0: 1a38 013c 5beb f5bb da46 b53b a5ce 123b
000000b0: 6a3d 31ba db0b 55bb 671f 1cbb 7b26 353b
000000c0: 8719 ec3b 3123 d9ba 9c58 8abb 0bf0 8138
000000d0: 5d63 bcb9 601c 16bc 88c9 93ba 9232 afba
000000e0: bdfc 243c 0823 d2bb dd16 9a3b 0915 c3bb
000000f0: 55b1 38ba d83c a5ba 5023 49bb 54dc a9ba
00000100: caba 87bb 6745 cc39 dc58 c53b 3d4b bcbb
00000110: 20e4 2ebb ef69 5db9 8425 86ba 4ff0 153b
00000120: e0e1 95bb 5fdc 163a 805b 1d3c b8fe 3bbb
00000130: d26d d23a 3d5a 833a ccc2 27bb 22ff eb3b
00000140: 4d17 b53a 6598 e53b 9720 953b 3357 2e3b
00000150: ea54 99bb 0ca5 af3a 7653 f1bb 6d12 743b
00000160: 3a05 173b adc3 c1ba e8db 653b f6da dbb6
00000170: 5447 32b9 04c6 3bbc 7cba c9bb d87c b23b
00000180: 1c91 3e3c f758 b13a a8d6 973c 9361 cd3b
00000190: af8a cdb9 998b 013c 15d3 c03a 8164 f93b
000001a0: bb08 34bc 0158 acba d555 893a 9ec3 073b
000001b0: c8cc df3b d22b 98bb 577e 803b 33a3 77b9
000001c0: 1ceb b83b 3d33 eb3a ec75 0d3b 7487 3e3b
000001d0: 3950 8f3c 0f62 bebb dce6 d139 238c dcbb
000001e0: e93b 87bc 4f03 6ab9 e30d 713a 9b83 a43b
000001f0: 57b2 d23b f1d7 daba e342 6dbb 1089 08bc
00000200: f67e 2a3c 6aca 303b 547f 4c3c 4ad1 163b
00000210: 48b5 3bbb bfb7 31bb 4b67 8abb d208 5fba
00000220: a2af cc39 eeaf 9bbb aed7 143b 1323 353a
00000230: a472 88ba 5bde af39 8869 973b 426a 923a
00000240: 23e8 be3b 1702 4f3b 90f8 63bb 989b 9bbb
00000250: b191 ed38 d548 f93a cade 0f39 bffc c239
00000260: 5329 a3bb 262b 1b3c ad59 9d3b 7d5c 393c
00000270: ba30 3abb 92ee 05bc e05b 883b b9e2 c0bb
00000280: 884f 6dbb 3524 583a 5ca5 4bba 7a91 03bb
00000290: 4d97 0abb be83 033c 3b38 cbbb a2c2 5d3b
000002a0: 9fe4 08bc 00c3 19bb f393 be3b 7d8f d2bb
000002b0: 2452 d63b 8c17 39bb cf3c 573b 0be6 923b
000002c0: a6ca 5f3b 3cb0 c83b 400b 8a3a 2d00 46bc
000002d0: 3a69 23bb 5d03 29bb 3693 a33a 4f06 a5ba
000002e0: 9558 79bb cb81 933b 11d4 1e39 5641 843b
000002f0: 5b27 21bc e132 e8ba e08e 043b a030 07bc
00000300: e12f 2d3b fdce 973a 7740 bbbb 3c2c 62ba
00000310: db1d 5b3b 533b 56bb ec09 9cbb 69f1 8bbb
00000320: c137 d43b d6ed 273b 3f63 053a d8e7 953b
00000330: 0bcb 213a 852f b43a a6a3 f03a c159 ce3b
00000340: eff6 6ebb 5b7f c63b 48f8 3b3b f42a ed39
00000350: 921d 293a d396 233b 51f9 073b 71b3 62bb
00000360: acbe a1bb 2747 573b d075 7bba f727 3c3b
00000370: 912f 483b 6cce b3ba 5637 9739 8b65 fd3a
00000380: e0c7 0f3c 4fa5 993a 692e 31bb b89a c53a
00000390: 8993 703a 0aba 86ba baa5 3c3a 11b8 96bb
000003a0: 27af 8139 5f79 6a3b 46aa b73b c4f4 993b
000003b0: e376 373c 71e8 203b 43a3 8d3b a02e f73b
000003c0: 3296 b43b b1f1 13bb 062a 763b 0f87 e13a
000003d0: 5394 be3b 84fb 40bb 0a94 6239 63c9 1a3b
000003e0: 32c0 93ba 0f38 633b 5506 ecb7 bdbb 88bb
000003f0: 97dd 0ebc 1bce e5bb ba3a abbb cec3 013b

module.net_layers.1.linear_1.bias f4 [150]
0.026493164 0.06449896 -0.031427976 -0.0703102 -0.04743189 -0.078994796 0.07498649 0.063106686
-0.05490828 0.0029102955 0.044849854 -0.050523657 0.049440183 -0.010744099 -0.07449153 0.01488305
-0.05821452 0.035040226 0.07726746 0.028841803 0.037682064 0.051234122 -0.038112335 -0.0783052
-0.07387988 -0.07469678 0.0021757784 0.060193196 0.040688265 0.024497919 0.00538662 -0.06151994
0.074631296 0.08013362 0.06523916 -0.042841084 0.015004045 0.0027421408 0.06864291 -0.058912806
0.006813627 0.0257482 0.020948257 -0.021367988 0.0003070483 -0.04492036 0.06728391 0.0017240759
0.021943301 -0.04691864 -0.011066787 -0.037941303 0.03814096 -0.06525351 -0.06463247 0.06189859
0.039343227 -0.06346504 -0.07874431 0.060111575 0.048583582 -0.024659676 -0.06302655 -0.081135444
-0.0011107482 -0.024955826 -0.050627477 -0.0137200495 -0.039625607 -0.022714641 -0.009499827 -0.082408965
-0.05570976 -0.040787563 0.012126905 0.03154928 -0.052801475 -0.039730262 -0.035145942 0.03958774
-0.024613416 0.07967285 0.022691138 0.07011183 -0.06285125 -0.01733211 -0.042824 0.0804779
-0.053047284 0.00652107 -0.0006111245 0.025943689 3.3073156e-05 0.01848894 -0.06972683 0.0025045527
-0.052493114 -0.05245361 0.059960462 -0.030979933 -0.021851504 0.0038426586 0.025427679 -0.07591895
0.071002804 0.019526845 0.030946271 -0.0642692 -0.037207443 0.037093926 -0.08041034 -0.032407895
-0.012512905 0.01641353 0.014958209 0.014974754 0.035910346 -0.037029203 0.05483184 0.012968551
-0.03315673 0.008964785 0.040025383 -0.04094684 -0.064246684 -0.042726997 0.06921873 0.051369607
0.04805056 0.040816728 -0.025042308 -0.05053545 0.041047595 -0.047375605 -0.028506717 0.015194755
-0.06363448 0.037516646 -0.051142666 -0.026301302 -0.024977256 0.052666806 0.014334261 -0.02317449
-0.0061381683 -0.0047916435 0.056925442 0.06602425 -0.0394659 0.063673
00000000: 3108 d93c 0818 843d 9fba 00bd cbfe 8fbd
00000010: f147 42bd 06c8 a1bd 8492 993d 143e 813d
00000020: 81e7 60bd a8ba 3e3b 7bb4 373d e5f1 4ebd
00000030: ca81 4a3d 0408 30bc 048f 98bd 09d8 733c
00000040: 5972 6ebd 5786 0f3d 673e 9e3d a545 ec3c
00000050: 8258 1a3d dfda 513d ae1b 1cbd 7a5e a0bd
00000060: 564e 97bd a0fa 98bd 8197 0e3b 248d 763d
00000070: bda8 263d dcaf c83c 3e82 b03b 55fc 7bbd
00000080: 4bd8 983d 181d a43d 1c9c 853d 227a 2fbd
00000090: 87d3 753c 7db5 333b a794 8c3d 8e4e 71bd
000000a0: d944 df3b e4ed d23c ae9b ab3c eb0b afbc
000000b0: 53fb a039 69fe 37bd 26cc 893d 63fa e13a
000000c0: 70c2 b33c c32d 40bd 7851 35bc 5768 1bbd
000000d0: b239 1c3d a2a3 85bd 075e 84bd 6089 7d3d
000000e0: 5d26 213d f5f9 81bd b244 a1bd 8e37 763d
000000f0: 94ff 463d 1703 cabc 1014 81bd 572a a6bd
00000100: 8696 91ba 2970 ccbc c25e 4fbd 0fca 60bc
00000110: 764e 22bd 0e14 babc 2aa5 1bbc 08c6 a8bd
00000120: eb2f 64bd dc10 27bd edaf 463c d139 013d
00000130: 5c46 58bd 33bc 22bd 31f5 0fbd c126 223d
00000140: 13a2 c9bc 852b a33d c4e2 b93c cb96 8f3d
00000150: 28b8 80bd 12fc 8dbc 3868 2fbd 99d1 a43d
00000160: 1c48 59bd b3ae d53b df33 20ba dc87 d43c
00000170: 08b8 0a38 1e76 973c f1cc 8ebd 6c23 243b
00000180: 0503 57bd 99d9 56bd 1a99 753d a1c9 fdbc
00000190: ed01 b3bc 1dd5 7b3b b54d d03c 657b 9bbd
000001a0: eb69 913d c3f6 9f3c 0983 fd3c 929f 83bd
000001b0: d566 18bd cdef 173d 2dae a4bd 24be 04bd
000001c0: ed02 4dbc ab75 863c 4713 753c ac58 753c
000001d0: ba16 133d efab 17bd 5a97 603d 0c7a 543c
000001e0: 5acf 07bd 09e1 123c a8f1 233d e0b7 27bd
000001f0: c493 83bd 8102 2fbd 8dc2 8d3d f068 523d
00000200: aad0 443d 712f 273d 8725 cdbc 43fe 4ebd
00000210: 8621 283d ec0c 42bd eb86 e9bc 6cf3 783c
00000220: cb52 82bd 0eab 193d f97a 51bd d475 d7bc
00000230: 1a9d ccbc 26b9 573d 40da 6a3c 6ed8 bdbc
00000240: b022 c9bb 3803 9dbb a72a 693d b937 873d
00000250: ffa6 21bd fd66 823d

module.net_layers.1.linear_2.weight f4 [150, 150]
-0.0049815923 -0.0047775456 0.0014802341 -0.0053299502 -0.0023299404 0.004437664 -0.0030635719 -0.008843271
-0.0028431243 -0.00439231 0.0046636537 0.0037799813 0.0023180253 0.0028379508 -0.0064813574 -0.0016743732
0.0062127677 0.0023978013 0.005447359 -0.002393277 -0.0023575216 0.003834553 -0.001191676 0.0011924626
0.0016496074 0.0048051802 0.0051115393 -0.004265301 0.003183244 -0.0079835495 0.0039955843 0.004431621
-0.0014847791 0.0047045187 -0.008359825 -0.0029240954 -0.0035905666 -0.0035541998 0.0025609024 -0.0010797048
-0.006171076 0.0031572161 0.012028152 -0.0061858557 -0.0009827117 0.0020540364 0.0065864064 -0.011749568
-0.0023553038 -0.007042773 0.005688227 -0.0033112622 -0.009644484 -0.006421654 0.0045738835 -0.0026297173
-0.0006457659 0.002661456 0.0036865468 0.003079892 -0.009018279 0.004526583 -0.0005525314 0.0002422841
0.0045492845 0.0012181795 -0.003987691 -0.010512783 0.0011988663 0.005138703 -0.0026602042 0.00047464247
-0.0036712582 -0.0033578759 0.0022278735 0.0031797108 0.005796438 0.0081439 -0.0011052785 0.0040267487
0.009421039 0.003467433 -0.008355513 -0.0017392159 -0.0017257829 -0.000121467 -0.0031906862 -0.0061037196
0.005943964 0.0012840041 0.006582576 0.005057064 0.011265678 -0.003721641 -0.0035006464 -0.0016886911
-0.009834836 -0.003103899 0.00065309106 -0.0015279714 0.010230898 -0.0038228936 0.0029526816 0.0020202561
-0.005513421 -0.009421906 -0.0011309778 -0.0075521925 -0.0009429438 0.0014713046 -0.0040618787 0.0036093737
-0.0022907539 -0.0065519772 0.0030248894 0.0009707827 -0.008013431 0.003619228 0.00881026 -0.009887433
0.002595067 -0.0026122457 0.0035623075 0.0034261525 -0.0034203473 0.0049965074 -0.0009504768 0.0029234071
-0.001323176 -0.00086142035 -0.0019016264 0.0020979652 0.013722396 -0.0019168326 0.0022433198 0.0070345188
-0.00011652617 -0.0016605973 0.001669407 -0.004675079 -0.0021635643 -0.0028065792 0.004308581 0.0015139293
0.0061661806 0.0012805302 -0.0031393867 -0.0034024525 0.0058175167 -0.0050616735 -0.0023369384 0.0002531653
0.0029983171 0.0018752367 0.002162616 -0.002173362 0.0033286605 0.00019942319 -0.004904957 0.0027210494
-0.0009031533 0.0009980227 -0.001820625 0.004358115 -0.0036358046 0.003259053 -0.0011792703 0.001636844
0.0040987283 -0.008729332 0.0005202742 -0.00536289 -0.0028137802 0.0042660357 -0.010030851 -0.0055271694
0.0005465814 0.00033007396 0.0035373517 -0.0008665889 0.0029328621 -0.009065693 -0.0002408691 -0.0055017006
-0.009575568 -0.002637177 -0.009299498 0.008084722 -0.0061011645 -0.004771667 -0.002415146 0.0012449182
-0.005193302 -0.0056336685 0.006364893 -0.004992215 0.007895922 -0.008165559 -0.006917914 -0.0013975672
0.004077557 0.0015793659 0.0008302097 0.005150561 -0.0053100833 0.0010600255 -0.003036064 0.0061872546
-0.0036757588 -0.00067682785 -0.0007928474 0.0063132793 -0.0035660227 0.0028570679 -0.0008228238 -0.0015997412
-0.0031125334 5.4481014e-05 0.0047311024 0.00013848346 0.00037740738 -0.007470037 0.0038658788 0.002561103
-0.0016097374 0.0022808902 -0.0019867248 0.0049971533 -0.005682145 -0.0018753937 0.00084420806 -0.0006065479
0.009487526 0.002645901 -0.00018284073 0.0082488675 0.0019266892 0.0060813623 -0.004761017 0.0026553052
0.0025572486 -0.0058145975 -0.0030030776 0.0059279916 -0.0018140511 0.005548658 -0.0072590755 -0.0025058019
0.00204381 0.0048549348 0.0050733867 0.0033283262 -0.00040688834 0.0013407639 -0.0036037208 0.00030093433
00000000: a03c a3bb f58c 9cbb 6a04 c23a dda6 aebb
00000010: eab1 18bb d369 913b 35c6 48bb 5ee3 10bc
00000020: b653 3abb 5eed 8fbb 90d1 983b 90b9 773b
00000030: 03ea 173b eafc 393b 9161 d4bb a476 dbba
00000040: 7994 cb3b 6e24 1d3b c27f b23b 86d8 1cbb
00000050: a680 1abb 204d 7b3b 0332 9cba 684c 9c3a
00000060: a437 d83a c674 9d3b b37e a73b f0c3 8bbb
00000070: f99d 503b 6fcd 02bc 64ed 823b 2237 913b
00000080: eb9c c2ba 5d28 9a3b a6f7 08bc 2ea2 3fbb
00000090: b64f 6bbb 94ed 68bb d0d4 273b e284 8dba
000000a0: bd36 cabb 4ce9 4e3b ba11 453c b8b2 cabb
000000b0: 55ce 80ba 039d 063b c8d2 d73b 4381 40bc
000000c0: 715b 1abb 10c7 e6bb 4e64 ba3b c301 59bb
000000d0: e603 1ebc bd6c d2bb 84e0 953b 5657 2cbb
000000e0: 9e48 29ba d26b 2e3b fe99 713b 03d8 493b
000000f0: 67c1 13bc bb53 943b c1d7 10ba a50d 7e39
00000100: 2a12 953b 52ab 9f3a 2dab 82bb cf3d 2cbc
00000110: 4723 9d3a 9162 a83b d256 2ebb 6fd9 f839
00000120: 7e99 70bb cf0f 5cbb 8401 123b b262 503b
00000130: 0cf0 bd3b fe6d 053c fede 90ba d1f2 833b
00000140: b45a 1a3c df3d 633b 90e5 08bc 67f6 e3ba
00000150: aa33 e2ba 19bc feb8 d51a 51bb b601 c8bb
00000160: 95c5 c23b 074c a83a a6b2 d73b bab5 a53b
00000170: ae93 383c c6e6 73bb 1a6b 65bb 1257 ddba
00000180: 4b22 21bc c96a 4bbb 3334 2b3a 3646 c8ba
00000190: 7f9f 273c 8389 7abb c781 413b 4666 043b
000001a0: eda9 b4bb 575e 1abc 513d 94ba 6278 f7bb
000001b0: e32f 77ba cad8 c03a 8219 85bb 3e8b 6c3b
000001c0: 7920 16bb f8b1 d6bb 393d 463b 207c 7e3a
000001d0: c44a 03bc 9230 6d3b e958 103c e6fe 21bc
000001e0: 0012 2a3b 3632 2bbb 9a75 693b 4d89 603b
000001f0: e827 60bb beb9 a33b 6b29 79ba a296 3f3b
00000200: 6b6e adba f1d0 61ba fe3f f9ba 047e 093b
00000210: e7d3 603c 3b3e fbba a904 133b d281 e63b
00000220: 835f f4b8 66a8 d9ba 01d0 da3a 6831 99bb
00000230: 96ca 0dbb 96ee 37bb ff2e 8d3b 0a6f c63a
00000240: ac0d ca3b 77d7 a73a 2bbe 4dbb aefb 5ebb
00000250: dea0 be3b 65dc a5bb 5227 19bb 45bb 8439
00000260: 6a7f 443b 81ca f53a adba 0d3b f76e 0ebb
00000270: a825 5a3b 411c 5139 c3b9 a0bb a253 323b
00000280: 98c1 6cba 16d0 823a 0aa2 eeba 85ce 8e3b
00000290: ae46 6ebb d695 553b bf91 9aba 5f8b d63a
000002a0: a04e 863b 7905 0fbc 0363 083a 2fbb afbb
000002b0: 6667 38bb 1aca 8b3b 7058 24bc 421d b5bb
000002c0: 7548 0f3a c70d ad39 ead2 673b cc2b 63ba
000002d0: 4335 403b 4688 14bc cf91 7cb9 9c47 b4bb
000002e0: d8e2 1cbc 7dd4 2cbb ec5c 18bc c875 043c
000002f0: 47ec c7bb a55b 9cbb 6d47 1ebb 862c a33a
00000300: 932c aabb a39a b8bb 9890 d03b bc95 a3bb
00000310: e65d 013c d6c8 05bc abaf e2bb 932e b7ba
00000320: 079d 853b ba02 cf3a 6ea2 593a 0ac6 a83b
00000330: 3500 aebb 8ef0 8a3a b4f8 46bb 74be ca3b
00000340: 00e5 70bb 266d 31ba 17d7 4fba a0df ce3b
00000350: efb3 69bb a53d 3b3b c5b2 57ba 68ae d1ba
00000360: a5fb 4bbb 8b82 6438 5d07 9b3b df35 1139
00000370: c3de c539 36c7 f4bb af5a 7d3b 2ed8 273b
00000380: d3fd d2ba fd7a 153b b633 02bb 29bf a33b
00000390: 4931 babb c5cf f5ba d84d 5d3a be00 1fba
000003a0: 9171 1b3c da66 2d3b efb8 3fb9 4226 073c
000003b0: f688 fc3a 2a46 c73b 4e02 9cbb a104 2e3b
000003c0: 8397 273b 6188 bebb 48cf 44bb 993f c23b
000003d0: 74c5 edba 84d1 b53b 8add edbb 6138 24bb
000003e0: 71f1 053b 2516 9f3b a73e a63b 0c20 5a3b
000003f0: a153 d5b9 92bc af3a 672c 6cbb b9c6 9d39

module.net_layers.1.linear_2.bias f4 [150]
-0.016619958 -0.05901527 -0.020474058 0.054536536 0.009360808 0.0276678 -0.07462552 0.03172466
-0.04502701 0.05634806 0.07167088 0.018074926 0.06725156 -0.06339921 -0.06591794 -0.026197046
-0.048021663 0.036181845 -0.07612324 0.040739242 -0.026155824 -0.028804779 -0.04638502 -0.011682125
-0.02334438 0.07982083 -0.026896544 -0.0003357427 0.061154112 0.044703294 -0.08005684 -0.06273637
-0.06310874 0.0729573 -0.049546886 -0.025160367 0.010321748 -0.055448107 -0.061070826 0.06974312
-0.017303657 0.0269322 -0.01884592 -0.020375095 -0.04007612 -0.075401545 0.071977034 -0.037677206
0.05613297 -0.072456084 0.023506705 -0.04885286 0.028468063 0.006633674 0.05897611 0.06934486
0.07359856 0.060496666 0.035176493 -0.0532612 0.08065136 -0.072149284 -0.07397614 0.051035695
0.0025115968 0.042192925 0.054767586 0.015860407 0.024431942 0.026709804 -0.06366852 0.026759345
0.0077858283 -0.0009798583 0.07185178 -0.07888019 -0.037066672 0.041176084 0.03305688 -0.03899036
-0.027936423 -0.02395884 0.015244133 -0.006851844 -0.07419397 -0.004561701 -0.01221136 -0.08045784
0.036255237 0.0660969 -0.07285845 -0.019555539 -0.005483904 0.0030497327 0.060279302 -0.07238559
-0.029672889 0.0267779 -0.061566014 -0.01909652 0.055838685 -0.060982514 0.07313288 0.037532985
-0.003120861 0.048088208 -0.045854863 -0.038990524 -0.0019365688 8.698102e-05 0.042051304 -0.03155734
0.017634638 0.08197075 0.0684448 0.03457341 0.014616811 -0.053482022 0.019296883 -0.076494046
0.08421406 -0.055681925 0.018041605 -0.046512168 0.05301585 0.043924484 0.0069905245 0.05341619
0.01711787 -0.053055204 0.02814231 -0.01811014 0.056926206 -0.012269519 -0.07244124 0.041060552
-0.058249936 0.012091768 -0.04313949 0.00983852 -0.01647093 0.046223562 -0.04206085 -0.05570052
-0.022672826 0.0042527737 -0.013743052 -0.026862858 -0.06458067 -0.0021304647
00000000: 9426 88bc ffb9 71bd 36b9 a7bc b461 5f3d
00000010: 135e 193c 95a7 e23c 44d5 98bd b8f1 013d
00000020: 3e6e 38bd 39cd 663d 2fc8 923d de11 943c
00000030: 30bb 893d 72d7 81bd fcff 86bd 309b d6bc
00000040: 5db2 44bd 6a33 143d 80e6 9bbd 31de 263d
00000050: bd44 d6bc 00f8 ebbc 38fe 3dbd 6266 3fbc
00000060: b73c bfbc 1a79 a33d 2456 dcbc 9f06 b0b9
00000070: bc7c 7a3d cd1a 373d d7f4 a3bd ed7b 80bd
00000080: 283f 81bd a36a 953d adf1 4abd 1d1d cebc
00000090: 8d1c 293c 8e1d 63bd 6725 7abd 7bd5 8e3d
000000a0: 66c0 8dbc eba0 dc3c c262 9abc ace9 a6bc
000000b0: dc26 24bd 206c 9abd b268 933d 6a53 1abd
000000c0: afeb 653d db63 94bd 2291 c03c f019 48bd
000000d0: db35 e93c 4a5f d93b ef90 713d ae04 8e3d
000000e0: d8ba 963d 5acb 773d 3a15 103d 6b28 5abd
000000f0: 8a2c a53d 01c3 93bd cd80 97bd ce0a 513d
00000100: 9a99 243b 7dd2 2c3d fa53 603d afed 813c
00000110: 7f25 c83c 85ce da3c a464 82bd 6a36 db3c
00000120: 4320 ff3b 976e 80ba 0727 933d f08b a1bd
00000130: 39d3 17bd 41a8 283d a766 073d 5bb4 1fbd
00000140: edda e4bc 5445 c4bc 87c2 793c 6f85 e0bb
00000150: 02f3 97bd 527a 95bb 2812 48bc 14c7 a4bd
00000160: 5f80 143d d05d 873d d036 95bd f032 a0bc
00000170: 52b2 b3bb 06de 473b 6ee7 763d e53e 94bd
00000180: 8f14 f3bc 545d db3c a52c 7cbd 4e70 9cbc
00000190: 1bb7 643d cdc8 79bd b1c6 953d 30bc 193d
000001a0: 5c87 4cbb 24f8 443d 4fd2 3bbd 87b4 1fbd
000001b0: 77d4 fdba 9469 b638 fd3d 2c3d 4542 01bd
000001c0: 8476 903c 48e0 a73d ca2c 8c3d d99c 0d3d
000001d0: 597b 6f3c f70f 5bbd 7f14 9e3c e9a8 9cbd
000001e0: 6c78 ac3d bb12 64bd fdcb 933c 8b83 3ebd
000001f0: 2627 593d 29ea 333d c510 e53b efca 5a3d
00000200: c63a 8c3c 6a50 59bd b48a e63c b75b 94bc
00000210: 742b 693d 1806 49bc 135c 94bd 1c2f 283d
00000220: 7c97 6ebd 8d1c 463c 09b3 30bd be31 213c
00000230: 0bee 86bc eb54 3d3d ff47 2cbd 3a26 64bd
00000240: 5dbc b9bc da5a 8b3b 8a2a 61bc 7f0f dcbc
00000250: df42 84bd 449f 0bbb

module.net_layers.2.linear_1.weight f4 [150, 150]
0.0021074086 0.0032734156 0.0038880312 -0.0065630353 0.0049266824 -0.008650557 -0.001999244 0.010136521
0.00953589 -0.013936924 0.004083223 -0.00012782693 0.0065793646 0.0016964615 0.0073844395 -0.0017660336
0.0028055152 -0.0059560486 0.0051733823 -0.008295487 0.0024629405 0.0021602367 -0.0065011624 0.00030627067
-0.0020144081 0.0017279645 -0.0063540167 2.058259e-05 0.00285766 0.0030652396 0.0017915333 -0.0052911784
-0.0036497475 0.0055562323 0.007506851 0.0015223196 -0.0012729423 -0.0049777655 0.0038661144 -0.00074985967
0.009782328 -0.0027917654 0.007110941 -0.0011552039 0.001026063 -8.486325e-05 -0.0023767252 -0.0037378585
-0.0008082005 -0.005397056 -0.010205356 0.001940171 -0.0064335032 0.0034499078 -0.0055319807 0.0075091063
-0.0048141107 0.001960936 0.0035760915 0.00094343163 -0.006354171 -0.0034505073 -0.0040178318 0.0039546527
-0.007026849 -0.0047226334 -0.0005068791 -0.0006178073 -0.002035554 -0.0008396062 0.0013753918 0.0027322744
-0.000519606 0.0028573424 -0.0019693049 -0.0046283305 -0.0004215 0.007720415 -0.0031232617 0.0023047565
0.007135997 -0.002750066 -2.1598823e-06 0.0018737238 -0.0052818772 -0.007082262 -0.011196231 -0.00081655994
-0.006019828 -0.009181069 0.003826246 -0.0062795463 -0.006635453 -0.00396036 -0.004609879 0.006317096
0.009666843 -0.002815194 0.00592553 -0.0032161947 0.0014827775 -0.00020514971 -0.0010345769 -0.0028406284
0.0055901133 -0.0013373037 -0.007793476 -0.0026129477 -0.00061913487 -0.0028671748 0.003601014 0.002167531
0.0039641666 0.0035186203 -0.0004636041 0.0035914634 0.000856834 0.0031613882 -0.0029171335 -0.0069198455
0.0058247936 -0.0037185305 0.0039248643 -0.0025896395 -0.014210696 -0.0018550082 0.0024903342 0.000344877
0.0024381406 0.0026605593 -0.00029005753 -0.010624876 0.00068622467 -0.0014583247 -0.007733519 -0.001328478
0.013922953 0.00052421115 8.192215e-05 -0.0021613906 0.006782781 -0.00035109496 -0.005605026 0.0015838703
0.005661582 -0.0039340598 0.002350185 -0.002602496 0.0028888276 0.0021749903 -0.0013937976 -0.007880932
0.0016522211 0.0006930392 -0.003201418 0.004812367 -0.0017237838 -0.002948242 -0.0003278669 0.0037359488
-0.0011272323 0.0019135298 -0.0020936532 0.0020822699 -0.002871318 0.002897033 0.00028372876 0.0011625433
-0.010077623 -0.0028151476 0.002361242 0.0070281276 0.0018006703 0.004368382 -0.0031134551 -0.0068861227
-0.0011464956 -0.006364541 -0.001344843 -0.005055766 -0.006481004 -0.0058096615 -0.0037719626 -0.0005850092
0.0042969356 -0.0008578241 -0.002312977 0.0010379894 -0.0048689703 0.004050575 -0.004632283 0.0009805036
0.0064678616 -0.0034693957 -0.0007503028 0.006871458 0.0038216112 0.007659569 -0.0011905042 0.00026506043
0.00033569598 -0.0002675053 0.00043948556 -0.009407381 0.006352662 -0.00386901 -0.0008808509 -0.0047455095
-0.0020164794 -0.00016676188 -0.0059689716 0.0059461915 0.0011518194 0.0015093985 -0.00046211985 -0.0027653761
-0.0048139836 0.0023639442 0.0041369274 -0.002065385 0.008792079 -0.0034321626 5.227826e-05 -0.006622169
-0.00020695804 0.0101254685 0.001913216 -0.006380142 0.0066605685 0.0028351403 0.0062228483 -0.003412782
0.0058382447 -0.0012501044 -0.0040291683 0.00029018545 0.0064109266 0.004791513 0.0017277383 -0.001182524
-0.0011651454 -0.0049648937 0.0032920896 0.005462128 -0.008153914 -0.009931028 0.0037487631 0.0056945886
-0.0015537414 -0.0057819816 0.0029232039 0.0020186969 0.006690359 -0.007450273 9.687671e-05 -0.0048837895
00000000: 731c 0a3b cd86 563b 57ce 7e3b bb0e d7bb
00000010: 0270 a13b 11bb 0dbc c005 03bb a713 263c
00000020: 6c3c 1c3c b257 64bc 8fcc 853b 4809 06b9
00000030: b697 d73b cd5b de3a 2bf9 f13b 417a e7ba
00000040: bcdc 373b f52a c3bb 7a85 a93b cbe9 07bc
00000050: 4969 213b c292 0d3b b407 d5bb f492 a039
00000060: 2904 04bb de7c e23a 5b35 d0bb c7a8 ac37
00000070: 9447 3b3b 30e2 483b e2d1 ea3a 9f61 adbb
00000080: 9a30 6fbb 0e11 b63b 08fc f53b 9288 c73a
00000090: dbd8 a6ba 861c a3bb a35e 7d3b 3b92 44ba
000000a0: 0f46 203c 0df6 36bb e602 e93b 366a 97ba
000000b0: f67c 863a 9cf8 b1b8 d5c2 1bbb dcf6 74bb
000000c0: 6bdd 53ba cad9 b0bb 5e34 27bc 564d fe3a
000000d0: 23d0 d2bb d917 623b 9e45 b5bb f30e f63b
000000e0: b0bf 9dbb 0c83 003b dc5c 6a3b a050 773a
000000f0: a636 d0bb e821 62bb 04a8 83bb 0896 813b
00000100: 7b41 e6bb 52c0 9abb 15e0 04ba 59f4 21ba
00000110: ee66 05bb 0519 5cba 7e46 b43a f50f 333b
00000120: 2b36 08ba 4042 3b3b 740f 01bb 40a9 97bb
00000130: c6fc dcb9 89fb fc3b a3af 4cbb 660b 173b
00000140: 15d5 e93b 743a 34bb 7ff2 10b6 bd97 f53a
00000150: 9913 adbb 5212 e8bb 6570 37bc 690e 56ba
00000160: fa41 c5bb 326c 16bc c1c1 7a3b a7c4 cdbb
00000170: 376e d9bb e8c5 81bb 780e 97bb a4ff ce3b
00000180: ae61 1e3c 1e7f 38bb f32a c23b cbc6 52bb
00000190: c259 c23a 751d 57b9 a49a 87ba d629 3abb
000001a0: 452d b73b 7748 afba 6a60 ffbb fd3d 2bbb
000001b0: 704d 22ba 36e7 3bbb fdfe 6b3b 230d 0e3b
000001c0: d7e5 813b a798 663b e40f f3b9 c25e 6b3b
000001d0: 289d 603a 4b2f 4f3b 612d 3fbb dfbf e2bb
000001e0: e9dd be3b 97b2 73bb 269c 803b f1b6 29bb
000001f0: fbd3 68bc bf23 f3ba e034 233b 9bd0 b439
00000200: 36c9 1f3b c75c 2e3b dd12 98b9 f613 2ebc
00000210: c2e3 333a 4225 bfba 7669 fdbb 5320 aeba
00000220: 191d 643c 376b 093a 9fcd ab38 1ea6 0dbb
00000230: 1742 de3b 2b13 b8b9 5eaa b7bb de99 cf3a
00000240: cb84 b93b 49e9 80bb 9005 1a3b a38e 2abb
00000250: 7c52 3d3b 488a 0e3b 16b0 b6ba 061f 01bc
00000260: 578f d83a 13ad 353a e2ce 51bb 0fb1 9d3b
00000270: 96f0 e1ba 4b37 41bb 8de5 abb9 d2d6 743b
00000280: a4bf 93ba 68cf fa3a ac35 09bb b176 083b
00000290: b92c 3cbb 26dc 3d3b 6ec1 9439 7b60 983a
000002a0: 9d1c 25bc 577e 38bb 11bf 1a3b 354c e63b
000002b0: 7804 ec3a a524 8f3b 1c0b 4cbb fca4 e1bb
000002c0: 0246 96ba a48d d0bb 7145 b0ba d7aa a5bb
000002d0: 9a5e d4bb f95e bebb 0833 77bb 4e5b 19ba
000002e0: 4fcd 8c3b 9adf 60ba 5195 17bb 250d 883a
000002f0: e28b 9fbb b0ba 843b 68ca 97bb 3e84 803a
00000300: 5bf0 d33b cd5e 63bb f8af 44ba f829 e13b
00000310: ff73 7a3b 1ffd fa3b b10a 9cba cff7 8a39
00000320: 5a00 b039 f43f 8cb9 c16a e639 6a21 1abc
00000330: fe29 d03b 378f 7dbb e7e8 66ba 3880 9bbb
00000340: e926 04bb cddc 2eb9 5d97 c3bb 45d8 c23b
00000350: a5f8 963a 02d7 c53a ad48 f2b9 503b 35bb
00000360: 9fbe 9dbb 67ec 1a3b 108f 873b 695b 07bb
00000370: a70c 103c 22ee 60bb 5b45 5b38 c8fe d8bb
00000380: e002 59b9 4be5 253c e0c4 fa3a 8310 d1bb
00000390: e640 da3b c3cd 393b 09e9 cb3b fba8 5fbb
000003a0: bf4e bf3b 8bda a3ba 1d07 84bb 0824 9839
000003b0: c012 d23b 2002 9d3b 4775 e23a ecfe 9aba
000003c0: cbb7 98ba 8cb0 a2bb 19c0 573b a7fb b23b
000003d0: fe97 05bc c0b5 22bc cfad 753b ac99 ba3b
000003e0: e9a6 cbba c776 bdbb 3993 3f3b 1d4c 043b
000003f0: cd3a db3b 6b21 f4bb 4a2a cb38 3208 a0bb

module.net_layers.2.linear_1.bias f4 [150]
0.049066138 -0.07608179 -0.025706531 -0.00015814249 -0.06996622 0.065742746 -0.073208615 -0.074623376
0.0014727311 -0.06352643 -0.067992404 -0.06780693 -0.073277764 -0.04955726 0.033699326 -0.015339429
-0.03898971 0.03319981 -0.046164606 0.033432003 0.0737075 -0.056907505 0.024479985 -0.06762686
-0.0048444145 0.07709687 0.021521993 -0.004921724 -0.071283594 0.028660813 -0.058049407 0.07544529
-0.071089596 -0.021877918 0.04920143 -0.050714213 0.047567975 -0.014677535 -0.01955916 -0.06569479
0.054596446 0.07069995 -0.034232162 0.014641222 -0.017687155 -0.058331482 -0.08289461 0.08451146
0.08050347 0.05892349 0.008709996 -0.013153621 0.01307861 -0.027981771 -0.048364017 0.04794268
0.025805486 0.050744124 0.014412526 0.06855407 -0.07728162 0.040594388 -0.007916772 0.05238804
-0.04757232 -0.0047892556 0.041221093 -0.07010245 0.02315674 -0.0013521992 -0.045082964 0.00077827234
0.078566335 0.06440335 0.03171575 -0.02415186 0.07861401 0.06035699 0.02161375 0.021133458
-0.08183051 0.011521874 -0.009984612 0.014707324 0.0684456 0.072690316 -0.05019076 -0.032620855
0.010553344 -0.06338319 -0.08480789 -0.006713796 -0.06262241 0.009270246 0.036001034 -0.05415061
0.047923807 0.0343858 0.00871124 0.06826304 0.051506553 -0.03737156 0.0020694267 0.07424265
0.044783108 0.076726265 0.0484024 0.009289246 -0.0029312158 -0.047700997 0.045876343 -0.02966439
-0.07297304 -0.08004176 0.058426816 0.03679539 -0.010651646 -0.06169049 0.05199429 0.046405062
0.07550091 -0.0062588854 -0.042007186 -0.009425813 0.07034106 0.023180075 0.023595106 0.046886895
-0.023479719 0.044968292 -0.017856129 0.07552934 0.08046985 -0.048526734 0.004320189 0.0820556
-0.0032583997 0.015502221 -0.008234542 0.07864341 0.022771327 -0.03726165 -0.060957655 -0.01028193
-0.034942295 -0.08169435 0.042689994 -0.014586788 -0.04238839 -0.049104188
00000000: 93f9 483d c5d0 9bbd 8196 d2bc 0dd3 25b9
00000010: 734a 8fbd 22a4 863d 66ee 95bd 24d4 98bd
00000020: a808 c13a 251a 82bd 9a3f 8bbd 5cde 8abd
00000030: a712 96bd 8efc 4abd 4e08 0a3d 3a52 7bbc
00000040: adb3 1fbd 86fc 073d 1917 3dbd ffef 083d
00000050: f5f3 963d d817 69bd 408a c83c f47f 8abd
00000060: e5bd 9ebb f7e4 9d3d e44e b03c 6a46 a1bb
00000070: 22fd 91bd 15ca ea3c 37c5 6dbd 0f83 9a3d
00000080: 6c97 91bd 5239 b3bc 7087 493d b5b9 4fbd
00000090: a3d6 423d 0b7a 70bc 883a a0bc fd8a 86bd
000000a0: 86a0 5f3d 23cb 903d 0637 0cbd bce1 6f3c
000000b0: a7e4 90bc feec 6ebd a6c4 a9bd 5814 ad3d
000000c0: 01df a43d c259 713d 5fb4 0e3c 4982 57bc
000000d0: ab47 563c 073a e5bc 5919 46bd 8b5f 443d
000000e0: 0766 d33c 12d9 4f3d 8422 6c3c 1466 8c3d
000000f0: d345 9ebd 4d46 263d 59b5 01bc d794 563d
00000100: 31db 42bd 30ef 9cbb 73d7 283d e091 8fbd
00000110: 34b3 bd3c 473c b1ba eaa8 38bd f904 4c3a
00000120: 63e7 a03d e7e5 833d 60e8 013d 1fda c5bc
00000130: 6200 a13d e438 773d 520f b13c 1320 ad3c
00000140: c196 a7bd 3ec6 3c3c 8096 23bc fdf6 703c
00000150: 352d 8c3d a9de 943d d494 4dbd 729d 05bd
00000160: efe7 2c3c 0ccf 81bd c2af adbd 67ff dbbb
00000170: 2e40 80bd 3be2 173c d275 133d 08cd 5dbd
00000180: c14b 443d 20d8 0c3d 97b9 0e3c 7ecd 8b3d
00000190: 89f8 523d ec12 19bd 389f 073b 880c 983d
000001a0: 7e6e 373d a922 9d3d 9841 463d ec31 183c
000001b0: a419 40bb 1f62 43bd d5e8 3b3d bc02 f3bc
000001c0: e472 95bd efec a3bd f550 6f3d c3b6 163d
000001d0: 3e84 2ebc 2baf 7cbd f7f7 543d 3c13 3e3d
000001e0: 39a0 9a3d 5617 cdbb ba0f 2cbd ba6e 1abc
000001f0: f90e 903d 24e4 bd3c 864a c13c 790c 403d
00000200: 8a58 c0bc ac30 383d 0447 92bc 20af 9a3d
00000210: 60cd a43d f8c3 46bd 5f90 8d3b c40c a83d
00000220: e08a 55bb 07fd 7d3c 2cea 06bc cc0f a13d
00000230: ef8a ba3c ac9f 18bd bcae 79bd 8a75 28bc
00000240: a71f 0fbd 5e4f a7bd b4db 2e3d 6cfd 6ebc
00000250: 739f 2dbd 7921 49bd

module.net_layers.2.linear_2.weight f4 [150, 150]
-0.0017717781 0.003906878 -0.0018494182 0.0068435203 0.0011289837 -0.0051214076 -0.003100467 -0.005154678
0.0020583845 -0.0068759406 0.010690547 -2.4409977e-05 -0.0021387779 0.005485338 0.0034094537 0.001851181
0.0026361065 0.0025323855 -0.004021532 -0.004753745 -0.0025064 0.0058020083 2.8708897e-05 0.009404561
-0.0053456356 -0.01044705 -0.0050224885 0.0084504355 0.0076395236 -0.0013965089 -0.0006322553 -0.007762951
0.0017245807 -0.0028316563 0.0005751298 0.00050110236 -0.003032547 0.012840548 -0.0049271323 0.012515314
-0.0048450823 0.0052088546 0.012871556 -0.005256285 -0.0051519317 0.0039969604 0.0013553626 0.00383298
0.0022074836 -0.0063429023 -0.006412818 0.0070632556 8.897434e-05 0.0013753776 0.006895581 0.00031307907
-7.3527517e-06 -0.005155137 -0.0047676126 0.003226788 0.0029295918 -0.00023211942 0.00068536843 -0.006078171
0.0016084205 0.00028626947 0.0017829001 0.003931559 0.005032188 0.0037711188 0.004330803 0.00039586623
0.0001947789 -0.00076507445 -0.005662021 -0.003953661 -0.002980889 0.00064983364 0.002116037 0.0027828177
-0.002676212 -0.008347378 0.0005242245 -0.0033289457 -0.006077601 -0.0034060555 0.0009279662 -0.00014829339
-0.005839143 -0.00075480045 -0.0041654683 0.0033988613 0.0017759692 -0.001905335 -0.0020082872 0.0024971054
-0.004653022 0.0024205209 -0.0057608113 9.256422e-05 0.00010089225 0.005434302 -0.0048005413 0.005884887
0.00038590125 -0.0013090451 -0.0023525448 0.0047500767 0.0026920673 -0.00083818025 0.0023159003 0.003943269
0.0002410213 0.0012961127 -0.004004941 -0.004151898 -0.0066096806 -0.00015507848 0.0044693984 2.0244128e-05
-0.003594693 -0.00068788195 0.008220191 0.0028619159 -0.0005174045 1.4799156e-06 -0.010124035 -0.0061135716
-0.0022845245 -0.0011636629 -0.0008000911 -0.0013401355 -0.00032285074 0.001361522 0.00025899097 0.003592952
-0.00432752 -0.0007939013 0.0003050336 -0.004219856 -0.007227608 -0.0031259165 -0.0017073783 0.0011448883
0.004816203 0.005402498 -0.0024530492 0.007419098 -6.903064e-05 0.0064632185 0.00043376576 -0.0021415981
-0.0007965512 0.008494772 -0.0027152172 -0.0018082961 -0.0033745717 0.001501422 0.00035767353 -0.00338328
-0.001500829 -5.342248e-05 -0.0027798791 -0.0037351737 0.0070942743 -0.004955093 -0.0021179977 -0.0017995277
0.004856512 0.003169705 -0.0016510375 -0.0009898901 -0.0030358892 -0.002974129 -0.001219309 -0.001388972
0.0015198526 0.001242356 0.0028579014 -0.0011657249 -0.004005586 -0.00033614173 -0.0039309687 0.0029809559
0.0016894373 0.0013280842 -0.0005847256 0.0023456344 0.00031715442 0.004260893 -0.0014061872 0.0019961905
-0.00070576055 -0.0033524632 -0.0017759866 0.0020657901 0.0010950448 -0.003995656 -0.0040708375 -0.0023468772
0.0019087087 -0.0006439954 -0.00027138888 -0.0041855336 0.0020796487 0.0039864862 0.005511615 -0.00089434243
0.0017629763 0.0025739996 -0.0028363112 0.0047300737 -0.0053589963 -0.0009557024 -0.002338836 -0.0033874302
-0.008652026 0.0016273478 0.0018360802 -0.0020916406 0.0032022193 -0.0019238959 -0.0013955245 -6.857625e-05
-0.00197492 0.002799114 0.0042482014 0.0021868146 -0.0014847426 0.0016931068 0.0036114801 0.0013712652
0.0034493515 0.0014470071 0.0034637563 0.0018963595 0.0028826166 0.0017255722 0.00058582943 -0.0025698622
-0.00045952198 -0.0018751841 -0.002668519 0.0014559476 0.0021836313 0.0022882372 0.0015790211 0.0036626444
0.0009793816 0.0019900005 -0.00071427395 0.0053504864 -0.003554455 0.0009455122 -0.003944026 -0.0038872126
00000000: 023b e8ba 4505 803b 2d68 f2ba 9c3f e03b
00000010: 68fa 933a 7bd1 a7bb 3431 4bbb 93e8 a8bb
00000020: f6e5 063b 924f e1bb 6727 2f3c 07c4 ccb7
00000030: bd2a 0cbb 5abe b33b 2471 5f3b 54a3 f23a
00000040: 87c2 2c3b 61f6 253b 0ec7 83bb 4ec5 9bbb
00000050: 6a42 24bb c61e be3b e3d3 f037 9615 1a3c
00000060: 712a afbb 1b2a 2bbc b093 a4bb b273 0a3c
00000070: f854 fa3b 100b b7ba efbd 25ba 5a60 febb
00000080: 530b e23a 4f93 39bb 4fc4 163a 695c 033a
00000090: b2bd 46bb 2961 523c c873 a1bb 080d 4d3c
000000a0: 7fc3 9ebb 0aaf aa3b 38e3 523c ea3c acbb
000000b0: 89d1 a8bb eff8 823b 6ca6 b13a bc32 7b3b
000000c0: 6eab 103b 1fd8 cfbb 9e22 d2bb e272 e73b
000000d0: bc97 ba38 0446 b43a 53f4 e13b c324 a439
000000e0: a8b7 f6b6 6cec a8bb a239 9cbb 8578 533b
000000f0: 65fe 3f3b 1565 73b9 4caa 333a 652b c7bb
00000100: a3d1 d23a 7016 9639 33b0 e93a 4fd4 803b
00000110: 0de5 a43b e024 773b 69e9 8d3b 448c cf39
00000120: 903d 4c39 478f 48ba 7a88 b9bb b68d 81bb
00000130: 055b 43bb 9959 2a3a 36ad 0a3b ef5f 363b
00000140: 6363 2fbb 71c3 08bc 1c6c 093a 712a 5abb
00000150: 9d26 c7bb 2138 5fbb c242 733a 347f 1bb9
00000160: 4856 bfbb cddd 45ba 7b7e 88bb 6ebf 5e3b
00000170: a3c7 e83a 6fbc f9ba 789d 03bb 7aa6 233b
00000180: 6178 98bb 9aa1 1e3b 30c5 bcbb 0a1f c238
00000190: 1d96 d338 3b12 b23b dc4d 9dbb 03d6 c03b
000001a0: ca52 ca39 4494 abba 272d 1abb 88a6 9b3b
000001b0: 656d 303b 53b9 5bba 5cc6 173b 8a36 813b
000001c0: aaba 7c39 53e2 a93a e13b 83bb a50c 88bb
000001d0: 0596 d8bb 909c 22b9 0874 923b efd1 a937
000001e0: f194 6bbb fa52 34ba fbad 063c fb8e 3b3b
000001f0: 6ea2 07ba 83a1 c635 48df 25bc 5b54 c8bb
00000200: f6b7 15bb 0c86 98ba 34bd 51ba 7ca7 afba
00000210: 4b44 a9b9 1975 b23a 2ec9 8739 bb77 6b3b
00000220: decd 8dbb d01d 50ba ebec 9f39 b846 8abb
00000230: 92d5 ecbb 2ddc 4cbb 1cca dfba 1410 963a
00000240: 3dd1 9d3b 7007 b13b 56c3 20bb e81b f33b
00000250: 8bc4 90b8 68c9 d33b 0e6b e339 0e5a 0cbb
00000260: a5cf 50ba a82d 0b3c c9f1 31bb 5904 edba
00000270: eb27 5dbb 5dcb c43a 2186 bb39 05ba 5dbb
00000280: 77b7 c4ba f311 60b8 a22e 36bb d1c9 74bb
00000290: 1677 e83b 555e a2bb 1bce 0abb 21de ebba
000002a0: 6023 9f3b d3ba 4f3b a067 d8ba 33bf 81ba
000002b0: c5f5 46bb 9be9 42bb 39d1 9fba 2b0e b6ba
000002c0: ca35 c73a 8dd6 a23a a14b 3b3b 3dcb 98ba
000002d0: 4a41 83bb 2e3c b0b9 5bcf 80bb 245c 433b
000002e0: 1c70 dd3a 1c13 ae3a 4548 19ba 37b9 193b
000002f0: bf47 a639 f69e 8b3b d04f b8ba 85d2 023b
00000300: ca02 39ba 00b5 5bbb 39c8 e8ba 3562 073b
00000310: 9b87 8f3a feed 82bb a964 85bb 11ce 19bb
00000320: a32d fa3a cdd1 28ba 3349 8eb9 cd26 89bb
00000330: b74a 083b 12a1 823b c79a b43b 4e72 6aba
00000340: ab13 e73a 8cb0 283b 68e1 39bb bcfe 9a3b
00000350: 859a afbb 1a88 7aba 2847 19bb a6ff 5dbb
00000360: 3ac1 0dbc bb4c d53a a1a8 f03a e813 09bb
00000370: 53dc 513b 3c2b fcba 08ea b6ba 98d0 8fb8
00000380: a96d 01bb 5771 373b 7f34 8b3b a950 0f3b
00000390: b29b c2ba 3deb dd3a 95ae 6c3b 06bc b33a
000003a0: 840e 623b 80a9 bd3a 3000 633b 448f f83a
000003b0: 48ea 3c3b 982c e23a 5992 193a 226b 28bb
000003c0: ffeb f0b9 bdc8 f5ba 52e2 2ebb 7fd5 be3a
000003d0: 411b 0f3b 40f6 153b 28f7 ce3a fa08 703b
000003e0: 985e 803a ab6a 023b 1d3e 3bba 2253 af3b
000003f0: dcf1 68bb 40dc 773a e33c 81bb 9bc0 7ebb
