thesis/may/1st meet/leaky_relu/best_model_leaky_relu.pth (torch, 34991 bytes, 9 tensors)

fc1.weight f4 [50, 3]
00000000: 0711 0fbf fb94 d6be 3f74 18bf b06b 89be
00000010: 211b 04bf 20c4 3abf 812b af3e 676b d13e
00000020: 80a9 c23e 53a6 d1bd e1c9 373d aa70 35bc
00000030: c9c8 a6be e24c 133f f11b ebbb 8972 73be
00000040: 64e2 013f 34ed 013f f06c ff3d 48a2 6c3e
00000050: 1f75 4c3f 7dc2 39be 3a78 eb3e 452b d7be
00000060: 3b46 26be acca c6be 051b 0db9 4ef3 363d
00000070: 9e74 06bf 6d43 61bc 0ead 5d3d e57f eabe
00000080: 8be7 24bf 8362 873d 9cd5 d8be 00f7 1bbf
00000090: 68bd 3e3d f6a0 e7be ab34 93be 27c9 cabe
000000a0: c9de 433e 8a37 88bf c2d4 233f e166 fb3e
000000b0: 1b51 0bbe cd49 fabe 71f1 963e 8c3c a9be
000000c0: 390f 95bd e420 bb3e 541e e5be b065 bfbc
000000d0: 8952 01bf 0aa7 94bc b688 50bd ab10 143f
000000e0: a458 7fbe 0f1d c53e 1dba 3e3e 7959 6f3e
000000f0: 0be1 c7bd 2305 213e 7280 a6be 35a5 983e
00000100: 4b0f 83be 8c45 2f3e 63d0 d1bd db4c 9cbd
00000110: c6d8 e3be 4bc3 d73e 4a97 64be 558b 3fbf
00000120: 38c1 08bf 7fc5 a4be 969f 6abc 24bc 06bd
00000130: ee28 c23e 25a4 08bb f506 56be 4a64 d53e
00000140: 9d24 abbe 2cba f03e c154 50bd 245a 37bf
00000150: 1c23 9abd 5101 ca3e a4d0 05bf dcbc 12bf
00000160: 99d9 14be fccc 97be d4bd eebd 670c d0bd
00000170: f8c3 bdbf 4ac1 043f 86fb 1c3e f6f6 213f
00000180: 6c24 fb3a 778b bf3e fb55 903e c45c c33e
00000190: 323f 1ebf cefc 5e3b 1eec d43d 4e9c 00bf
000001a0: 99f8 12bd de32 0c3f 4cfd 11bf c47d f9be
000001b0: 3896 bfbe 0251 5fbe 49bf bd3e 4ecb 23bc
000001c0: d59e 033f 5861 043e 8993 04be 8be3 903d
000001d0: 2f25 6c3e ae1b ff3d 001c 153e fd39 99be
000001e0: 33fc bd3e 6841 ab3e a543 a83b 5cb0 073f
000001f0: bd17 de3e f051 5c3c 0c5a 0bbe 5d99 003e
00000200: d9aa b9be 9741 7ebe 5e3d 09be c6bf 9cbf
00000210: de98 00be a8e1 46be f158 163f 3aa0 7ebd
00000220: f4c8 dbbd d8ea d93e af4e ddbe 3db9 f7be
00000230: 8dd9 31be 92f7 0bbf ddb3 3bbf 4218 ab3e
00000240: 75ea b13e e4a7 073f 1924 283e 08ae c13e
00000250: 1dbb de3e ab6b 103e
-0.55885357 -0.41910538 -0.5955238 -0.26839972 -0.51603895 -0.72955513 0.34212878 0.40902254
0.38019943 -0.10236802 0.04487026 -0.0110742245 -0.32575062 0.5753919 -0.0071749617 -0.2377416
0.5073607 0.5075257 0.1247195 0.2310878 0.7986621 -0.18140598 0.45990163 -0.420252
-0.16237728 -0.388265 -0.00013456873 0.044665627 -0.52521694 -0.013748986 0.054120116 -0.458007
-0.64415807 0.066105865 -0.4235047 -0.6092377 0.04656735 -0.4523999 -0.2875112 -0.39606592
0.19127955 -1.0641949 0.6399652 0.49101928 -0.13605158 -0.4888443 0.2948108 -0.33054006
-0.07278294 0.3654853 -0.447497 -0.023363918 -0.50516564 -0.018146057 -0.050911628 0.57837933
-0.24936157 0.38498732 0.18625684 0.23373975 -0.097597204 0.15724616 -0.3251987 0.29813543
-0.25597605 0.17116374 -0.10244825 -0.076318465 -0.44501323 0.42141184 -0.22323337 -0.7482198
-0.5341983 -0.32181928 -0.014320275 -0.03289427 0.37921852 -0.002084979 -0.20901091 0.41678077
-0.3342637 0.47017038 -0.050862078 -0.7162192 -0.07526228 0.3945413 -0.52271485 -0.57319427
-0.14536132 -0.29648578 -0.116573006 -0.101586156 -1.482543 0.51857436 0.15330324 0.6326746
0.0019160635 0.3741109 0.28190598 0.38156712 -0.6181518 0.0034025195 0.10396598 -0.502385
-0.035881612 0.5476512 -0.57027125 -0.48728764 -0.37419295 -0.21808246 0.37060001 -0.009997202
0.51414233 0.12927759 -0.12946905 0.070746504 0.2306106 0.12456451 0.14561462 -0.29927054
0.37106475 0.33448339 0.005135017 0.5300348 0.43377486 0.01344727 -0.13608569 0.12558503
-0.3626316 -0.24829708 -0.13402316 -1.2246025 -0.12558314 -0.19422019 0.58729464 -0.062164523
-0.10731688 0.42561984 -0.43224093 -0.48383513 -0.17368145 -0.5467464 -0.73321325 0.33416945
0.3474919 0.52990556 0.1642002 0.37828088 0.4350213 0.14103572

fc1.bias f4 [50]
00000000: 0270 5fbe 4f29 ebbe 4f00 0dbe cc26 d13e
00000010: 488c e7bd cdd2 0e3e c505 e83e 9080 933e
00000020: 69b4 963e bc83 633e 27bf 18bf c36a 87be
00000030: 3bd9 ccbd 3043 463e 5ded 483e 029b bf3e
00000040: f42c fb3e 42de 8b3e b464 1cbf a226 09bf
00000050: 26c5 07bf 88a2 d63e ada2 173f 3e8d 073d
00000060: f4e6 df3e 0a0e b53d b7f9 be3e 84dc 503e
00000070: eaf1 713d ce38 bd3e 1adf aa3d c2b0 a63e
00000080: 7d4d 4a3e 3ede 923d 1c95 13bf 6359 c93e
00000090: 9ca6 b7be 0360 5dbe e732 33bc c129 b93e
000000a0: 1774 b8be b246 003f d5c3 89be 19c7 623e
000000b0: f2cc 5e3e 4840 3c3e f3dc 01bf d524 663e
000000c0: 3156 fe3e 3c8e f1be
-0.21820071 -0.45929953 -0.13769649 0.40849912 -0.113060534 0.13947602 0.45316902 0.28809023
0.29434517 0.22218221 -0.59666675 -0.2644864 -0.10002371 0.19361567 0.19621797 0.3742295
0.49057734 0.27318007 -0.6109116 -0.53574574 -0.530352 0.41920877 0.592326 0.033093683
0.4373089 0.08840568 0.37299892 0.2039662 0.059068598 0.369574 0.083433345 0.3255673
0.19756122 0.071712956 -0.576494 0.3932601 -0.358693 -0.21618657 -0.010937429 0.36164668
-0.3602607 0.5010787 -0.2690722 0.22146262 0.21757868 0.18383896 -0.50727767 0.22474988
0.49675134 -0.4717883

fc2.weight f4 [50, 50]
00000000: f633 f33c e51a 80bd 03c6 5abe c0a6 a2bc
00000010: 35f7 4f3d 330c 3bbb 0d2b 03be 8441 083d
00000020: 8ffb 63bd a606 27bc e6a8 673d 9454 fdbc
00000030: 211f 08ba d51e 363e cca0 75bd 8f93 acbd
00000040: 650b 063e ff2c a1bd c2a1 b9bd 75ae 733d
00000050: fd0b f93d 0bea 22bd dec4 aebd 2cac 37bc
00000060: fcb8 46be 2d11 c6bb 4f1d 173c 1ea3 6abd
00000070: 9c58 e43c 21a6 b5bd 702c fe3e 77d4 1ebe
00000080: b41b 1ebe a5f0 73bd 98b2 d83c ce50 99bd
00000090: 9381 afbc e382 84be 4011 303e 2be5 4bbd
000000a0: efa2 ebbe 3e49 f2bc 5076 8b3d 9264 66bd
000000b0: bcee cdbd 069f 293e 54c0 ad3c 595c 1ebb
000000c0: 8693 efbb aa03 08be 4010 11bd 0378 063e
000000d0: 6f86 ecbd c14a 453e 1d88 ca3d e1d1 7a3d
000000e0: 809c 6b3d 7760 8c3d 7309 d23d 5362 923e
000000f0: 5984 00bd 961e 89bd 3458 f2bd 932c a3bd
00000100: 3410 003d f3dd 083c 5552 013e 7747 673e
00000110: e7b9 5abd b348 96bd f86c ddbd 1b85 beba
00000120: be90 1e3e 6d39 0f3d f0f2 113e 59b7 1eba
00000130: 63eb 993c ab5d b7bc af1a 0dbe ad9d 04bc
00000140: 5f5a 1bbe 1948 15be 9056 9c3d dda9 133e
00000150: a0fe 83bd 4764 c3bd 3fba 13be c6eb 5fbe
00000160: 20a5 4ebe 32a2 373c 22c0 f5be 5483 3cbd
00000170: af8e 02be b79c a23d cdfc ea3d 5401 f53d
00000180: c55a 633d 74bc a03e f785 c2bd 41c9 ea3e
00000190: cdb2 5c3d 3ae6 f6bc b1b2 013e fa3d 07be
000001a0: fc88 0d3d cb31 b03d ddc3 0dbe 3c8b 403d
000001b0: 61ce 333e 7e19 c2bd be8a 99bd e119 d7bd
000001c0: dc27 df3d 06f0 0c3e bf88 a2bd 674a 543c
000001d0: bbf7 10be 2edb c33d ecc5 c9bd 590b 41bb
000001e0: c46f 7cbd f3c1 32be c693 f7bd 6445 7f3e
000001f0: 464e bc3c ac1f 76bc a036 bcbd 751e ba3d
00000200: d31b 923c 7fef e3bd b64f ba3d ae33 0cbd
00000210: af9c e7bd 5938 ebbd 6ca1 7bbd be9b 00bc
00000220: 87c1 a43c 1c0c 6a3e 04ea d13d dfb1 e73d
00000230: 6b29 443e 4ca0 debd 7a7a 1cbd b16b 79bd
00000240: aca7 dfbc 8ed4 783d 251e aebc 977e d23e
00000250: 5f49 8c3c 772c 7abb aab5 583c cab3 003e
00000260: 665c ab3d 8f32 9b3d 633a 5e3e 806b bfbd
00000270: 623e 14be 67e5 193e 6ef8 323e 40e1 b63d
00000280: 69a5 8b3d 282c bcbc b7de ac3d a02f debd
00000290: 7d25 2bbc 3aa2 14be 854c 373c 6abf f33c
000002a0: 8015 043e b0a1 fc3d f4fb cb3d 0504 713d
000002b0: a723 87bd e32f e83d 4ff9 f83d 2cdd 063e
000002c0: 57e2 b23d 0de0 a93d c068 09be a2b1 2f3e
000002d0: f52b 03bf 2f3a 21bd d75e f43c 37e9 78bd
000002e0: 77de b5bd 751b 8fbd 39f7 f83d d8ef fe3b
000002f0: f7a2 b1be dd59 f53d 03bb 5a3e 2e0a 713c
00000300: 7223 9f3d 4de6 3f3e 6aed 323c e3cb 45be
00000310: 5bdb cb3c 1670 90be 1f7f ecbb e3db 94be
00000320: eadc 033e a5c9 913d b5d2 11bd ca78 f4bd
00000330: 958c 6abe 4386 d3bc d6e9 a53d defe 663b
00000340: f0fe d43b 6f43 c73d 095a 1ebd f74d e0bd
00000350: c150 ba3d 4ddf 84bd 3d30 ca3c 1941 d43d
00000360: 3b7d c73d 5fee b43c 33b9 863d 0e0c fcbc
00000370: 49a2 dd3d a401 b73d f175 f2bd e5e5 0abe
00000380: 28d3 82bd d7c5 463d 32de 103c c1e5 1c3d
00000390: 766d 593d a719 87bd 66b7 05c0 f527 d9bd
000003a0: 6224 84bd e6d1 383d 800b 0abe 471b 253d
000003b0: 6e9d ea3d 8f73 813c 1884 c93d 9154 b33d
000003c0: 3801 49be c354 e6bc c97e 103c a1a0 f7bd
000003d0: 783a 41be 150f 02be 9f56 823d 826c eb3c
000003e0: 53b9 03be f1b1 efbd a749 82bd d9b7 f2bd
000003f0: 15fb e9bd 5ad2 1b3e 256b 22bd 2276 133e
0.029687863 -0.0625513 -0.21364598 -0.019854903 0.050772864 -0.0028541207 -0.12809391 0.033265606
-0.055659827 -0.010194456 0.05655756 -0.030924119 -0.0005192627 0.17785199 -0.0599678 -0.08426582
0.13090284 -0.078699104 -0.09064056 0.059492547 0.1216049 -0.039773982 -0.08533643 -0.011210483
-0.19406503 -0.006044528 0.009223296 -0.057284467 0.027874283 -0.08869577 0.49643278 -0.15510736
-0.15440255 -0.05955567 0.026452348 -0.074861154 -0.02142409 -0.2588111 0.1719408 -0.0497791
-0.46022746 -0.02957594 0.06809676 -0.056248255 -0.100553006 0.16564569 0.021209873 -0.002416393
-0.0073112873 -0.13282648 -0.035415888 0.13131718 -0.11549079 0.19266798 0.09889243 0.061235312
0.057522297 0.06854337 0.102557085 0.2859064 -0.031376217 -0.06695287 -0.1183323 -0.07967486
0.031265453 0.008353698 0.12629063 0.22585855 -0.053399947 -0.07338085 -0.108118 -0.0014535518
0.15484902 0.034966875 0.1425283 -0.00060545426 0.018788999 -0.022383532 -0.1377971 -0.008094233
-0.15171193 -0.14578284 0.07633698 0.14420266 -0.0644505 -0.09540611 -0.14426516 -0.21867284
-0.20180178 0.011208104 -0.47998148 -0.04602368 -0.12749742 0.07940047 0.11473999 0.11963144
0.055506486 0.31393778 -0.09498208 0.4585667 0.053881455 -0.030139077 0.12665822 -0.13207236
0.034554467 0.08603247 -0.13844247 0.047007784 0.17559196 -0.094775185 -0.07497166 -0.10502983
0.108962744 0.13763437 -0.079362385 0.012957192 -0.14157002 0.095632896 -0.09852204 -0.0029456227
-0.061630026 -0.17456798 -0.120887324 0.24928814 0.022986542 -0.0150222 -0.091901064 0.090878405
0.017835533 -0.11129665 0.09097235 -0.034228973 -0.11309182 -0.11485357 -0.06143324 -0.007849632
0.020111812 0.22856182 0.10249713 0.11313223 0.19156425 -0.10870418 -0.03820274 -0.06089372
-0.027301632 0.060749583 -0.021254608 0.41112205 0.01712483 -0.0038173476 0.013226906 0.12568584
0.08367233 0.07578003 0.2170196 -0.09346676 -0.14476922 0.15028916 0.17477581 0.08929682
0.06818659 -0.022970274 0.08440917 -0.108489275 -0.01044595 -0.1451501 0.011187677 0.02975436
0.12898827 0.12335527 0.099601656 0.058841724 -0.06598597 0.11337259 0.12156927 0.13170308
0.08734577 0.082946874 -0.13418865 0.17157605 -0.5123895 -0.03936213 0.02983038 -0.060769286
-0.088803224 -0.06987659 0.12156529 0.0077800564 -0.34694645 0.11980031 0.21360402 0.0147119
0.077704325 0.18740197 0.010920862 -0.19316058 0.02488487 -0.28210515 -0.0072173025 -0.2907401
0.12877241 0.07118539 -0.035601337 -0.11937101 -0.2290519 -0.025820857 0.08101241 0.0035247128
0.0065001175 0.09729659 -0.038660083 -0.109523706 0.09097434 -0.06487904 0.024681205 0.10363979
0.09740683 0.02208632 0.06578293 -0.030767467 0.10821969 0.0893586 -0.11838902 -0.1356426
-0.06387931 0.04852852 0.008842038 0.038305048 0.053082906 -0.0659669 -2.0893188 -0.10603324
-0.06452252 0.04512205 -0.1348095 0.040309217 0.114558086 0.015802173 0.09839648 0.08756364
-0.19629371 -0.02811659 0.00881929 -0.120911844 -0.1886996 -0.12701066 0.06364178 0.028738264
-0.12863664 -0.117038615 -0.06361704 -0.118514724 -0.11424843 0.15216962 -0.039652962 0.14400533

fc2.bias f4 [50]
00000000: 591e 133e 6f72 d4bc 35a2 f33c 041f 89bd
00000010: 2968 0c3e 82fd a4bd 058c dcbd 0b31 99bd
00000020: e86b d43d 9d52 17be b97c 0a3c ef15 fdbd
00000030: 50b0 293d c75d d03d 525e d23d 79e9 d83d
00000040: 78a6 20bd 1b90 0d3d 980d fabd f957 b23d
00000050: 9b0c 98bd c7c2 723c 2346 8abd 1003 d73d
00000060: 8150 a1bd 437c 913d eb94 073c 3b05 253e
00000070: 6337 10bd 814b 8c3d daf5 d23c f356 623d
00000080: 6ebb c93c 8220 8b3d 1f8d e2bd ac94 e1bd
00000090: d8e7 c1bd 4b54 9bbd fa27 e13d 1d98 e13c
000000a0: 3465 f5bc 89d0 753d 5c21 3cbe 45d1 713d
000000b0: 4d59 dbbb 2ded 8e3d ab4f f6bd 0d6e e93d
000000c0: cfbd 67bd 6982 07be
0.14367045 -0.025933472 0.029740432 -0.06695369 0.13711609 -0.08056165 -0.10768894 -0.07480057
0.10372144 -0.14777608 0.008452588 -0.12357699 0.04142791 0.101741366 0.102718964 0.105914064
-0.039221257 0.034561258 -0.12209624 0.08708186 -0.07424279 0.014816946 -0.06751659 0.10498631
-0.07876683 0.07103779 0.008275251 0.16115277 -0.03520907 0.06850339 0.025751997 0.055258702
0.024625506 0.0679331 -0.11062073 -0.11014685 -0.09468049 -0.07584437 0.10993953 0.027538354
-0.029955484 0.060013328 -0.183721 0.059037466 -0.006693995 0.069788314 -0.12026914 0.11397944
-0.0565775 -0.13233341

fc3.weight f4 [50, 50]
00000000: 4de3 2f3d 5e82 273e 9324 003e 1334 0abe
00000010: f049 513e bab2 213e 40f3 bcbd 4121 38bd
00000020: abbd 923d 8c63 e13c 4056 b43d bc42 e8bd
00000030: 5934 08be 0276 933d f09a 393d 2853 a5bc
00000040: ff56 45bd 1b6d 0e3b 67ff 4e3d fb71 1b3c
00000050: bf1c 893d 4b7d 163d f1b8 a93c fd7b 293d
00000060: e44a 09be 4f09 f4bd 2864 653d 1a56 fabe
00000070: 0e56 10be 1c80 1c3d 8da7 3c3e 3527 12be
00000080: 1696 183c 57a8 3f3d 2abd afbd b094 d53d
00000090: 6727 0abe ae2c 353e c6f8 423c 82a5 c63c
000000a0: 1e7e 893d c4ae e83d d598 13be be01 77bc
000000b0: b789 8dbc 15b5 69be c119 e0bd 27f4 39bd
000000c0: 57cd 293d 4206 8f3a f117 0fbd 1b12 e83d
000000d0: 8c24 38bd 5953 a73c 8831 dc3d deb1 a0bd
000000e0: 67c9 da3d 252f 253e 0d12 93be e1e4 273c
000000f0: 4525 0c3e 8726 753e b46d f43d 5654 fcbd
00000100: c937 653d 4570 5dbd b86c 533d 57c4 97bd
00000110: c36f 3dbe 5b00 e13d cfb0 dabc 63e0 97bd
00000120: 5352 c63d 9ca9 29bd 22dd 663d e90e d23d
00000130: dab9 f03d 2e58 323f 2446 9a3e 3b0f e23d
00000140: 6d46 103e 68bf 513d 0b0b c43d 7bdb e93b
00000150: 68dd d33c 4989 463d 8790 75bd 1c49 6abb
00000160: 5a01 a03d 24f2 e3bd ef75 02bd 38df 0ebe
00000170: c440 09be 9880 3bbe da58 eb3c f619 7a3e
00000180: 72c5 173e 7e93 02be f6a1 213e 20b2 81bd
00000190: c564 fbbc 5665 f2bd 5bb7 35bd cecf c1bd
000001a0: e331 31bd ef1a 11bd 7419 153d db73 bfbd
000001b0: c124 39be 5978 fb3d 3732 c93c 15f5 413c
000001c0: e116 d3bc 93b2 2dbe 07e0 5b3d 5828 ebbc
000001d0: f24e 9fbd 7934 69bd 1b84 39bd d7fb 053d
000001e0: dfe9 313d 3e04 0ebe e5ae e4bd fe67 8fbc
000001f0: 9424 9f3d 1c99 d73d 28f6 fb3d bd04 353e
00000200: b408 8c3d 9196 9f3d 91cb 67be f842 803e
00000210: 6bff 99be 046c f5bd 3d23 8e3d 22c6 de3d
00000220: 457d 10bb 69f6 aabe 79d5 e6bd ac52 a939
00000230: ca85 19be 84bc 00bd 1021 96bd da95 9cbd
00000240: 290e c23c dd08 7a3e 4d9c 313d 4249 b2bd
00000250: ecd6 333d df91 0f3e 5dab 23bd e2c1 a9bc
00000260: 3969 c63d 9ef6 03be e232 b0be 8de3 b4bc
00000270: b66e 7dba f75f fdbc 0a28 69bd 37a9 89bd
00000280: 428f ab3d f09e dcbd 4507 1e3e 754c e9bd
00000290: 2d70 89bd 5cd3 15be 1239 a9bc 5480 93bd
000002a0: 583f dabc 3320 093d a3da 35be afb5 09be
000002b0: 78af cb3d 5a25 b83d 64e9 353e be26 efbd
000002c0: 4aab 8c3d 6218 fd3c 032d 5f3e 532a 65bd
000002d0: 3148 0fbe 25a6 ab3d 6cc8 233e 6b3d 90bd
000002e0: d911 d5bc bbc2 ad3d 220b 1b3e d86c 3dbe
000002f0: 5480 4cbd 1650 1cbd a0a2 97bd 5644 21be
00000300: ae3f 873d 086e 96bd 351f 513d 48d9 263e
00000310: 7ed6 e03d 84b6 6e3d f83b 3dbd 6beb f2bd
00000320: bb6f 2dbe 960f bf3d bca1 afbd d4a4 61bd
00000330: c11e d23d 22b4 9f3d 0e1b 16be 1860 22be
00000340: 07ba d7bd 1a08 ff3d bd35 f8bc 7c2e ccbd
00000350: d8e6 b63d 0156 3b3e c160 3ebd 67b8 a63d
00000360: b0b6 2b3e 4f22 e4bd c405 65bd efbe 8f3d
00000370: 2f24 693c 1371 ac3c 3e34 223d 50d1 283e
00000380: a0d9 40be 09ab 793c 747d b53c 0040 7cbe
00000390: 13b8 85be b5d3 803c e073 873e 209f 2bbe
000003a0: 520c 2a3e 494a 89bd e58b 49bd f050 2abe
000003b0: e70f 013e 5e12 9c3c 7683 86bc e74d 043d
000003c0: ca25 babd 0c94 ef3d 2a65 2b3d cfab 1b3d
000003d0: 9526 083e 09bc 16bd e69a c2bc f8fc d73d
000003e0: c0b4 6b3e b15f c4bd 157b 82bd ad13 ba3c
000003f0: 8738 a03d 2b51 98bd 1e5e 6bbe bb60 00bd
0.04294138 0.16358325 0.12513952 -0.13496427 0.20438361 0.15790835 -0.09226084 -0.04495359
0.071650825 0.027513288 0.088055134 -0.113408536 -0.13301219 0.072002426 0.045313776 -0.020181254
-0.04817867 0.0021732512 0.05053654 0.009487624 0.06694936 0.036740582 0.02071807 0.04137801
-0.13407475 -0.11915838 0.05600372 -0.48893815 -0.14095327 0.038208112 0.1842329 -0.14272769
0.009313127 0.0467914 -0.08581002 0.104287505 -0.13491593 0.17692825 0.0119001325 0.024248842
0.06713508 0.11361459 -0.1441377 -0.015076099 -0.017277582 -0.22822984 -0.10942412 -0.045398857
0.041455593 0.0010911899 -0.03493494 0.11331578 -0.04495673 0.020425485 0.10751635 -0.078464255
0.10682946 0.16131265 -0.2872471 0.01024744 0.13686092 0.23940478 0.11934987 -0.12320773
0.055961404 -0.054062147 0.051617354 -0.07410496 -0.18499665 0.10986396 -0.026695637 -0.07415845
0.09683671 -0.041421518 0.056363232 0.1025675 0.11754198 0.696658 0.30131638 0.11038061
0.14089365 0.05120793 0.09572419 0.00713676 0.02586241 0.04847077 -0.059952285 -0.0035749143
0.07812758 -0.11130169 -0.03185075 -0.13952339 -0.13403612 -0.18310773 0.028728891 0.24423966
0.14821413 -0.12751576 0.1578444 -0.06332803 -0.0306877 -0.118357345 -0.044364315 -0.09463464
-0.043260466 -0.035426077 0.036401227 -0.093482696 -0.18080427 0.12278814 0.024560077 0.011838217
-0.025767745 -0.16962652 0.053680446 -0.02870576 -0.077787295 -0.056934807 -0.045292 0.032710876
0.043435927 -0.13868806 -0.11166171 -0.017505642 0.077706486 0.1052725 0.1230281 0.17677589
0.068375975 0.0779239 -0.22636248 0.25051093 -0.3007768 -0.11983493 0.06940315 0.108776346
-0.0022047323 -0.3339112 -0.112711854 0.00032295787 -0.14992443 -0.031429783 -0.07330525 -0.076457694
0.023688393 0.24417444 0.04336195 -0.08705379 0.043906137 0.14020489 -0.039958347 -0.020722333
0.096880384 -0.12887046 -0.3441382 -0.02208116 -0.00096676813 -0.030929549 -0.05692295 -0.06721728
0.08376934 -0.107725024 0.1543246 -0.11391536 -0.06710849 -0.14631408 -0.020657096 -0.07202211
-0.026641533 0.033477973 -0.17759185 -0.13448213 0.099455774 0.08991499 0.17764813 -0.11677311
0.06868608 0.030895416 0.21794514 -0.055948567 -0.13992383 0.08381299 0.15994424 -0.070429645
-0.026009487 0.084844075 0.15140966 -0.18498552 -0.04992707 -0.038162313 -0.07404065 -0.15748724
0.06603943 -0.073452055 0.051055152 0.16293824 0.10978411 0.05827953 -0.04619977 -0.11861309
-0.16937153 0.09329145 -0.0857577 -0.055088833 0.10259772 0.077980295 -0.14658758 -0.1585697
-0.10533529 0.12452717 -0.030299062 -0.09969804 0.08930749 0.18294527 -0.04647899 0.08140641
0.16768909 -0.11139356 -0.0559137 0.070188396 0.014229818 0.021050012 0.039600603 0.16486096
-0.18833017 0.015238532 0.022154547 -0.24633789 -0.26117 0.01572595 0.26455593 -0.1675992
0.16606262 -0.06703622 -0.04920568 -0.16632438 0.12603723 0.019051727 -0.016420107 0.032300856
-0.09089239 0.116981596 0.041844524 0.038005646 0.13295968 -0.036800418 -0.023755502 0.10546297
0.2301817 -0.09588564 -0.06371132 0.02271446 0.07823282 -0.074373566 -0.22985122 -0.03134225

fc3.bias f4 [50]
00000000: 7b52 a83d c352 38bd 222c 1fbd ea7c afbd
00000010: 3ebd c1bd b0e1 553d 1247 413d ebbe aebd
00000020: bc06 07bd e917 a33d 08a5 163e f6e7 663c
00000030: 6623 943b 14df c33d 17de 943b 8670 9cbd
00000040: f742 dcbd d1b6 d8bd a9ba ec3d 047b a93c
00000050: b5f9 023d 0892 2cbd a3d3 05be 84b8 d3bb
00000060: 48b3 af3d 2c9d d5bd 29e7 8b3d e1cf 81bd
00000070: 6428 f43c 3e27 303e 29ca e9bd a56a bbbc
00000080: e8f3 82bd 0b0e 85bd 3d94 2cbb 37b2 e2bd
00000090: cddd b9bc 7176 213e 8f73 9bbd 5f42 7ebd
000000a0: 4db0 2cbd 9c85 e03c 823b ccbd eaeb ef3d
000000b0: 80e2 16bc dc61 ed3d 248c f03d a14b 9c3d
000000c0: 79e9 99bd fdf1 e53c
0.08218857 -0.045000803 -0.038860448 -0.08568747 -0.09459923 0.052217185 0.04718692 -0.085325085
-0.032965407 0.07963545 0.14711392 0.01409339 0.0045208214 0.09564033 0.0045430767 -0.0763865
-0.1075496 -0.105817445 0.1155904 0.020688541 0.03197642 -0.042131454 -0.13069014 -0.006461205
0.08579117 -0.10430369 0.068312 -0.06338478 0.029804416 0.1720247 -0.11415512 -0.022878
-0.06394178 -0.06496819 -0.0026333474 -0.11069148 -0.02268877 0.15767838 -0.075904004 -0.062075015
-0.04216032 0.02740746 -0.09972288 0.11714919 -0.009209275 0.11590931 0.1174548 0.076316126
-0.075152345 0.02806949

fc4.weight f4 [50, 50]
00000000: da91 f339 75a0 a83d 7e4d 8ebd 7473 143e
00000010: b522 91bd 1178 86bc 4b77 e53e d156 c7bc
00000020: 3569 c2be a4ec 403e c541 f03d 02f3 16be
00000030: 0923 163e 4856 6abc f892 ea3d 0ccc 103d
00000040: c829 1bbc b32a 203e 296f fb3d fc36 c8bd
00000050: 3ab9 083e c7d2 60bd f118 4cbd 54b0 6a3e
00000060: 12d1 8dbd 5564 cd3e a3f1 8d3d bb5b a4bd
00000070: 9f47 b5bd 7a8a 9dbc 7cc2 79bd 1588 2c3d
00000080: 8f2f d13e dfa2 153e 3ec4 92be d511 bdba
00000090: 912a fd3c 6d39 9ebd e7bc fbbd a9f1 a7bd
000000a0: ba0a 72bc e74d 133d 54e6 87bd e4dd 02bc
000000b0: 0def 18be c5d1 99bd bb14 fc3d 1231 dcbd
000000c0: 3202 62bd c58d 7ebe 4b11 fa3c 4391 98be
000000d0: 3715 d3bd 4bd4 12be 75b2 103d b0a2 23bd
000000e0: d47a 02bf 896e c3bd e09b d23e 213d 1cbe
000000f0: 403d 13bc 6c64 d5bd 802f 3dbe 2008 cbbb
00000100: ef26 1e3d a4a6 043e bf23 0a3e 063a b0bd
00000110: d62f 99bd ef7e 933d 4417 f7bd 1126 eb3d
00000120: 3afc 8fbd 4ccb 9abd fc81 e4bd c32f e3be
00000130: 5449 133e a713 f6bd b41d af3d e297 71bc
00000140: bd49 20be 2345 bb3d 1d35 20bf 99b9 85bd
00000150: f0b8 703e 014c 13be d2c4 ae3c 8bad eb3d
00000160: b159 0a3d 067a bbbd d531 c73c eb78 d3bd
00000170: dca9 c03d 37c6 553d f75c 57bd ec91 143e
00000180: 104d 82bd e021 0c3e 270c 543d 4abb 523e
00000190: e0f6 e13c 1f33 5fbe 951d a63c c44d 91bd
000001a0: 0441 d23c 3f81 13be b3b2 f8be 23cb e2bd
000001b0: 9d1c d73e 5729 41be b175 f33d 54b0 073d
000001c0: e30a c2be 50e5 203e ff37 1a3e 736e 043e
000001d0: 9606 80bd 125b c53d 66e4 e6bc 87aa c8bd
000001e0: cd65 63be 9df4 693d cae1 10be 1db4 4ebe
000001f0: 0297 1abe a4d3 a9be 2ba4 0b3e 2f5a a5bd
00000200: 9d2f c23d 7537 b73d d195 e13d a046 95bd
00000210: 9d42 35bf 837a 4f3d bbdc 3e3e ca12 b7bb
00000220: 05b1 febc d96c 013d f010 193e ee01 ea3d
00000230: a31e e4bd bc4b bbbd b2c5 233d 7488 e2bd
00000240: 8085 db3b ef50 af3d 38b0 aebd 757b 90bd
00000250: 9f7e 183d 64d8 853e 22b0 2d3b d26d 8cbe
00000260: 9f55 01be 3ab1 113d a4ae 223e 7d90 24bd
00000270: ae38 f9be b8c2 2b3d c55f bd3e b8ff e8bd
00000280: 9bd2 0dbe 3ab4 053e cff2 4dbe 8fc0 893e
00000290: 7df4 a1bd d696 f8bd 0c30 6c3e 49b6 fbbd
000002a0: 2715 273d 7fd8 9bbd 2294 b8bd 10d3 313e
000002b0: 4dfd a5bd 02d2 c6be 7798 46be ef85 7bbe
000002c0: dbba 9ebb ccf3 923d d080 963e e70b 84bd
000002d0: d0ff 2ebe fef9 6c3c e109 2bbf bff5 20be
000002e0: e350 9e3e 2646 e7bd 7869 d83d c1f5 0a3e
000002f0: 0013 33bb 2580 3cbe d452 c3bd f931 b8bd
00000300: cc4e 5f3d 9b68 a3bc 12ca ef3d 4aca ee3d
00000310: b013 a63d 7493 b9bd c21c c3bb 4d73 643e
00000320: 058e 61bd 14ac d2be 33dd 18bf 9a51 aa3c
00000330: d7ae 9f3d 5643 213f f983 883e 7f70 513d
00000340: 21f9 683e 21d6 11bf 3671 d83d 9b37 b03c
00000350: dda9 edbd b464 7ebe 9e73 b1bd 59da f0bc
00000360: 352f 83bd 74cc be3d 05ee 22be 2e49 6cbd
00000370: d904 0e3d a3de 5dbd b8d5 af3e a9f2 0dbf
00000380: f7a9 663e 3658 0bbf 8b0a 24be 020f a8bd
00000390: 7977 85be 8806 36bd 5d7f 0fbe 8301 063c
000003a0: ee2c ec3d 1ea6 983c 85ab ebbd b6eb 0dbe
000003b0: b34a 3cbe 60bb bebd 8e79 a0bc 2cc7 febd
000003c0: 5e8e 21bd d8ea d3bd 639c b3bd eebd 71bd
000003d0: a394 babd e030 b8bd 8318 a3bd 48a0 56be
000003e0: 8a00 dabd a126 8f3e 7a0d 39be 29ce 803e
000003f0: e6d6 7d3d 751c 223e 0772 133d 3ab3 183e
0.0004645724 0.0823373 -0.06948374 0.14497167 -0.07086698 -0.016414674 0.44817576 -0.02433339
-0.37970892 0.18840271 0.117312945 -0.14741138 0.14661802 -0.014302798 0.11453813 0.035350844
-0.009470411 0.15641288 0.122770615 -0.097761124 0.13351908 -0.054888513 -0.049828473 0.22918826
-0.069246426 0.4011561 0.06930854 -0.08025309 -0.08851551 -0.01923107 -0.06097649 0.042121965
0.40856597 0.14612912 -0.28665346 -0.001442487 0.030904086 -0.07725797 -0.1229189 -0.0820039
-0.014773065 0.035962965 -0.066357285 -0.007987473 -0.1493494 -0.075107135 0.123086415 -0.10751547
-0.055177875 -0.24858768 0.030525824 -0.29798326 -0.10306781 -0.14338796 0.03532644 -0.039950073
-0.5096867 -0.09542567 0.41134548 -0.15257694 -0.008986771 -0.104195446 -0.18475151 -0.006196037
0.03861135 0.12954193 0.13490199 -0.08604817 -0.07479827 0.07201945 -0.120649844 0.1148187
-0.0703053 -0.07558307 -0.11157605 -0.44372377 0.14383441 -0.12015467 0.08550587 -0.014745684
-0.15653129 0.09144046 -0.62581044 -0.065295406 0.23508048 -0.14384462 0.021334086 0.1150771
0.033776943 -0.091541335 0.024315754 -0.10325798 0.09407398 0.052190986 -0.052578893 0.1450879
-0.06362355 0.13684797 0.051769402 0.20579258 0.02758354 -0.21796845 0.020277778 -0.07094911
0.025665767 -0.14404772 -0.48573837 -0.110739015 0.42014018 -0.18863426 0.11887682 0.033127144
-0.3789893 0.15712476 0.15060423 0.12932758 -0.06251256 0.09636511 -0.02818508 -0.097981505
-0.22206803 0.057118047 -0.14148632 -0.20185895 -0.15096667 -0.3316928 0.13636844 -0.08073842
0.09481738 0.089461245 0.11014903 -0.07288861 -0.7080477 0.050653946 0.1863889 -0.0055869566
-0.031090269 0.031597946 0.14947867 0.11426149 -0.11138656 -0.091453046 0.03998346 -0.110611826
0.006699264 0.08560359 -0.08529705 -0.070547976 0.03723013 0.26141655 0.0026502688 -0.27427536
-0.12630318 0.035569407 0.15886933 -0.040176857 -0.48676056 0.041933745 0.3698713 -0.113768995
-0.13849871 0.13057032 -0.20112155 0.26904723 -0.079079606 -0.12138145 0.23065203 -0.122906275
0.040791657 -0.07609653 -0.09012629 0.1736567 -0.08104954 -0.38832098 -0.19394098 -0.2456281
-0.0048440523 0.07175407 0.2939515 -0.06447583 -0.17089772 0.0144639 -0.6681195 -0.15718745
0.30921087 -0.11292677 0.105669916 0.1357031 -0.0027324557 -0.18408258 -0.095372826 -0.089939065
0.054518506 -0.01994734 0.11708464 0.11659677 0.08109224 -0.090613276 -0.005954356 0.22309609
-0.05506708 -0.4114691 -0.59712523 0.020790864 0.0779702 0.6299337 0.26663187 0.051132675
0.22751285 -0.5696736 0.10568468 0.02151089 -0.116046645 -0.24843103 -0.0866463 -0.029400991
-0.064054884 0.0931634 -0.1591111 -0.057686977 0.03467259 -0.0541674 0.34342742 -0.55448395
0.22525774 -0.54431474 -0.16019647 -0.082059875 -0.26067713 -0.044439822 -0.14013429 0.008179071
0.11532007 0.018633898 -0.11507324 -0.13859448 -0.1838787 -0.09313083 -0.019589212 -0.12440333
-0.039442413 -0.10347527 -0.08770063 -0.05901902 -0.091103815 -0.08993697 -0.079636596 -0.2095958
-0.10644634 0.2795916 -0.18071547 0.25157288 0.06197252 0.15831168 0.035997417 0.1491212

fc4.bias f4 [50]
00000000: efea 89bd cc16 ab3d 36f3 d33d 921f b7bd
00000010: 1d81 073e fc1a 9fbd 2bd8 2a3e 5cd7 8f3d
00000020: 54ed a13c a043 8e3c 46d5 04be db74 b03d
00000030: 8a40 a2bd 616f 0b3e ad08 30bd 2f83 ddbd
00000040: 2cea f63d 7dd3 cdbd 08d9 a83c e4e8 53bd
00000050: a3cb 4dbd 854c d23d 6811 d7bd 338d 84bd
00000060: 39cc 7a3d c582 933d 156d 10bc c6db 643d
00000070: f048 49bd 3184 a8ba 8cfd 2e3c 22ed 153e
00000080: 3e68 f3bc 2921 53bd 19f2 043e 796a 683d
00000090: 2c6c b13d 1353 873d c9a9 593b 7569 7fbc
000000a0: dec3 fe3d 1ac3 ddbd 95a3 7c3d 8eff 51bc
000000b0: 6f0d 003e b1bf 123c 6e2c d9bd 61c2 d83c
000000c0: a00c 01bd 764b e23c
-0.06734263 0.083539575 0.10349123 -0.089415684 0.13232847 -0.07768819 0.16684024 0.070234984
0.019766487 0.01736623 -0.12971982 0.086160384 -0.07922466 0.13616706 -0.042977024 -0.10816037
0.120563835 -0.10050104 0.020611301 -0.051735774 -0.05024303 0.10268501 -0.10501367 -0.06472244
0.06122992 0.07202677 -0.00881507 0.055873655 -0.049141824 -0.0012856779 0.0106805675 0.1464124
-0.029712792 -0.051545296 0.12982978 0.056742165 0.0866321 0.06607642 0.0033212772 -0.015589108
0.124397025 -0.10828228 0.06167944 -0.012817277 0.12505125 0.008956836 -0.106041774 0.026459875
-0.03150618 0.027623873

fc5.weight f4 [1, 50]
00000000: 41f9 8fbe d3aa dc3d e42e 253e d738 9d3e
00000010: 2f8a cbbe 6edb 48be cb48 39bf b073 073e
00000020: a146 6bbf 93e5 c23e 5668 14be 7921 93be
00000030: 8446 3bbe f41f 5abe 9810 29be 12ac 3cbe
00000040: c4ba 353e b696 c13e 380c 883e 33bf ba3e
00000050: d2e2 20be e482 67bf 888c 493e 1113 8d3e
00000060: 3df8 803e cfba 6fbf 373f 603e 1075 42bf
00000070: 5b29 7f3e 8b63 913e 8423 75be 2299 81be
00000080: de06 25be 30c2 4ebf 3f8b 83be e263 55bf
00000090: 67fb 9ebe 5af1 743e f160 333e 836c 37be
000000a0: 7c1c dfbe 97b1 30be cad9 bbbe 718d 413e
000000b0: dc67 39bf 244b 73bf ec16 dabe d377 26bf
000000c0: 7ec3 85bf 84a1 3a3e
-0.28119853 0.1077477 0.16131169 0.30707428 -0.39753863 -0.19614956 -0.723767 0.13227725
-0.91904646 0.38065776 -0.14492926 -0.28736475 -0.18288618 -0.21301252 -0.16510236 -0.18425015
0.17747027 0.37810296 0.26571822 0.36473998 -0.15711525 -0.904341 0.19682515 0.2755361
0.2518939 -0.9364442 0.21899115 -0.75959873 0.2491812 0.28396258 -0.2393933 -0.25312144
-0.16115901 -0.80765057 -0.25692174 -0.83355534 -0.3105118 0.23920193 0.17517449 -0.17912488
-0.4357642 -0.17255245 -0.36689597 0.18901612 -0.724241 -0.9503653 -0.42595613 -0.6502659
-1.0450284 0.18225676
