thesis/may/week 8/models/320_neurons_1_layers_ema.pth (torch, 833116 bytes, 8 tensors)

net_layers.0.linear.weight f4 [320, 3]
000000 d4 b6 f5 bd 0e c4 0c 3e 22 cd 7e 3e 36 51 5f 3d
       -0.11997762 0.13746664 0.2488294 0.05452081
000010 86 02 5a be b1 55 88 3e 90 eb fa bd 73 52 70 be
       -0.21290025 0.26627877 -0.12251961 -0.23468952
000020 ef 07 70 3d 43 55 60 3e 9d cc 71 3e 41 73 79 be
       0.058601316 0.21907525 0.2361321 -0.24360372
000030 87 dc e8 bd 5b 07 a1 3e 60 cb e6 39 eb 2c ea 3d
       -0.11370187 0.31450924 0.00044020545 0.11434349
000040 65 95 55 3e b3 aa 9d 3e b3 16 a9 3d d1 8b 82 3e
       0.2085777 0.30794296 0.08256283 0.25497296
000050 b3 5e 8f 3e 1c ba bb bb 83 6e 51 3b e2 44 e0 bc
       0.28001937 -0.005728973 0.003195674 -0.027376596
000060 8d 9c 77 3e 8b 26 4e 3e 6c e5 2d 3e 9b 43 35 be
       0.24180813 0.2013189 0.16982049 -0.1770157
000070 7c cc 82 3e de ea 24 be 3b 3f 1f be f8 bd 91 3e
       0.25546634 -0.1610522 -0.15551464 0.28465247
000080 20 cf 94 3d 47 09 2c be d8 ef 21 3e 53 1b de 3c
       0.072660685 -0.16800414 0.1581415 0.027112639
000090 58 be 82 3e bc 90 75 be 2e c6 7a be 7c e2 a6 3e
       0.25535846 -0.23980993 -0.24489662 0.3259467
0000a0 a3 a2 95 3d c2 95 49 bd 2e 9b 7e be e2 25 6d 3e
       0.07306411 -0.049215086 -0.24863884 0.23158982
0000b0 d4 4d 23 be cc bf 49 bd 92 dd 3c be 6f 1d c0 3d
       -0.15947658 -0.049255177 -0.18443897 0.09380614
0000c0 09 df 73 be 24 fc f0 3a 14 ee 6e be e0 e7 8c bd
       -0.2381555 0.0018385691 -0.23333007 -0.06880164
0000d0 2e ab 6e 3e a6 35 2f 3d 33 cb e6 3c 97 71 8c 3c
       0.23307487 0.042775773 0.028173065 0.017144008
0000e0 83 57 91 3d e3 fb 83 3e 89 2f 93 bb ca 01 11 3d
       0.0709677 0.25778112 -0.0044917506 0.035402097
0000f0 a2 04 8a be 34 43 9b be bd 11 9a 3e 77 97 37 be
       -0.2695666 -0.3032471 0.30091658 -0.17928873
000100 1e ea 0b be 58 aa 32 be 05 ca f3 3c 84 26 a7 3e
       -0.13663527 -0.17447793 0.029759416 0.32646573
000110 69 2e 80 3e 90 55 10 bd 9e bf ae 3c 64 44 65 3e
       0.25035408 -0.03523785 0.021331605 0.2238937
000120 d7 42 af bd 53 be 5c be 75 5b 58 be 8d 0f 30 be
       -0.085576706 -0.21556978 -0.21128638 -0.17193432
000130 b4 f1 94 3e 84 9a 00 3d ff 17 54 be fb c2 fe 3d
       0.29090655 0.031397358 -0.20712279 0.12439533
000140 d9 dc a2 3b ac a9 17 3e 79 8b 3a 3e 54 25 42 3e
       0.0049701747 0.14810818 0.18217267 0.18959552
000150 41 5e 67 bd 80 3d a3 be ba 1c 79 3d 76 a4 a1 3e
       -0.056486372 -0.31882858 0.06081841 0.31570786
000160 a7 77 86 be 93 0e 8a 3e a7 52 77 be 08 7e 52 bd
       -0.26263162 0.26964244 -0.24152623 -0.051389724
000170 47 b6 48 3e 58 42 9a bd b4 3d 12 be 13 f2 18 3e
       0.19600783 -0.07532185 -0.1428135 0.14936094
000180 f9 17 8b be 2e 7c 33 be 7a ba 2e be 78 b4 8e 3e
       -0.27166727 -0.1752784 -0.17063323 0.27872062
000190 cf 6b 13 be ed a7 09 be 01 53 bb bd c9 a5 4e 3e
       -0.14396594 -0.13442965 -0.09146691 0.2018043
0001a0 81 f2 3d be d7 1c ab 3b 7a 6d a6 3c 4c 90 22 be
       -0.18549539 0.005221944 0.020315874 -0.15875357
0001b0 7e a5 27 bd b8 c2 a1 be e4 ca a3 3e 7c 50 45 be
       -0.04092931 -0.3159387 0.3199073 -0.19268984
0001c0 22 bb 6c bd dc c1 96 3e 33 e1 db bc 65 02 fa 3d
       -0.05779565 0.29444778 -0.026840782 0.12207488
0001d0 45 b7 9a 3e a1 cd 85 3d 65 e4 90 3e e6 ff 7f be
       0.3021795 0.06533361 0.2829925 -0.24999961
0001e0 ae 11 a1 be b5 61 fb bd 72 40 70 be c9 0f 1e 3e
       -0.314588 -0.122744955 -0.23462084 0.15435709
0001f0 43 10 84 3d 74 a0 28 be 6a 2d 73 3d c9 9f 9e 3e
       0.06448414 -0.16467458 0.059369482 0.3098128
000200 45 ba be bc 2d 7b 57 bc 16 99 1d 3e e3 6b 2d be
       -0.02328218 -0.013151926 0.15390429 -0.16935687
000210 d7 9d 78 3e ea 99 7f bd 46 98 66 ba 4d 8c fa 3d
       0.24278961 -0.062402643 -0.0008796494 0.122337915
000220 10 34 ec 3b 64 83 80 bd a2 fc 80 be ea 8d 57 be
       0.007208355 -0.06275061 -0.25192744 -0.2105023
000230 41 d9 79 be b0 5c 8a 3e da 0c a4 3c f4 46 53 3e
       -0.24399282 0.2702384 0.02002566 0.20632535
000240 df 28 11 be 2e 41 80 be 6b 64 6a 3e 25 de 27 be
       -0.14175747 -0.25049728 0.22889869 -0.16393335
000250 21 e0 a9 3e 4f e5 f1 3d 3a 57 37 3e 41 aa 37 3e
       0.3317881 0.11811315 0.17904368 0.1793604
000260 f3 13 26 be e6 f6 35 be 29 11 9c 3e 32 13 c9 3c
       -0.16218548 -0.17769966 0.30481842 0.024545286
000270 9d 0b 3f 3d 00 e5 4f 3e 2e 23 51 bc af bc d3 3d
       0.046641935 0.203022 -0.012764735 0.10338723
000280 a1 b5 d7 3c f0 60 d6 3b 6d e1 99 be 87 97 5f be
       0.026331725 0.0065423176 -0.300548 -0.21835147
000290 3d b3 f3 3d 82 e0 b2 3d fc 74 43 3e 42 f4 e1 bd
       0.11899421 0.08734228 0.19087595 -0.110329166
0002a0 f9 6b 0c 3e 03 a1 89 3e 05 1d 94 be 6c 4e 72 be
       0.13713063 0.26880655 -0.2892839 -0.23662728
0002b0 50 ab 6e be 27 74 c1 3d fa dd 78 bd 8f e2 6c 3d
       -0.23307538 0.094459824 -0.06075857 0.05783325
0002c0 41 64 9b 3e 3f 53 af 3d e9 1c 91 3e 4c 53 6b 3e
       0.30349925 0.085608 0.2834237 0.22980994
0002d0 d9 97 2c 3e d9 50 87 be 21 9c 70 3e f0 1c 9f 3e
       0.168548 -0.2642887 0.23497058 0.31076765
0002e0 3c 28 83 3e 00 8d 8b be 46 ba 51 3e d8 4c 89 3e
       0.25616634 -0.27256012 0.20481214 0.2681644
0002f0 bc 9f 06 be 1f d2 dd 3c b7 70 82 3d e3 66 29 bc
       -0.13146871 0.027077733 0.06369155 -0.0103394715
000300 5c 42 44 3e 47 bf 29 be 86 1d a0 3e 98 5f 8a 3e
       0.19165939 -0.16576873 0.31272525 0.27026057
000310 68 83 95 3e 9f 68 6e be 7a 5e 4b 3d fd cf c9 3d
       0.29201818 -0.23282097 0.049650647 0.09854124
000320 5a f9 f6 3d c1 ac a4 bd c1 f9 76 3e 04 05 80 be
       0.12059279 -0.08040763 0.24118711 -0.25003827
000330 51 40 5e 3c b9 8e 16 be 03 b4 61 3e b7 67 36 3e
       0.013565139 -0.14702882 0.22041325 0.17813002
000340 02 e7 99 3e 32 42 8d 3e 8e 81 26 be df 86 31 3e
       0.30059057 0.27589566 -0.16260359 0.17336605
000350 69 99 3f 3d 78 78 25 be ac 7c 13 3e 76 03 0d be
       0.046777163 -0.16159236 0.14403027 -0.13770851
000360 ea c2 d8 3d b5 55 c3 bd 75 56 97 be 69 d1 11 3e
       0.10584052 -0.09537832 -0.2955815 0.1424004
000370 30 d9 50 3e 4a c4 57 3e f2 e3 f8 3d c6 98 c2 bc
       0.2039535 0.21070972 0.12152852 -0.023754489
000380 01 0b 8a be 52 0c 52 3e 03 31 e9 bd 90 ba 4b be
       -0.2696152 0.20512512 -0.11386301 -0.19895387
000390 ff 41 4c be 83 f1 41 3d 1a 7d a7 3d 37 9a 50 3d
       -0.1994705 0.047349464 0.08178158 0.05092832
0003a0 a3 82 8e 3e 70 ed 06 3e ba e4 98 be 71 c4 88 3c
       0.27834043 0.13176513 -0.29862005 0.016695233
0003b0 4c bf 00 be c4 86 21 3e a6 eb 91 3e 56 0d 80 3d
       -0.12572974 0.15774065 0.28500098 0.06252544
0003c0 9f 54 ea bd b7 f4 83 3e 62 4f 7e 3e 2f bb 37 3e
       -0.114419214 0.2577264 0.2483497 0.17942499
0003d0 e7 3f 6c be 54 c3 39 be f6 a7 0c 3e 64 6d 20 bd
       -0.23071252 -0.18140918 0.13735947 -0.039166823
0003e0 b6 61 62 be 1e fb 9f 3d 31 f8 77 bd 55 6b 15 3e
       -0.22107586 0.07811569 -0.06053943 0.14591725
0003f0 9a 10 11 3e 05 ad 0f be 38 e4 ca bd 43 b7 a2 be
       0.14166489 -0.14030845 -0.099068105 -0.31780443

net_layers.0.linear.bias f4 [320]
000000 6d 73 01 3f 1b 28 d3 3e 3c fb 93 be e5 5c b5 bd
       0.5056675 0.41241536 -0.28902614 -0.08855609
000010 59 01 80 be 48 89 ad bb 02 e6 a8 3d f3 9d 94 3e
       -0.25001028 -0.005295906 0.082469955 0.29026756
000020 3c 80 2f 3d ae 2a fb 3d 73 47 7b be 18 95 8c 3e
       0.042846903 0.12264 -0.24538974 0.274575
000030 94 67 c2 3c 1f 38 8e be 75 6f c2 bd 16 2a 87 3e
       0.02373103 -0.27777192 -0.09493915 0.26399297
000040 7e ca 1d 3d 77 21 b1 3e 63 7d 09 3d 02 dc c9 be
       0.03852319 0.34595844 0.033566844 -0.39425665
000050 5a 1d 99 3d e4 f5 c1 3e 1a a4 0c 3f b7 96 01 3f
       0.074763015 0.37882912 0.549379 0.506206
000060 be d3 b3 3e da 51 c2 3d 62 90 f5 be e2 bd 77 3e
       0.35122484 0.09488268 -0.47961718 0.24193528
000070 b4 ef 09 3f ce 97 5a be ea ad 9d 3e 1b 2d 83 bd
       0.5388138 -0.21346971 0.30796748 -0.064050876
000080 30 0f b4 3e 44 e2 09 bf f9 2f 58 3d 8c e8 36 3e
       0.35167837 -0.5386088 0.052780125 0.17862147
000090 0d fd c3 3e 18 45 00 bf 6b 96 77 be 32 e9 d4 3d
       0.38279 -0.5010543 -0.24178474 0.10396041
0000a0 53 f2 4f 3e 9c 8d 8f 3e 26 7f cc be 14 98 e0 3e
       0.20307283 0.28037727 -0.39940757 0.43866026
0000b0 90 ff 7d 3e 3e 00 e4 be 7c f1 1b be 6a 85 6b be
       0.2480452 -0.44531435 -0.15228838 -0.23000112
0000c0 4b 24 10 3f d0 3f 9c 3d ca 3d f9 be a5 7c 5d bd
       0.5630538 0.07629359 -0.48679954 -0.05407395
0000d0 92 27 e9 bd c8 ff 7a 3e ed 82 db be 8e 7c e4 be
       -0.113845006 0.24511635 -0.42873326 -0.44626278
0000e0 5f 1e 8b bd 0f 1c e9 3e 34 d2 e6 3e 61 67 b3 be
       -0.06792902 0.4552922 0.45082247 -0.3503981
0000f0 77 ec 8d 3e d7 bc 07 bf 12 34 c5 3d b6 b2 02 3e
       0.2771947 -0.5302252 0.09629072 0.12763485
000100 70 95 09 3f 20 47 a3 3e e4 25 d7 bd de ae 0c bf
       0.5374365 0.31890202 -0.10505274 -0.54954326
000110 31 58 f8 3e 74 d3 02 bf 29 15 12 3e f4 24 56 be
       0.48504785 -0.511039 0.14265884 -0.20912534
000120 fa 3f e5 3e be 5a 77 be 21 5d 0b bf 43 f3 06 3e
       0.44775373 -0.24155709 -0.5443898 0.13178734
000130 bd 08 6f 3e b0 dd cd be a2 38 c6 be 90 ab ad be
       0.23343177 -0.40208197 -0.38715082 -0.33919954
000140 ca 33 1b be 41 28 9c ba 2b 34 11 bf f6 99 83 be
       -0.15156475 -0.0011913852 -0.56720227 -0.257034
000150 ff 1f 8e 3e 02 7c bb 3e 6a 9d 15 bf 7f ad ff be
       0.27758786 0.36618048 -0.5844332 -0.49937055
000160 33 f9 05 3f ce f8 a3 3e 2a f0 c9 3c e6 ac 14 3e
       0.5233337 0.3202576 0.024650652 0.1451908
000170 10 bc 03 3e 3e c5 d8 bc 58 27 58 be 1b cd 79 bc
       0.12864709 -0.02646124 -0.21108758 -0.015246655
000180 1f 6e 16 3e 11 70 d5 bd 16 e5 4e 3e f1 c2 3b 3d
       0.14690445 -0.104217656 0.20204577 0.045840207
000190 f4 bd 0e bf 04 dc 7b 3e 81 17 c6 3e df 12 2b be
       -0.55758595 0.24595648 0.38689807 -0.16706418
0001a0 78 e6 e6 bd d9 75 b5 3e ea 2f b7 3e 4f 67 db 3e
       -0.11274427 0.35441473 0.35778743 0.42852256
0001b0 67 11 c1 3c e8 11 f0 3e 19 b2 0c bf 8d 3f cc 3d
       0.023567868 0.4688866 -0.54959255 0.09973059
0001c0 15 d5 03 3f 84 08 0c 3f 4f d8 dd be a9 0f 22 be
       0.5149701 0.54700494 -0.43329093 -0.15826286
0001d0 70 14 05 3f 46 5c 18 3e 7f be b5 be 11 bf 99 3e
       0.5198431 0.1487895 -0.354969 0.30028585
0001e0 a1 a6 72 bc 9e 87 9a bc 3b 11 a6 3e 37 55 bb 3e
       -0.014810235 -0.018863495 0.3243502 0.3658845
0001f0 b1 6e c4 be 31 66 09 3e 19 50 38 be 92 fb b1 be
       -0.383657 0.13417889 -0.17999305 -0.34762245
000200 c0 11 76 3d 35 f0 42 be be bc f9 3e d4 63 e3 3e
       0.06007552 -0.19036944 0.4877681 0.444121
000210 e6 02 5b 3c 88 d3 6b 3e ba 38 de 3e 4b 4f ea 3e
       0.01336739 0.23029912 0.43402654 0.4576362
000220 39 31 d9 3e 90 da d7 3e d0 aa 08 bf b2 45 e4 bd
       0.42420366 0.42158937 -0.5338564 -0.11146106
000230 85 e8 d2 3b 90 da 05 be 30 c4 f0 be 14 da 84 3c
       0.00643641 -0.13071656 -0.4702468 0.016217269
000240 93 dd e8 3e ee b5 80 3e dc ae a7 bd b2 5f ca be
       0.45481548 0.251388 -0.08187649 -0.39526135
000250 be 76 25 3d 29 dc 6e be 88 f5 0c 3f 52 3b 06 3f
       0.040396444 -0.23326172 0.5506215 0.52434266
000260 6c 7c 51 bc 2b ac 62 3d 2e c1 60 be 08 78 31 3d
       -0.012786012 0.055339973 -0.21948692 0.04332736
000270 33 0e 18 3e 1e 52 a6 3d 1d e0 0c be 1c 80 db be
       0.14849167 0.08121131 -0.13757367 -0.42871177
000280 7a ba 83 be 7b ad 0d 3f dd e2 32 bd 6a b0 4d 3c
       -0.25728208 0.55342835 -0.043673385 0.012554267
000290 b6 bb 51 3e 81 87 a7 be c6 10 d5 be 2e 33 e6 3e
       0.20481762 -0.3272057 -0.4161436 0.44960922
0002a0 29 b3 0f 3f 55 b8 f9 be 83 08 50 3e 24 d7 5f 3d
       0.5613275 -0.48773447 0.20315747 0.054648533
0002b0 75 ba 94 be e1 18 37 be 91 38 a1 bb 02 69 13 bf
       -0.29048505 -0.17880584 -0.0049200733 -0.57582104
0002c0 36 7d b9 3e 13 84 39 3d 81 fd b9 be 7e ee 9e 3e
       0.3622834 0.04529197 -0.3632622 0.3104133
0002d0 6c f7 f6 3e 66 1a 26 be 01 0a cb 3e 9e 1c e0 be
       0.48235643 -0.16221008 0.3965607 -0.43771833
0002e0 52 0a 13 3e 7b e2 08 bf 7a fd 3a bd cf 5c 40 3d
       0.14359406 -0.5347058 -0.04565189 0.04696351
0002f0 99 8d 19 be 1f 12 f2 be dc 6c db 3e 48 43 c9 3e
       -0.14995421 -0.4727945 0.4285649 0.39309144
000300 c7 21 03 3f 11 ab e1 be 0b 3c f3 3e 1f e1 86 3e
       0.51223415 -0.44075826 0.47506747 0.2634363
000310 6c 23 e8 be db e6 e2 be 32 b0 6d 3e 4f ae f5 be
       -0.45339525 -0.44316754 0.23211744 -0.4798455
000320 c2 df 4b 3e 37 05 0e bf 2d 23 8e 3e 44 a4 ef bd
       0.19909576 -0.5547671 0.27761212 -0.11701253
000330 8c 5c 88 3e 11 37 a7 3e d7 d0 c8 3a c3 5f e2 be
       0.26633108 0.326592 0.0015321028 -0.44213685
000340 77 5e ee 3e 0f 03 1e be ed 44 ea 3d a9 35 8e be
       0.46556446 -0.15430854 0.11438928 -0.27775314
000350 01 ce 57 3e b4 6d a0 3d d6 f1 b3 bd 39 93 01 3f
       0.21074678 0.07833424 -0.08786361 0.5061527
000360 3d ca 00 be b0 c8 e2 3e 73 01 89 3d 28 81 04 bf
       -0.12577148 0.44293737 0.066897295 -0.51759577
000370 a7 26 42 3e 94 d9 b8 be 6b c0 6e 3e 6b c7 82 3e
       0.18960057 -0.361035 0.23315589 0.2554277
000380 76 56 c1 3d 1b df 12 3f a8 32 b3 be ad b3 ec 3e
       0.09440319 0.5737168 -0.34999585 0.46230832
000390 af a2 04 3f 2e ce e1 3e 62 e6 e1 be b8 47 08 bd
       0.51810735 0.44102615 -0.4412108 -0.03327152
0003a0 20 f8 0a be e4 2f 4d be a5 9f 11 3f 83 30 08 3f
       -0.13571215 -0.200378 0.56884223 0.53199023
0003b0 84 0f be be be 0d 9e be 4a e9 08 bf 47 4a 8a be
       -0.37121212 -0.3086986 -0.5348097 -0.27009794
0003c0 46 0b b8 3c b8 8b 8b 3d eb 4f ab 3e e6 72 e6 3e
       0.022466313 0.068137586 0.3345941 0.45009536
0003d0 7a 75 b0 bd 03 af 03 3d ae 17 a3 3d 42 b7 62 3e
       -0.08616157 0.032149326 0.07963501 0.2214022
0003e0 e0 ea ef be f9 17 bd 3d 04 5a 92 3d 99 29 f3 3e
       -0.46858883 0.09233088 0.07146075 0.47492674
0003f0 cd 89 0a bf b8 8d 21 be 00 49 9d 3e 4b 4c 25 3e
       -0.5411652 -0.15776718 0.30719757 0.16142385

net_layers.1.linear_1.weight f4 [320, 320]
000000 b7 c4 b2 3b d9 e8 b2 ba d7 7c 31 3c 67 f1 81 3b
       0.005455579 -0.0013649716 0.010832987 0.003965545
000010 be 54 06 3b 4a f9 b0 3b e0 8c bc 3b f7 b6 f9 b9
       0.0020497288 0.0054008113 0.0057540983 -0.000476293
000020 b0 9e ac 3b 34 1f 0f 3b bf 6d 92 3b 30 c4 8c 3b
       0.0052679405 0.0021838667 0.004468649 0.0042958483
000030 1c 35 04 bc 95 f7 7f 3b 40 60 d6 39 e8 71 82 ba
       -0.008069303 0.0039057482 0.00040888973 -0.000995216
000040 d7 c7 ab bb 33 81 86 3b 1b 04 43 bb e2 da 56 bb
       -0.0052423286 0.004104757 -0.0029757086 -0.0032784273
000050 fe 35 93 bb 69 d1 7c 3b 13 53 79 bb e7 64 a0 bb
       -0.0044925204 0.0038576967 -0.00380439 -0.004894841
000060 10 a4 9d 3a 50 61 44 bb b6 12 e3 ba 7e 02 cf bb
       0.0012027044 -0.002996523 -0.0017324302 -0.0063174358
000070 28 28 50 39 f2 cc 41 3b 10 49 9c bb 02 c8 91 bb
       0.00019851385 0.002957162 -0.004769452 -0.0044488916
000080 95 3d 16 3c ef 28 52 ba b1 50 f9 ba 5c 0a 4f ba
       0.009169956 -0.0008016964 -0.001902124 -0.0007897967
000090 f4 c1 25 bb 5d 5b 05 3b cc 9b 20 bc d6 88 df 3b
       -0.0025292607 0.0020348646 -0.00980277 0.006821732
0000a0 3f df 50 bb f1 43 98 bb db 46 5e bb 12 4f 87 38
       -0.0031871346 -0.004646771 -0.0033916745 6.4520296e-05
0000b0 12 0a 40 bb 5b ae 7d 3b ca cd f4 3b 14 28 a7 3a
       -0.0029302877 0.003870866 0.007470821 0.0012753033
0000c0 61 85 b0 bb 00 d1 e2 38 14 19 f6 37 1c 29 ac 3a
       -0.0053869938 0.00010815449 2.9337163e-05 0.001313481
0000d0 47 5a 52 b9 10 e3 89 bb 23 ed 85 38 41 0c d9 bb
       -0.00020060792 -0.004207976 6.386104e-05 -0.006623775
0000e0 5b d4 39 3b af 77 26 bb 67 ac 1c 3b 3b 49 0e 3c
       0.0028355333 -0.0025400927 0.002390647 0.008684452
0000f0 0f 54 e2 bb 2c 13 e8 bb 3e 71 ab 3b 69 83 03 3b
       -0.006906993 -0.0070823636 0.0052320054 0.002006734
000100 a2 e5 37 3b f0 87 6b ba f8 bd a3 3b 9a 67 92 bb
       0.0028060456 -0.0008984795 0.0049970113 -0.0044679167
000110 43 2b 9a 3b d9 73 8c bb 0a be 90 3b d6 67 17 ba
       0.004704864 -0.004286271 0.0044171857 -0.00057756656
000120 36 12 60 bb 52 70 dd 3b d7 c9 20 bb c2 27 a6 ba
       -0.0034190542 0.0067577744 -0.0024534368 -0.0012676644
000130 68 9f f3 bb 0d ab ba bb 57 b4 49 3b da a9 d1 bb
       -0.007434774 -0.0056966604 0.0030777657 -0.0063984217
000140 d8 0a 3f 3b 8b e3 04 3b aa b6 80 bb 58 53 45 3b
       0.002915075 0.0020277228 -0.0039280253 0.0030109491
000150 74 00 52 bb c4 15 5c 3b af c1 e9 38 6b 3d a4 3b
       -0.0032043727 0.003358231 0.00011146382 0.0050122044
000160 37 fb 7e 3b 37 bf 4a 3b d1 2e 45 3c 81 2c 67 ba
       0.003890706 0.0030936727 0.012035088 -0.0008818582
000170 60 ee 3c bc 8a a3 7d 3b a4 d6 e5 39 27 37 2d b9
       -0.011531442 0.0038702213 0.00043838203 -0.00016519112
000180 05 65 9c 39 90 d4 2a 3c ca 33 1b bb 3e 41 ce 3a
       0.00029829904 0.010426655 -0.0023681992 0.0015735996
000190 57 2f 20 3b 04 33 f0 ba 30 db fa 3a 17 dd 53 bb
       0.002444228 -0.0018325751 0.0019138809 -0.0032327825
0001a0 5c 88 a1 3b fb d6 48 3b ac 2c 52 3b 6f 3b 6a bc
       0.0049295854 0.0030645716 0.0032070084 -0.014296397
0001b0 6a 7a d8 ba cb 3a 8f 3b 20 f9 57 b9 45 77 11 3b
       -0.0016515974 0.0043710223 -0.00020596804 0.0022196334
0001c0 99 03 88 3b be ca 13 3c 78 3e 3d 3b 2f ae 26 3b
       0.0041508195 0.0090205055 0.0028876346 0.0025433411
0001d0 00 de 11 bb 39 9e 17 3b f1 72 29 bc b3 e5 3b ba
       -0.0022257566 0.002313508 -0.010342346 -0.0007167712
0001e0 79 4b 0b 3b 01 37 91 3b bc 8a 61 3b eb 88 ad ba
       0.0021254702 0.004431606 0.0034414968 -0.0013239657
0001f0 38 9a bc bb 28 5a e4 bb c1 50 09 bb 9f bb bf 3b
       -0.005755689 -0.0069687553 -0.0020952674 0.0058512236
000200 69 ce f3 3a 50 e8 74 3b 8a ec ac ba 7a 87 94 3b
       0.0018600944 0.0037369914 -0.0013193053 0.0045327516
000210 01 58 60 3a 22 9d 97 3b b8 f0 03 bb 9b b1 a7 3a
       0.00085580355 0.004626886 -0.0020132493 0.001279402
000220 ab 71 8f 3b 6b 70 69 ba 76 62 7a ba 9e 44 b3 3b
       0.004377564 -0.0008904996 -0.0009551415 0.0054708263
000230 ff 27 23 3b 58 ac cd 3a da 18 ef bb ec 94 7b bb
       0.0024895666 0.0015691621 -0.0072966637 -0.0038388325
000240 0b 29 10 3a ea 0a fb 3a f1 f0 14 3b 32 71 85 b9
       0.000549928 0.0019153033 0.002272662 -0.00025452074
000250 62 c0 64 bb c6 ff ab bb 26 3a 0b bc d7 01 78 3a
       -0.0034904708 -0.0052489964 -0.00849775 0.00094607234
000260 c4 38 2c 3b 97 79 5b bb 09 b5 b8 bb af 52 10 3b
       0.0026278952 -0.0033489221 -0.0056368154 0.002202194
000270 40 e9 18 bb 28 d8 a7 3b 66 19 d2 ba 5e 25 82 ba
       -0.0023332387 0.0051222034 -0.0016029298 -0.0009929349
000280 f5 c3 46 bb 20 ea 5e 39 1e 5e c9 ba fc 2c 5f ba
       -0.0030329202 0.00021258788 -0.0015363132 -0.0008513478
000290 94 87 80 3b b6 5b 17 bb 25 29 3c 3c 58 45 a8 bb
       0.003922412 -0.0023095435 0.011484419 -0.0051352195
0002a0 00 5f 26 bc f0 f7 27 3a 47 0a c6 b9 de f5 93 ba
       -0.010154486 0.000640749 -0.0003777316 -0.0011288484
0002b0 58 6b 34 bb 04 81 58 bb b1 67 c8 b8 d0 7c 70 ba
       -0.0027529802 -0.0033035884 -9.556057e-05 -0.0009173872
0002c0 8c 81 26 bc 17 8b 1d bc 05 04 86 ba fb 9f 10 bb
       -0.010162722 -0.009615681 -0.0010224587 -0.0022068012
0002d0 2d 96 fb 39 73 03 4d b9 f3 46 32 3b c0 41 ad bb
       0.0004798634 -0.00019551608 0.0027202934 -0.005287379
0002e0 07 72 af 39 dc a7 79 b9 27 7d ca 3a b9 11 8d bb
       0.00033463558 -0.00023809023 0.0015448675 -0.004305091
0002f0 be 20 b2 bb a6 92 b2 3a 3c 38 bf 3b 15 95 21 3a
       -0.005436032 0.0013624027 0.005835561 0.00061638776
000300 1e b3 69 3b dd b3 12 3b 7c 27 c6 3a 3e 81 d8 3b
       0.003565974 0.002238504 0.0015117968 0.0066072037
000310 05 2c ff 3b e0 16 8f 3b df e4 5e b9 19 da e4 3b
       0.00778723 0.0043667406 -0.00021256831 0.006984007
000320 90 e3 ae ba 73 f6 c8 bb 5f 57 77 bb 50 e4 94 3a
       -0.0013342965 -0.0061328947 -0.0037741286 0.0011359546
000330 c0 ac b0 3b e6 f6 67 3a 8b 13 9d bb 00 07 20 bb
       0.005391687 0.00088487414 -0.0047935895 -0.0024418235
000340 d9 f6 fd bb ce b3 92 3b 01 b9 ee ba ad f2 d7 bb
       -0.007750374 0.004477001 -0.0018213094 -0.0065902085
000350 4d a2 13 bb 5a 6c b9 3b 45 56 f3 bb 17 ff 0c bb
       -0.0022527159 0.0056586685 -0.0074260556 -0.002151435
000360 8e 39 4b bb b3 c7 48 bb 5d b6 f9 39 b7 ac 5a 3b
       -0.0031009647 -0.0030636608 0.00047628852 0.0033367106
000370 87 05 d6 bb 9a 9f 9d 3b 62 47 ca b9 ba cf 5c ba
       -0.0065314206 0.0048102858 -0.00038581627 -0.00084232877
000380 34 2c 00 bc d2 d4 b3 bb f3 a3 51 bb ba 63 e8 3b
       -0.007823039 -0.0054880166 -0.003198859 0.0070919665
000390 55 b5 eb bb a3 88 0d bb 83 f3 a5 ba 53 e1 55 bb
       -0.0071932473 -0.0021596334 -0.0012661073 -0.0032635524
0003a0 6e 90 81 bb 9a d7 16 bc f8 b3 79 3b c8 d8 33 3b
       -0.003953985 -0.009206677 0.0038101654 0.0027442444
0003b0 f3 1f 7f 3c b6 93 87 bb 6c ac 3c ba 7d 5d ae 3a
       0.015571582 -0.0041374816 -0.0007197324 0.0013303008
0003c0 b3 95 86 3b b0 e4 2a ba a4 9a 73 ba e6 88 7e 3a
       0.004107201 -0.00065190624 -0.00092927576 0.00097097305
0003d0 0c 34 95 3b 8e af ce bb e5 63 8f 36 40 b0 01 3c
       0.0045533236 -0.006307549 4.2733614e-06 0.007915556
0003e0 ec 73 f4 bb 88 27 18 bb a1 6d f2 bb 85 57 9d bb
       -0.007460108 -0.0023216922 -0.0073983227 -0.004801693
0003f0 b3 f7 72 bb b7 c8 68 3b 30 f6 1a bb 71 d8 22 3b
       -0.003707391 0.0035520026 -0.0023645274 0.0024848247

net_layers.1.linear_1.bias f4 [320]
000000 cf 51 e3 bc 41 26 31 bd 14 04 36 bc 8d 0b 5b bd
       -0.02774897 -0.043249372 -0.011109371 -0.053477813
000010 b0 9b 87 3c 79 b7 13 bd 65 ca 2f 3b a9 14 ba bb
       0.01655373 -0.036063645 0.0026823517 -0.0056787324
000020 48 6f 55 bd 7e c5 15 3d 88 54 0d bd ba cf 42 3b
       -0.05210808 0.036565296 -0.034504443 0.0029725865
000030 8c f0 39 bd dd 07 0b 3d 85 86 14 3d e9 89 55 3d
       -0.04539542 0.033943046 0.0362611 0.052133474
000040 68 47 aa bb c1 09 44 bd dc c6 e9 3b 84 cf cb 39
       -0.0051965006 -0.047860865 0.0071343016 0.00038873788
000050 62 ae 24 3d 06 68 23 3d 5a 8b 6a bb 7c 4f 37 3d
       0.040205367 0.039894126 -0.0035788626 0.044753537
000060 f4 d6 ee bc f5 6c 71 3b f1 54 45 3b f7 85 0b 3d
       -0.029155232 0.0036838625 0.0030110443 0.034063306
000070 99 8d 43 bd c0 8d 51 bb 23 2d 3b 3d 27 e0 93 3c
       -0.04774246 -0.0031975359 0.045697343 0.01805122
000080 c8 10 33 bd 50 2f 16 3d cb 04 30 3d bc 79 18 3d
       -0.043717176 0.036666214 0.04297332 0.03722547
000090 d7 4f 63 bd 31 46 21 3d de 62 19 bd 9e 5a ae bb
       -0.055496063 0.03937358 -0.037447803 -0.005320861
0000a0 44 e8 fd bc 71 70 e8 3c ba 4d 0a bd 50 9c c2 bc
       -0.030994542 0.028373929 -0.033765532 -0.023756176
0000b0 42 c6 54 3d 54 ef 06 3d 88 c5 35 3d 3a bc 10 bd
       0.051946886 0.032943085 0.044377834 -0.035335757
0000c0 4f 52 16 3d ba 28 d6 bc a4 68 9f 3b aa ed ae bc
       0.03669959 -0.026142467 0.004864769 -0.021353561
0000d0 8e af 01 3c fa bb f4 3c 89 59 4f bd 24 ba 4b bc
       0.007915391 0.02987479 -0.050622497 -0.012434516
0000e0 c4 bb ae bc 5d 19 46 3d 39 47 b9 bc c7 f3 28 bd
       -0.021329768 0.048364032 -0.02261697 -0.04124811
0000f0 e5 d3 3d 3d 44 76 1a 3c 84 a4 cc bc 47 93 4c 3d
       0.046344656 0.009427611 -0.02498079 0.049945142
000100 05 9a 21 bd ac 82 18 bd 9b 80 fd 3b 83 f6 4e 3d
       -0.039453525 -0.037233993 0.007736278 0.05052806
000110 a4 1a fc 3c 38 ea 6f 3d 7c ec 06 3d 9a e8 36 bd
       0.030774422 0.058572978 0.032940373 -0.04465542
000120 17 bb d8 3b 21 3c c8 3b 1b 0e 39 3c e0 94 65 3c
       0.0066140997 0.0061106835 0.011294867 0.014012545
000130 e0 cb 12 3b e9 06 28 bd fe 85 c4 bc 30 e2 42 bd
       0.002239935 -0.041022215 -0.023989674 -0.04757899
000140 0e f1 23 bd 83 6a 08 3c b6 47 59 3c 19 50 15 3d
       -0.04002481 0.008326176 0.013261726 0.03645334
000150 63 bf 28 bc 22 31 30 3c b4 a6 50 bd ff 33 28 3d
       -0.010299536 0.010753902 -0.05094023 0.041065212
000160 ee 1c 3c bd 38 ec 63 3d d5 42 57 3d 39 6f 30 bb
       -0.045926027 0.055645198 0.05255397 -0.0026921763
000170 b5 ab e4 3c ee 8c 09 3b ab da 7e bc ff 41 46 3d
       0.027913908 0.0020988542 -0.015555064 0.048402783
000180 a0 36 76 bb 2b 6b 22 bd 6f 3a cf 3c 2b 76 f8 bc
       -0.003756918 -0.039652985 0.025296418 -0.030329784
000190 77 3c 19 bd e6 66 25 3d 8e 82 99 bc 62 c6 bd ba
       -0.03741118 0.040381335 -0.018739011 -0.0014478678
0001a0 8b e1 4f 3d d1 96 13 bd 62 76 eb 3c 93 2e 1a bd
       0.050752204 -0.0360325 0.028742973 -0.037642073
0001b0 43 c1 11 3d 6b 67 e6 bc 5e 42 f7 3c d7 51 4d 3d
       0.0355847 -0.028125485 0.030183014 0.050126877
0001c0 04 df 10 3d 2b 5a 60 bd fd c7 4a 3d 8a e8 19 bd
       0.035368934 -0.05477349 0.04950713 -0.037575282
0001d0 59 21 39 bc 66 1a 72 bb b7 16 fd 3b 80 ed 57 bb
       -0.011299455 -0.0036942004 0.007723655 -0.0032947958
0001e0 95 76 53 bd 15 0d 2e 3c 2f e6 10 3d b4 ad ee bc
       -0.05162676 0.010623236 0.03537577 -0.029135562
0001f0 e8 4c 26 bc 5b 95 af 3c 64 6a 27 bd ce ac 78 b8
       -0.010150172 0.021433523 -0.040872946 -5.9288745e-05
000200 59 f7 e7 3b ae 09 ed bc 60 47 e7 3c 89 2d ef bc
       0.0070790467 -0.02893528 0.028232276 -0.029196518
000210 7d cf 51 3d ea 4f 05 bd d6 68 c9 bc c6 b5 4b bd
       0.051223267 -0.032546915 -0.024586122 -0.0497339
000220 8a 21 0f 3d 45 58 45 bd 67 56 04 3c 5e e7 dc bb
       0.034944095 -0.048179884 0.008077241 -0.0067414483
000230 4b 20 2c bc ee 5b da bc 2c da 31 bd 4b 77 bd 3b
       -0.010505746 -0.026655164 -0.043420956 0.005782043
000240 c3 85 00 bd af 9e eb bb a5 ce 58 bd 87 7d de bc
       -0.031377565 -0.0071905474 -0.052931447 -0.027159465
000250 d9 43 ef 3c c0 46 5c bd e9 c0 b7 bc b5 e7 d8 bc
       0.029207157 -0.05377841 -0.022430854 -0.026477674
000260 be 0a ba bc d8 46 3b bd 69 61 16 bd 4b fe 56 3d
       -0.0227102 -0.04572186 -0.03671399 0.052488606
000270 71 a8 8e 3c 32 32 d3 3c e1 e1 f6 bc 22 32 14 bd
       0.017414303 0.02578077 -0.030137004 -0.036180623
000280 f9 dd 1c bd fd ba f1 3c 29 19 9d 3c 05 43 fd 3c
       -0.038297627 0.029508108 0.019177036 0.030915746
000290 9c c5 3f 3d fa cb 0d bc 2b 71 a7 bc 64 81 8b bc
       0.046819314 -0.008654589 -0.020439705 -0.017029472
0002a0 28 2c 33 bd 41 0e 67 bd 10 af 1c bd b2 cd 25 3c
       -0.043743283 -0.056410078 -0.03825289 0.010119842
0002b0 27 d4 32 3c 2a 45 32 bd 03 9e 58 3d 95 f0 1c 3d
       0.010914839 -0.04352299 0.052885067 0.038315374
0002c0 d6 16 b9 3b 23 46 46 bc 44 f8 0c 3d 25 32 3e bd
       0.005648474 -0.012101683 0.034416452 -0.04643454
0002d0 7c 24 b7 bc 53 ed 45 bd 6b 5f 2b 3d 33 04 c1 bc
       -0.022356264 -0.048322033 0.041839045 -0.023561573
0002e0 59 d4 c4 bc 66 1a f1 bc ec 8b 34 3d 9a 04 ae bb
       -0.024027037 -0.029431533 0.044078752 -0.005310607
0002f0 61 f0 43 bd d6 53 67 3d 33 ad bd 3b f8 8a 9b bc
       -0.047836665 0.056476437 0.005788469 -0.018987164
000300 88 9b 33 3d 2b ba 54 bd 33 0e 22 3d b7 be 49 3d
       0.043849498 -0.051935356 0.039564323 0.049254145
000310 f4 a7 c0 bc 9c 23 2d 3d 25 a8 9c 39 81 71 30 bd
       -0.023517586 0.042270288 0.00029879916 -0.043076996
000320 de 0a 27 bd 18 b3 40 bd 89 7e 13 bd f0 88 f6 3b
       -0.040781848 -0.047045797 -0.036009345 0.0075236484
000330 3a 85 29 3d ac 39 3d 3c 8c 14 33 3d 30 97 9d ba
       0.04138682 0.011549395 0.043720767 -0.0012023207
000340 fe bc 0e bd 56 2f a7 3c 07 03 df 3c d0 85 4b 3d
       -0.034848206 0.020408314 0.027223123 0.04968816
000350 79 49 c8 bc df 2f be 3c d9 27 84 3a 23 93 1b 3c
       -0.024449097 0.023216186 0.0010082676 0.009495529
000360 aa 51 29 bd ca ff 07 bd e9 6a 40 bd 56 d9 0c bd
       -0.041337647 -0.033202924 -0.046976957 -0.034386955
000370 23 c0 00 bb 08 ce c5 ba 98 73 3f 3c 16 a2 20 bd
       -0.0019645772 -0.0015091309 0.011685275 -0.039217077
000380 47 fb 93 3b 51 d3 c3 3c 6b 44 aa 3b 21 0c e6 3b
       0.0045160386 0.023904474 0.0051961443 0.007020489
000390 31 a2 22 3c 54 4d 0a 3d dd 30 5e 3c db 3f 43 bd
       0.009926365 0.033765152 0.013561455 -0.04766832
0003a0 b1 86 11 bd 71 13 2e bd 02 3b 63 bd 46 49 bb 3c
       -0.035528842 -0.04249901 -0.055476196 0.022862088
0003b0 b9 31 3f 3c ca 15 1a bd eb 83 c2 3c 62 9d ab 3b
       0.01166957 -0.037618436 0.023744544 0.0052372674
0003c0 ef ee 4a bd f4 81 45 bd 11 39 05 3c 0f ed 4b 3d
       -0.04954427 -0.048219636 0.0081312815 0.049786624
0003d0 c2 c1 34 3d 07 dd 57 3c db 85 52 3d db c2 09 3c
       0.044130094 0.013175256 0.051397186 0.008408274
0003e0 2a bf 58 bd c7 de 01 bd 3b cc 25 3c 28 6e 06 bd
       -0.052916683 -0.031706598 0.010119493 -0.032819897
0003f0 ae 3d f0 3c a2 a7 29 bd 65 9c 52 bd c5 55 8e 3c
       0.029326286 -0.041419633 -0.05141868 0.017374882

net_layers.1.linear_2.weight f4 [320, 320]
000000 2b 59 cb bb e3 3c 17 ba ab 5d ed bb c2 13 1c 3c
       -0.006205698 -0.00057692657 -0.007243832 0.009526195
000010 05 38 61 bc e2 23 6f 3b 65 ea 8c 3a d3 9a 67 3c
       -0.013746266 0.0036489894 0.0010751007 0.014136034
000020 1f 1d 93 3c 9d 33 83 3b 6c f7 3d 3c 5d a8 60 3b
       0.017958222 0.0040039555 0.0115946345 0.003428004
000030 ba 34 fd 3b 0a ee 03 bc 99 03 6c bb 3e 1e 1e 3a
       0.0077272328 -0.008052358 -0.0036012887 0.0006031728
000040 87 7b 2b bb ea d3 c0 bb c0 18 de 3b 2b 22 e3 3b
       -0.0026166157 -0.005884637 0.006777853 0.0069315634
000050 48 4b ce 3b 85 42 00 3c d5 f5 ba 3b 01 61 ff bb
       0.0062955953 0.0078283595 0.005705575 -0.007793546
000060 af 20 a7 38 3a 9f 94 bb dd ed 9b bb e1 d1 8e bb
       7.969268e-05 -0.004535583 -0.00475858 -0.0043585156
000070 43 59 9f ba 51 2e b3 bb 39 4b 60 bc 71 d3 d7 39
       -0.0012157339 -0.005468168 -0.0136898095 0.00041165532
000080 ea e3 0d bc b1 36 a9 3b 1d 9c a9 bb 4b db 7d ba
       -0.008660296 0.0051639904 -0.005176081 -0.0009683861
000090 37 4e 48 3b bb 8d 9e ba ed 7c d7 bb d1 76 ea ba
       0.0030564198 -0.0012096682 -0.0065761716 -0.0017888193
0000a0 b1 22 5b 3c 9f fe ee bb 34 5e 5b 3c 1c 94 dc bb
       0.01337497 -0.007293537 0.013389159 -0.006731523
0000b0 15 87 34 bc 92 1c 80 bb b2 f4 b6 3b be cf 3a bb
       -0.011018534 -0.003909656 0.005583369 -0.0028505172
0000c0 a4 a1 28 bb bc 5c 71 3b 32 c1 a4 3b 27 f1 b2 3b
       -0.002573111 0.0036828956 0.0050279135 0.0054608765
0000d0 5d d0 2c bc 9d 72 61 bc 6a 26 3f 3c 11 57 bf bc
       -0.010547725 -0.013760236 0.0116668735 -0.023356946
0000e0 7b f6 30 3b fb 6f d6 ba d1 67 51 3c 08 d4 f3 3a
       0.0027002383 -0.0016360277 0.012781099 0.0018602619
0000f0 53 de 44 bc 2f 7f b8 bb 9d 3a b0 3b 81 a8 38 bb
       -0.012015897 -0.005630396 0.005378081 -0.0028176608
000100 5f 3e fa 3b 55 c8 10 3c 08 a4 80 bc d1 0e 3f ba
       0.0076368297 0.008836825 -0.015703216 -0.00072882796
000110 1e 78 b6 bb 9f b6 35 bb e6 61 2a ba 40 27 e2 ba
       -0.0055685183 -0.002772726 -0.00064995734 -0.0017254129
000120 db 6e fe ba b7 e8 21 ba a6 81 82 ba 0c c6 51 3b
       -0.00194117 -0.000617634 -0.0009956851 0.0032008914
000130 b8 fb 72 3b 08 55 6e 3c fd 9b 30 3a e2 6b 44 3b
       0.0037076306 0.01454664 0.0006737111 0.002997153
000140 5a c1 34 bb 7c 90 f2 ba 30 55 fe bb c2 49 14 bb
       -0.0027581067 -0.0018506194 -0.00776162 -0.002262697
000150 77 97 56 3c a8 bf 25 3b 37 5c 18 3c ac 75 d7 3b
       0.0130976355 0.0025291238 0.0092993295 0.006575307
000160 aa 8a 5c 3a c7 ce 97 3b 10 4d 2e ba b9 78 36 3c
       0.00084129965 0.004632804 -0.00066490564 0.011137181
000170 ce 81 22 bc 96 f5 36 3c ab 3d dd 3b 91 54 0f bc
       -0.009918643 0.011166951 0.006751736 -0.00874819
000180 ce 5e e2 ba 7d fe d7 3b d3 72 2b bc c1 27 68 3c
       -0.0017270686 0.0065916167 -0.010464388 0.014169634
000190 cb 81 e2 3b ba 3c 60 bb e7 5b c4 3a 35 2a 5d 3b
       0.006912445 -0.0034215883 0.0014981002 0.0033747081
0001a0 87 96 31 ba 7e c1 68 3c 8b 24 0a bc c1 f9 85 bb
       -0.00067744445 0.014206288 -0.008431564 -0.004088611
0001b0 28 39 11 bc b6 9c 84 3b 5e 24 6f bb b8 f6 34 bb
       -0.008863725 0.0040470017 -0.0036490182 -0.0027612876
0001c0 be 46 e5 bb 0e a3 47 3c d9 ca 28 ba 94 a2 2f bb
       -0.0069969585 0.012184871 -0.0006438918 -0.0026799785
0001d0 a8 28 88 3c 75 81 59 3b 09 43 8e bb 25 6a df bb
       0.016620949 0.0033188735 -0.0043414873 -0.0068180733
0001e0 a5 97 71 39 e1 fc 21 3c e1 99 37 3c 2a 70 ca bb
       0.00023040043 0.009886951 0.011206121 -0.006177922
0001f0 02 e2 76 39 8b 0d 0f bc d3 96 fd 3b e4 2f 19 3c
       0.00023544583 -0.008731256 0.007738927 0.009349797
000200 bb 56 8b 3a 07 d1 8d 3c 43 85 d9 3a bb 08 e7 3a
       0.0010630706 0.017311586 0.0016595501 0.0017626503
000210 5d d9 f3 3a ad f2 f9 3b 60 2b d0 3b 81 61 3a 3b
       0.0018604208 0.007627806 0.006352827 0.0028439465
000220 b6 83 94 3a 21 9c 6b 3b 5c 16 55 bc a9 9f e8 3b
       0.0011330757 0.0035951214 -0.013005819 0.007099111
000230 87 d3 0c bc 30 24 90 b9 39 8a a8 bb 2b 63 8a bc
       -0.008595354 -0.00027492782 -0.0051434305 -0.01689299
000240 d7 2a 12 bc 7a 6f f1 bb 7c 73 2d bc 5f 03 3f 3c
       -0.008921347 -0.0073680254 -0.010586616 0.011658519
000250 b1 03 74 3b d3 8f 3d 3c e2 82 2c 3c 49 3f b0 3a
       0.0037233646 0.011569935 0.010529252 0.0013446595
000260 ce fa ce 3b 72 f4 14 3c ae 97 28 3b 05 93 1e bc
       0.0063165193 0.009091483 0.0025725174 -0.009678607
000270 7d af 54 bc ee 95 c6 bb 24 8d 8a 3b 93 ba 8b bb
       -0.012981293 -0.0060603535 0.004228251 -0.0042641847
000280 06 36 96 bb a4 bc 46 3c d0 7c 84 bb 40 74 bf 3b
       -0.004584077 0.012129936 -0.004043199 0.0058427155
000290 41 e0 6d bc 9c 36 a9 3b ac 32 3c 3c c5 5e 45 3b
       -0.014518798 0.0051639806 0.0114866905 0.0030116301
0002a0 61 b8 48 3c 91 25 7c 3c ec ec 31 ba 91 c5 5e 3b
       0.012250991 0.015389816 -0.0006787318 0.003399227
0002b0 09 32 a7 3b c8 53 85 3b 34 61 8f bb 2c 32 a5 3b
       0.0051024 0.0040688254 -0.004375601 0.0050413813
0002c0 21 a7 9f bb 99 c4 30 ba a5 4a 17 3c 43 72 13 bc
       -0.0048722182 -0.00067431625 0.009234105 -0.00899941
0002d0 15 d1 47 bc e7 2c d7 bb d2 b8 99 3b 4e 6f b8 3b
       -0.012195845 -0.006566632 0.0046912218 0.005628503
0002e0 c5 5b 3e ba 2a 9b 42 3c 4b b7 61 bb 15 ba 4f bc
       -0.00072615995 0.011877814 -0.0034441527 -0.012678643
0002f0 39 1f a9 ba 5c 47 49 bc f2 96 bc 39 b7 b9 b5 3b
       -0.0012902982 -0.01228508 0.00035970617 0.0055458206
000300 ec f9 7a bc d1 c4 57 3b 31 ae 10 bc 76 36 fd ba
       -0.015318375 0.0032923708 -0.008830593 -0.0019318599
000310 27 22 05 bc 29 33 46 3b 4d 9c 29 bc ed 2b 36 3b
       -0.008125818 0.0030242896 -0.010352206 0.0027797178
000320 75 55 1a bc 78 5c 1c bc 84 41 1d 3c 57 89 1a bc
       -0.009419789 -0.009543531 0.00959814 -0.009432158
000330 1d 00 cf bb 8e 14 06 bc 7b 9c 15 3c 02 b5 08 3c
       -0.006317152 -0.008183612 0.009131546 0.008343937
000340 56 38 ad bb 62 40 14 bc 4b ae 0c bb d1 e5 ff bb
       -0.005286257 -0.009048553 -0.0021466191 -0.0078093787
000350 58 e9 11 bc 44 c4 d8 3b b1 79 43 bc 9c 3d fd 3b
       -0.008905731 0.0066151936 -0.011930869 0.0077282917
000360 2e b2 81 3c f9 43 39 3c 3f fe 41 3b 3e 7d 81 3b
       0.015832033 0.01130771 0.0029601005 0.0039516976
000370 17 c3 06 3c 97 65 8b 3b 97 cb b0 bb db 6d 9d 3b
       0.008225224 0.004254054 -0.0053953636 0.0048043556
000380 f4 3a fa ba fa 72 10 bc 21 aa 2c bc a2 3e 8f 3b
       -0.0019091056 -0.008816475 -0.010538609 0.00437148
000390 cf 86 e0 bb e8 2d 40 3b 8f 52 d7 bb cf 9d b6 3b
       -0.006852008 0.0029324237 -0.006571121 0.0055730115
0003a0 5e e4 05 3c 09 ca c4 3b f7 07 a7 ba 6b 72 87 bc
       0.008172123 0.00600553 -0.0012743463 -0.01653405
0003b0 08 a0 69 3b dc 7e 83 3c f9 74 19 3b 58 f7 22 3c
       0.0035648365 0.016051702 0.0023415668 0.009946667
0003c0 fc 08 d8 bb 45 24 b5 bb 42 35 b3 ba e3 28 2d bc
       -0.006592868 -0.0055280053 -0.0013672488 -0.01056883
0003d0 41 9d a4 3b a7 e9 0c bc 96 7f 7b bc b7 e1 cc bb
       0.005023629 -0.008600629 -0.015350243 -0.0062524932
0003e0 ae da 43 bb 7f 99 fb 3b c7 53 2d bb 6b 6d 60 3b
       -0.0029884982 0.0076782103 -0.002644764 0.0034244906
0003f0 f9 06 a4 3b 68 06 48 3c 6f fd 8c b9 76 ef be bb
       0.005005714 0.012208559 -0.00026891704 -0.005826886

net_layers.1.linear_2.bias f4 [320]
000000 76 22 01 bd 51 99 b2 bc ed 65 57 3d 90 98 bc bc
       -0.031527005 -0.021801623 0.05258744 -0.023021966
000010 eb cd 15 bd c0 04 9e bc 8b aa 25 bd 63 7f 37 3d
       -0.03657333 -0.019289374 -0.040445846 0.04479922
000020 fe 05 e0 ba f8 83 f2 bc b0 5c 5e bd e5 a6 ef bc
       -0.001709163 -0.029603943 -0.054287612 -0.029254386
000030 e0 42 12 bd bd 65 4f 3d ce 48 2b bd cc f3 02 3c
       -0.03570831 0.050634135 -0.04181748 0.007992696
000040 2f 96 13 3d 5f b4 31 3d 1e b6 57 3c 4e d0 27 bd
       0.036031898 0.043384906 0.013165979 -0.04097014
000050 a4 69 f2 bc a3 4c 6a bb c5 2f 51 3d bd d8 ff 3b
       -0.029591389 -0.0035751245 0.051070947 0.0078078196
000060 5f 63 ce bc c6 87 22 bd d5 ee 41 bd e7 c1 68 bb
       -0.025193868 -0.039680265 -0.04734691 -0.0035515965
000070 b6 bb 41 3d 4c b3 03 3c 75 96 58 bd bf c1 07 3d
       0.047298156 0.008038353 -0.052877862 0.033143755
000080 1f 96 06 3d 92 1d 5e bd 53 56 8b 3c 7a c3 6c bd
       0.03285801 -0.05422742 0.017008936 -0.05780361
000090 b8 44 85 bc ec 64 31 bd 67 59 fe 3c 8d 33 39 3c
       -0.01626812 -0.043309137 0.03104849 0.011303795
0000a0 c4 72 2f bd 7b 12 dc bc 56 20 5c bc 57 29 66 39
       -0.04283406 -0.02686428 -0.013435444 0.0002194991
0000b0 2e a3 0d 3d 2d c5 53 bd 13 05 7f bc f3 80 2b 3c
       0.03457945 -0.051701713 -0.015565175 0.010467756
0000c0 31 42 49 3d 1a 8d 7d 3a bd d7 14 bd d9 ef 44 bd
       0.04913539 0.000967221 -0.036338557 -0.0480803
0000d0 9d 34 d8 bc fd 12 31 3d 96 e3 0e bc 3a 2c 0f bd
       -0.026392275 0.043231 -0.008721253 -0.034954287
0000e0 fb 04 0d 3d 82 52 4f 3d b3 fb 8f bc 46 b9 6a 3d
       0.034428578 0.050615795 -0.017576074 0.057305597
0000f0 21 72 42 3d 58 0a fe 3a 32 68 2b bd ca 3c 07 3d
       0.047472123 0.0019381745 -0.041847415 0.033016957
000100 98 87 91 bb 2c 7b 53 3d df ea 7b 3c b1 66 76 3b
       -0.004441213 0.051631138 0.015375822 0.003759783
000110 c2 14 75 bc 7e 40 3f bd d9 8e 3b 3d 56 6c 25 3d
       -0.014958562 -0.046692364 0.045790527 0.04038652
000120 65 89 31 3d 8d 3d 25 3d 88 94 ff 3c 6d 5d 58 bd
       0.04334392 0.040341903 0.031198755 -0.052823473
000130 d8 60 87 bc e8 a9 1e 3d 58 13 fb 3c 68 01 d2 3c
       -0.01652567 0.038736254 0.030648872 0.025635436
000140 59 c9 fc bc 05 59 d4 3c 1c 90 71 3d 31 5f 79 bb
       -0.030857729 0.025921354 0.058975324 -0.0038051123
000150 29 93 69 bc d5 f2 d7 bc 02 20 1d 3d 6d f1 e2 3c
       -0.014256277 -0.026360909 0.038360603 0.027703011
000160 da 5f a3 bc d0 7c 9f bc b5 99 36 3d c0 a8 60 bd
       -0.019943167 -0.019468695 0.04458018 -0.054848433
000170 76 77 2c 3d 7b f7 3c 3d 48 f9 0e 3c 0d 97 48 bd
       0.042106114 0.046134453 0.0087264255 -0.04897218
000180 d0 b5 6b bd d0 8c 4c bd f0 e8 62 3b 88 84 ff 3c
       -0.057546437 -0.049938977 0.0034623705 0.031191126
000190 15 b4 03 bd 52 2c 31 bb 5f 75 19 bd 73 d4 e9 bc
       -0.03215416 -0.0027034474 -0.03746545 -0.028543686
0001a0 9f 49 22 bc 5d 3a 60 bc 6f 91 30 bd d4 44 db 3c
       -0.009905248 -0.01368579 -0.043107446 0.026766218
0001b0 49 ba 35 3d e2 45 0b bd 45 7d a1 ba 25 d3 27 3d
       0.04436711 -0.034002192 -0.0012320658 0.040972847
0001c0 39 09 c6 bc 34 76 1c bd 55 8a 4d 3d 6b 4f 1b 3d
       -0.02417432 -0.038198665 0.05018075 0.037917536
0001d0 c5 f2 35 3d ef cd 4f 3d 89 b8 d8 3c fd a2 20 3d
       0.044420976 0.050733503 0.02645518 0.039217938
0001e0 c7 52 8a 3c c5 1c 27 3c fa de 94 3c b4 aa 19 bc
       0.016885174 0.01019973 0.01817273 -0.009379078
0001f0 6f 82 2a bd 5f 73 bc bb 22 1f ce 3c af db 6c 3d
       -0.041628297 -0.005751058 0.02516133 0.057826694
000200 72 ed 52 3d 3e 13 07 bc 5f d1 c6 bc b8 88 bf bb
       0.051495977 -0.008244334 -0.024269758 -0.0058451556
000210 f1 5a b1 3c 70 1e 0f 3d d7 39 5f bd e1 79 85 3c
       0.02164981 0.034941137 -0.05449852 0.016293468
000220 5b 67 54 3c 25 64 73 3d eb f4 e5 bb 6b a3 5e bd
       0.012964095 0.059421677 -0.007017722 -0.054355066
000230 4b e8 0f 3d 70 02 7c 3c bd aa 68 3d e0 58 47 bd
       0.03513364 0.0153814405 0.056803454 -0.048668742
000240 0d b2 e2 3c 65 76 3b bc b2 51 bf bc af e0 28 bc
       0.027672792 -0.011441802 -0.023354385 -0.010307475
000250 12 67 cd 3c 93 04 a5 3c eb a8 ec 3c c1 e2 24 ba
       0.025073562 0.020143783 0.02888914 -0.00062898925
000260 98 3f 0a 3d 3b cf 16 3c 4c 98 61 3b 57 45 a0 3c
       0.033752054 0.009204681 0.0034423051 0.019564314
000270 28 2e e3 bc 5e a7 16 3d 26 25 37 bc 1c 15 86 3c
       -0.02773197 0.036780708 -0.0111782905 0.016367488
000280 7f bb 13 39 6f 72 6b 3b 3c 72 4d 3c ab 94 0d 3d
       0.0001408886 0.0035926362 0.012539443 0.03456561
000290 80 49 65 bd 52 f1 e8 3c 3a 21 43 bd bd bf 13 3d
       -0.0559783 0.028435383 -0.04763911 0.036071528
0002a0 87 2b 50 3d bd c7 a4 bc 1f 99 af 3c 24 0b c5 3c
       0.05082276 -0.020114774 0.021435319 0.024053164
0002b0 26 ef 21 bd 74 40 48 bd 65 61 22 bd 24 48 74 bb
       -0.03953471 -0.048889592 -0.039643664 -0.0037274444
0002c0 a1 74 df 39 e2 4a eb 3c fc 9d 0a 3d 79 21 0b bd
       0.0004262077 0.02872223 0.033842072 -0.03396747
0002d0 ba 35 cf bc 5c 9f 23 3d 2b 27 fb 3c b1 9c cf bc
       -0.025294174 0.0399469 0.030658325 -0.025343271
0002e0 81 90 60 bd 86 94 5e 3d d7 f9 db 3b 94 52 a9 bc
       -0.05482531 0.05434086 0.006713133 -0.02066926
0002f0 2e fb 2e 3d 5c b1 3a 3c be ef 18 bd 0d c6 62 3d
       0.042720012 0.011394825 -0.03733801 0.055364657
000300 e7 62 51 bd 3e 07 c2 bc 49 1b 55 bd 04 1a 08 3d
       -0.05111971 -0.023685094 -0.052027974 0.033227935
000310 44 41 ed bc 26 ce 69 bc 3b b1 68 bc 5f 23 5f bd
       -0.028961785 -0.014270341 -0.014202411 -0.054477092
000320 1f ed 50 bc 44 01 e3 3c 41 e7 ad bc f3 03 11 3d
       -0.012751847 0.027710564 -0.021228435 0.035404157
000330 db bb c1 3c 55 1b 1a bc 38 c8 c2 bb aa 74 28 bd
       0.023649147 -0.0094059305 -0.005944278 -0.041126885
000340 16 5b 8d 3b 90 98 21 bd aa 98 50 bd e0 53 41 bd
       0.004313837 -0.039452136 -0.05092684 -0.04719913
000350 0a b1 02 bd 76 e3 e3 3c ff b9 05 bd 18 71 5f ba
       -0.03190712 0.027818423 -0.032648083 -0.0008523627
000360 2e 73 18 3d 7d ab eb bc ca 69 53 bc 4d 48 0a 3c
       0.03721922 -0.028768295 -0.01290364 0.008440089
000370 05 e9 63 bd 7b 5c 19 bc 9b ca 69 bd 9c 63 66 bd
       -0.055642147 -0.009360428 -0.057077985 -0.05624734
000380 ed 01 ee 3c b2 70 92 3c 23 1c 28 3d 01 7e b2 ba
       0.029053653 0.017876003 0.04104246 -0.0013617874
000390 35 2c 03 bd 0f d6 67 bd 6f 5d d4 3c 27 52 c7 bc
       -0.03202458 -0.056600627 0.025923459 -0.024331165
0003a0 d0 05 0c bc 20 b4 64 3b 29 ec c1 bb 42 c4 7b 3b
       -0.008546308 0.0034897402 -0.005918045 0.003841654
0003b0 0b e0 b5 3c 66 0f b8 bc b3 7c f8 3b 27 f2 a0 3c
       0.022201559 -0.02246828 0.0075832247 0.019646717
0003c0 1c ca 10 3d 55 51 0b bd 78 07 0c 3d 33 6b e7 3c
       0.035348997 -0.03401311 0.03418681 0.028249359
0003d0 63 74 d3 bc a2 3d c5 3a 65 2f 5d bd e6 25 22 3c
       -0.025812333 0.0015048275 -0.054000277 0.009896731
0003e0 19 4d c0 3a 00 03 46 bd 95 da 73 ba f3 14 07 bd
       0.0014671414 -0.048342705 -0.00093022856 -0.032978963
0003f0 3f 92 56 bd 31 dc 1e 3d 67 ca 97 3c c2 23 fc bb
       -0.052385565 0.03878421 0.01852913 -0.0076946924
